test_q.pt (torch, 17479 bytes, 5 tensors)

layer1.bias f4 [10]
00000000: e868 c63d 8326 31bc c628 0e3e d4cb bebb
00000010: 5c95 bc39 9217 153d c203 12be bfd7 a03d
00000020: 34c1 14bd 34a4 6ebc
0.09687978 -0.010812405 0.13882741 -0.005822638 0.00035969436 0.03639943 -0.14259246 0.0785365
-0.036317065 -0.014565516

residual_block.layer1.bias f4 [10]
00000000: d1b5 67bd bff4 efbd 4818 09be f7d8 d7bd
00000010: dc4f ca3d 8e30 03be b84c fb3c cb63 45bc
00000020: f704 e03d 8c7b dbbd
-0.056569878 -0.117166035 -0.13388169 -0.1053943 0.09878513 -0.12811491 0.03067623 -0.012047718
0.10938447 -0.10716924

residual_block.layer2.bias f4 [10]
00000000: b790 9dbd 13b8 593d a8e1 853d 55cd cc3d
00000010: f1b1 ec3b 28d9 96bd 678c dc3d e504 18bd
00000020: ed24 d73d 6044 88bb
-0.07693618 0.053154062 0.06537181 0.100001015 0.0072233607 -0.07365638 0.10768967 -0.037114043
0.1050509 -0.0041585416

layer2.bias f4 [10]
00000000: 13d2 92bb 1ec6 0ebe fef3 b73d 0efa b33d
00000010: ce14 c43d eb8a c3bc 5166 d73d 7060 503c
00000020: aa1b 793d 15ba c13d
-0.004480609 -0.13942763 0.08982085 0.087879285 0.09574281 -0.023869952 0.10517562 0.012718305
0.060817398 0.094593205

cpu f4 [6]
00000000: 86c8 17bc c25e 8b3c 95f2 d83b 7de5 b9bc
00000010: f9b2 72ba 2050 733c
-0.009264117 0.017012957 0.006620715 -0.022692436 -0.00092582364 0.014850646
