test.pt (torch, 46845 bytes, 26 tensors)

layer1.weight f4 [10, 9, 5]
000000 33 79 f5 3d 07 97 8d bd e7 6f c9 3d 7d b6 ba 3b
       0.119860075 -0.06913572 0.09835797 0.005698024
000010 34 db af bb 6f f8 cf 3d 88 8e b6 bd 71 ef 8c bc
       -0.005366707 0.10154807 -0.089139044 -0.017204018
000020 01 67 9f 3d 8f ac 03 3d 26 95 81 3d da 4d 0a be
       0.07783318 0.032146987 0.06327276 -0.1350626
000030 74 26 61 bd 41 ba 00 3e 71 9f da bd c5 dd 88 bd
       -0.054968312 0.1257105 -0.10674942 -0.06682924
000040 e2 35 48 3c 4b 0b db 3c 69 04 90 3d f0 f2 bf bc
       0.012219878 0.026738783 0.07032091 -0.023431271
000050 f3 db 91 bc a6 fe f6 bd 80 9b 08 be 1b ff 30 bd
       -0.017805075 -0.12060289 -0.13340569 -0.043212038
000060 21 f8 df bd 4e e4 79 bd a2 ad 85 bd 4a 91 98 bc
       -0.10935999 -0.061008744 -0.065272585 -0.018623967
000070 1e 52 3b 3d ef cd a3 bd 71 d7 1b 3d e8 74 40 3d
       0.04573261 -0.07998263 0.038047258 0.04698649
000080 41 b6 c3 bd 45 0a 6f bd 53 56 14 bd e2 76 0a 3e
       -0.095562465 -0.058359403 -0.036215138 0.13521913
000090 84 ad 17 3e 53 8f 0a be c9 34 f6 bd 30 fd 9c bc
       0.14812285 -0.13531236 -0.12021787 -0.019163698
0000a0 84 77 82 bd a4 da e9 3d 9d 8d 0c be de 42 64 3c
       -0.06370452 0.114186555 -0.13725896 0.013931958
0000b0 70 18 26 bd 60 a2 04 be 24 ec f5 3d a0 a5 92 bd
       -0.04055065 -0.12952566 0.12007931 -0.07160497
0000c0 aa 86 03 be 9a 65 fd 3c f9 f2 01 bd c4 03 0e be
       -0.12844339 0.030932236 -0.031725857 -0.13868624
0000d0 2a 0b f9 3d 86 5e 8b 3d 8b b5 00 bd 8a fa fb 3d
       0.121603325 0.06805138 -0.031423133 0.12303646
0000e0 d5 da 5c 3c b7 5e 45 3c 91 d8 99 bd 0f 35 5f bd
       0.013479908 0.012046508 -0.0751201 -0.05449396
0000f0 49 3d d3 bd a1 dd bf bd 8d a5 c9 3d d4 68 aa 3c
       -0.103144236 -0.09368444 0.098460294 0.02080194
000100 93 a4 09 bd 56 50 dd bc 13 1b bb 3c 26 67 2d bd
       -0.033604216 -0.027015846 0.022840058 -0.0423347
000110 10 8e 5e bd 6b 63 d9 bd 2a 25 cf 3d 04 bf 4f bc
       -0.0543347 -0.106146656 0.1011451 -0.012679819
000120 2c ee bc bd 41 e6 7f bd d6 4e 15 be bb 13 c5 3d
       -0.09225115 -0.062475447 -0.14580855 0.09622904
000130 f7 18 0c bc 00 a6 a3 3c ef fc c4 bd e8 fd c2 3d
       -0.008550874 0.019976616 -0.09618556 0.09521085
000140 eb d2 0e 3e 90 0f db 3d 3d 70 c0 bd 4f ba 44 bd
       0.13947646 0.10696328 -0.09396408 -0.04802924
000150 88 f1 12 3e b1 f5 f5 3d 2a b3 ed bb 2b 4e d9 bc
       0.1434995 0.120097525 -0.007254024 -0.026526531
000160 0e 26 bd bc fe 10 a1 bd 7f 9d b3 3c 73 69 d4 bc
       -0.023089435 -0.07864569 0.021925686 -0.025929188
000170 95 26 f8 3d 74 00 bf bd 50 06 d7 3d df 84 0d 3e
       0.12116734 -0.09326258 0.10499251 0.13820218
000180 72 20 cd bd 4e f1 96 3d 34 be 0f be 2a a1 18 3d
       -0.10015954 0.07370244 -0.140374 0.037263073
000190 2f 7c 0d bd 79 af 54 3d ee f3 61 3d 25 5b 97 3d
       -0.03454226 0.051925156 0.05516427 0.07390431
0001a0 69 05 26 3d 9c 84 6e bc 0e 99 2a 3d ac 1d cf 3d
       0.040532503 -0.014557984 0.04164987 0.10113081
0001b0 da bc c5 bd bf 8c 38 bd 9a df c3 3d fa 40 8d 3d
       -0.09655161 -0.0450561 0.09564133 0.06897159
0001c0 92 ed 49 bd 57 69 85 3d 4a 0c c5 bd af f0 93 3d
       -0.04929883 0.065142326 -0.096214846 0.07223641
0001d0 d5 6a 56 3d ea f9 ba 3d 81 3c 89 bd ac 69 04 3e
       0.052347977 0.091296986 -0.06700993 0.12930936
0001e0 82 63 ae 3d 09 c7 44 bb 15 70 1d bc 7d 50 fe bd
       0.08515073 -0.003002586 -0.009609242 -0.12417696
0001f0 00 6c 07 3e a2 99 63 3d 5a c5 cf 3c da 67 0a 3e
       0.13224792 0.055566438 0.02536266 0.13516179
000200 5d aa 3e bd d0 82 11 3e 68 2e c9 3d 77 aa d1 3c
       -0.04654919 0.14210057 0.098233044 0.02559398
000210 8c b4 65 3d 1f 0a 01 be 7b eb e2 3c b0 af a2 bd
       0.056080386 -0.12601517 0.027700176 -0.07943666
000220 5f 84 11 3e d7 0c 1d bd 02 e0 03 be 81 df d5 3c
       0.14210652 -0.038342323 -0.12878421 0.026107552
000230 85 4c 7d 3d 5c 67 a5 bd bf 1c 9a 3d 93 ac 1c 3d
       0.061840553 -0.08076355 0.07525014 0.038250517
000240 41 10 c4 bd e1 35 21 3d fe 74 03 3e 3e ec b7 3d
       -0.09573413 0.039358024 0.12837598 0.089806065
000250 bb ae 74 bd 60 8b d7 3d b4 4f e7 3d 75 ab 14 be
       -0.05973695 0.105246305 0.11294499 -0.1451853
000260 f6 27 0f 3b a2 b8 88 3d cd 54 27 bc b1 4e 31 bc
       0.0021843887 0.06675841 -0.010213089 -0.010821984
000270 39 33 06 be 3a df 66 3c a3 d0 0a 3c 65 3c 0e 3d
       -0.13105477 0.014091307 0.008472594 0.034725565
000280 66 4f bb 3c 88 91 56 bd 68 46 96 3d e2 05 8c 3c
       0.022865009 -0.052384883 0.07337648 0.017092649
000290 5c 65 ca bd 9b 6d d1 bb 1a 77 ff 3c 4c 39 3b 3c
       -0.09882614 -0.00639124 0.031184722 0.011427235
0002a0 26 23 90 3c 9e a6 db bd 46 5c f3 bd e2 6e 13 3e
       0.017594885 -0.10725139 -0.11882834 0.14397767
0002b0 90 49 f6 3d e0 13 cb bd 6c 0d 95 bd cd 6c af 3d
       0.1202575 -0.099159 -0.07277951 0.08565674
0002c0 db 96 f6 3d 73 2c ab bd 1b 38 59 3d b7 d9 1b bd
       0.12040492 -0.083580874 0.053032022 -0.038049426
0002d0 34 48 f7 bc 5c 6d 97 bd 01 c1 5c 3d 8e d1 0c 3d
       -0.030185796 -0.073939055 0.053895 0.034379534
0002e0 6c 3c 00 3e be 3b fe 3b 12 00 57 3d 32 53 f0 bd
       0.12523049 0.0077585867 0.0524903 -0.11734618
0002f0 d9 26 4d 3d 3e 0b 83 3c f9 8f 44 bd 79 48 0a 3e
       0.050085876 0.015996572 -0.047988866 0.13504209
000300 bf 2a 94 3d 6b cb 2d 3c 2e 67 dc 3d ad 89 0b be
       0.07234716 0.010607581 0.107618675 -0.13626738
000310 bf 2c 76 bd 17 14 10 bb d7 78 8d bd 3b 89 32 3b
       -0.060101267 -0.002198463 -0.06907814 0.002724244
000320 c4 71 a6 3c c7 8f 97 bd 88 e2 b6 3d 9a b5 dd 3d
       0.02031792 -0.0740047 0.08929926 0.108256534
000330 38 57 d7 bd 32 1d 68 bd eb ee dc bc 02 9a 15 3e
       -0.105146825 -0.056668468 -0.026969394 0.1460953
000340 f9 35 d4 bd bc f6 00 be 00 e3 24 3b 1c 60 87 bc
       -0.10361857 -0.12594122 0.0025159717 -0.01652532
000350 66 b6 c6 3b cd 55 0e be 68 5d 61 3d 44 1f e3 3d
       0.006064224 -0.13899918 0.05502072 0.11089948
000360 15 24 7d 3c 6e 56 a1 3d 87 61 fc bd 75 0d 51 bd
       0.015450497 0.07877813 -0.12323289 -0.051038224
000370 5e cf da 3d a4 ba 0e be 72 53 33 3d c6 a5 d4 3d
       0.106840834 -0.13938385 0.04378075 0.10383181
000380 d3 4a 8e bd 34 b3 16 be 21 96 a4 3d 42 10 55 3c
       -0.06947865 -0.14716798 0.08036447 0.013004364
000390 5e 7f 7b bd 5d fd 03 3e ea 17 fb bc 38 93 a9 bd
       -0.061400764 0.12889619 -0.030651052 -0.08280033
0003a0 c4 4a 04 3e 0c 91 d0 bd 4f 4b 97 bc f1 49 3d bd
       0.12919146 -0.101839155 -0.018468527 -0.046213094
0003b0 43 f5 d1 3c 41 0b 59 3d a2 5f a4 3c 54 d2 ed 3d
       0.025629645 0.05298925 0.020065133 0.116123825
0003c0 af c4 8b bd 05 c1 05 be 7f 93 97 3d cb 6e 2f 3d
       -0.06824624 -0.13061912 0.074011795 0.04283027
0003d0 cf cd 88 bd b1 7d 3a 3d 1c 0f 20 bd a3 ef 58 bd
       -0.0667988 0.045530025 -0.03907691 -0.05296291
0003e0 70 8c db bd 37 40 b8 bc f2 18 a9 bd ec 5d bb bd
       -0.10720146 -0.022491558 -0.08256711 -0.091487736
0003f0 85 d9 11 be c1 8a d9 bd 5c f3 0e 3e a6 7f ec bd
       -0.14243133 -0.10622168 0.13960022 -0.115477845

layer1.bias f4 [10]
000000 29 69 c6 3d bd 26 31 bc f5 28 0e 3e 13 cc be bb
       0.096880265 -0.010812459 0.13882811 -0.0058226674
000010 9a 95 bc 39 c3 17 15 3d f2 03 12 be f4 d7 a0 3d
       0.00035969616 0.036399614 -0.14259318 0.0785369
000020 65 c1 14 bd 82 a4 6e bc
       -0.036317248 -0.014565589

batch_norm_layer1.weight f4 [10]
000000 00 00 80 3f 00 00 80 3f 00 00 80 3f 00 00 80 3f
       1.0 1.0 1.0 1.0
000010 00 00 80 3f 00 00 80 3f 00 00 80 3f 00 00 80 3f
       1.0 1.0 1.0 1.0
000020 00 00 80 3f 00 00 80 3f
       1.0 1.0

batch_norm_layer1.bias f4 [10]
000000 00 00 00 00 00 00 00 00 00 00 00 00 00 00 00 00
       0.0 0.0 0.0 0.0
000010 00 00 00 00 00 00 00 00 00 00 00 00 00 00 00 00
       0.0 0.0 0.0 0.0
000020 00 00 00 00 00 00 00 00
       0.0 0.0

batch_norm_layer1.running_mean f4 [10]
000000 00 00 00 00 00 00 00 00 00 00 00 00 00 00 00 00
       0.0 0.0 0.0 0.0
000010 00 00 00 00 00 00 00 00 00 00 00 00 00 00 00 00
       0.0 0.0 0.0 0.0
000020 00 00 00 00 00 00 00 00
       0.0 0.0

batch_norm_layer1.running_var f4 [10]
000000 00 00 80 3f 00 00 80 3f 00 00 80 3f 00 00 80 3f
       1.0 1.0 1.0 1.0
000010 00 00 80 3f 00 00 80 3f 00 00 80 3f 00 00 80 3f
       1.0 1.0 1.0 1.0
000020 00 00 80 3f 00 00 80 3f
       1.0 1.0

residual_block.layer1.weight f4 [10, 10, 5]
000000 9a d2 8e 3d ba 40 db 3c c8 d3 ff 3d 4f 82 f0 3d
       0.06973763 0.026764262 0.12491566 0.117436044
000010 fe b2 45 3d 0c 3f cc 3d 55 cc 67 3d 39 b9 3b bd
       0.048266403 0.09972963 0.05659135 -0.04583094
000020 3e 87 06 3e bd a6 bf 3d d5 54 b1 bd 91 71 66 bd
       0.13137528 0.09357975 -0.086587586 -0.05626065
000030 72 bf c6 3b 1f 88 61 bc 90 46 17 3d 8c ac eb 3d
       0.0060653025 -0.013765364 0.036932528 0.1150752
000040 77 19 e5 3d 60 d9 b7 3d 34 13 9b 3c d9 33 ac bd
       0.11186498 0.08977008 0.018930055 -0.08408327
000050 fe 52 d5 3d c6 e9 86 3d a5 03 0b 3d 39 06 b6 3d
       0.1041622 0.065875575 0.033939023 0.08887906
000060 1f e1 06 bd e6 32 10 3d f1 89 9e bd 82 35 8e bd
       -0.032929536 0.03520479 -0.07741154 -0.069437996
000070 57 a2 06 be c2 8a 99 bd e8 e6 0b be 5a 2e f8 3d
       -0.13147865 -0.07497169 -0.13662302 0.12118216
000080 42 1e c1 3d 8e 8e 54 bc 81 65 09 3e bc 5f a3 bd
       0.09429599 -0.012973441 0.13417627 -0.07977244
000090 04 02 97 3d 6a 56 d3 bd f2 07 90 bd 5d 48 d7 bd
       0.07373431 -0.103192165 -0.070327654 -0.10511849
0000a0 62 0b db 3d 08 c9 0d 3e 56 80 e6 bd 05 43 f5 3c
       0.106955305 0.13846219 -0.11254947 0.029939184
0000b0 fa e5 4e 3d e8 a6 01 3e 69 7c be 3d 4e 41 00 3e
       0.05051229 0.12661326 0.09301073 0.12524912
0000c0 5a b4 dc bd 17 da 6c 3d e4 2a 3e 3a 80 2b 01 3e
       -0.10776587 0.057825174 0.0007254316 0.1261425
0000d0 25 89 c0 3d 52 fa 86 3d 3d 96 fc bd d5 f8 cb bc
       0.09401158 0.065907136 -0.12333343 -0.024898926
0000e0 18 54 95 3d fe 24 4a bd 65 4c f6 bc 82 07 34 3d
       0.0729143 -0.049351685 -0.030065725 0.043952473
0000f0 31 5c ea bd 0f e6 cc bd 70 ea 25 3d 32 65 d9 3d
       -0.11443365 -0.10004818 0.04050678 0.106150046
000100 6e e4 f9 bd a1 51 b4 bd 21 f5 c3 3c c1 ba bb bd
       -0.12201773 -0.08804632 0.023920598 -0.0916648
000110 e8 5c c3 3d 30 59 52 3d e4 72 1f bd 1a 1b c3 3d
       0.09539205 0.051354587 -0.038927928 0.095266536
000120 05 bd b8 bd d5 4a b7 3d a9 a5 92 3d a5 84 e4 bc
       -0.090204276 0.0894982 0.071605034 -0.027895281
000130 8f 4d b0 3d a3 5b b2 bd 60 d9 cc 3c 49 e2 01 be
       0.08608543 -0.087088846 0.025005996 -0.12683977
000140 ea 83 b3 3d 78 67 ab 3d 35 26 90 3c a8 9e a5 bd
       0.08765395 0.083693445 0.017596344 -0.08086902
000150 f8 c7 b0 3a 3f 47 d0 3c 55 35 46 bd 50 0a 19 3d
       0.001348733 0.025424598 -0.048390705 0.03736335
000160 1a 2d fc 3d 3a 8b b9 bd 28 cc 9c bc c3 a1 e2 3c
       0.1231329 -0.090597585 -0.019140318 0.027665025
000170 8d f5 b8 3d 1d aa 00 3e eb 95 81 3c 99 f1 fe bd
       0.0903121 0.12564893 0.015818557 -0.12448425
000180 ee e2 37 3c fd a5 53 3d b9 c8 d8 3d be 26 76 bc
       0.011223538 0.05167197 0.1058516 -0.015023885
000190 af 1e d4 3d b1 73 97 bd c3 93 cc 3c 4d 9a e4 bd
       0.10357415 -0.07395113 0.024972802 -0.11162243
0001a0 ac 47 c7 3d 77 c7 19 3d 06 49 87 bd d8 34 f2 3d
       0.09730467 0.03754374 -0.06605725 0.118264854
0001b0 20 2f 90 bd 00 70 be 3d ca 2a e2 3d b0 51 f0 bb
       -0.070402384 0.09298706 0.110433176 -0.0073339567
0001c0 f3 42 09 3e fa b0 af bd c6 ad 06 3e 0b 0b 41 3d
       0.13404445 -0.085786775 0.13152227 0.047129672
0001d0 01 11 9a bb 22 ee 5a bb 6f ac d2 3d 4c 35 f2 bd
       -0.004701734 -0.0033406098 0.10286795 -0.11826572
0001e0 2f a2 ef bd 1b a1 b9 bd 96 98 94 bd c8 13 ad 3d
       -0.11700856 -0.090639316 -0.07255666 0.084510386
0001f0 ee 52 b3 3d 61 fd 07 bd e6 01 3a bd ec da a0 bd
       0.08756052 -0.033200625 -0.045411967 -0.07854256
000200 02 00 fa bd 65 d9 29 3d 86 5e 40 3c ea 18 3c bd
       -0.12207033 0.04146709 0.011741286 -0.045922197
000210 eb 13 b1 3d 13 99 09 be 12 79 a8 bd 69 b6 0a 3d
       0.08646377 -0.134373 -0.08226217 0.033865366
000220 f3 de c6 bc 5a 6b 93 bc ba a3 fd 3d bb 11 23 bd
       -0.024276232 -0.017995525 0.12384744 -0.03981183
000230 8d 07 42 bd 34 bf b7 bd 66 0d a2 3d fa a2 99 39
       -0.047370482 -0.08972016 0.07912712 0.0002930386
000240 f3 1e bf bd e0 84 8e 3d c5 7b db bd 4c 87 ae 3d
       -0.09332075 0.06958938 -0.107169665 0.085218996
000250 cd 9a 25 bd 32 f0 ee bd 04 08 8f 3d 93 9f 1a 3d
       -0.040430833 -0.11666907 0.06983951 0.037749838
000260 c1 33 01 bd fb cb c4 bd 41 95 97 bd 3a a4 ef 3d
       -0.031543497 -0.09609219 -0.07401515 0.117012456
000270 f1 0b 0c bc c1 3b 73 bc b3 35 ab 3c 33 08 bd bc
       -0.008547769 -0.014845789 0.02089963 -0.023075199
000280 b3 53 0c 3e ad 0b 02 3e 99 58 d2 3d 2a ab a1 bd
       0.13703804 0.12699766 0.10270805 -0.07893975
000290 9f ed a3 3c 74 3e 0b 3e 16 6e e4 3c 0b 3a 66 bd
       0.020010768 0.13598043 0.027884524 -0.056207698
0002a0 c0 f4 75 3b 98 66 60 3d 8e 2b 08 bd 21 4c b6 3d
       0.0037529916 0.05478534 -0.033244662 0.08901239
0002b0 f0 93 29 3d 7b 7b f5 3d 21 5d 89 bd 03 c2 f0 bd
       0.04140085 0.11986443 -0.06707216 -0.11755755
0002c0 fb e2 58 3d 8a 6a 06 3d c8 24 13 bc 98 b3 66 3d
       0.05295084 0.032816447 -0.008980937 0.056323618
0002d0 14 86 bf bd e7 c8 53 3d ec 5c 07 3e 54 f2 c9 bd
       -0.09351745 0.051705267 0.1321904 -0.098606735
0002e0 11 26 99 bd a1 97 ce 3b 2f 64 c9 bd 52 a6 a0 bb
       -0.07477964 0.0063046967 -0.09833562 -0.0049026394
0002f0 eb 05 3b bb 28 0e 93 bd 26 c4 30 bc 46 a5 00 3e
       -0.0028537463 -0.071804345 -0.010788953 0.12563047
000300 33 19 c2 3d 4c 9d a2 bd 12 08 a0 bb 9e ca 06 bd
       0.094774626 -0.07940158 -0.0048837746 -0.032908075
000310 19 24 ae bd 8f 56 ef 3d 33 82 fe bd 2c 0d c2 3d
       -0.08502979 0.116864316 -0.12427177 0.094751686
000320 2f 99 da bd cb 68 39 bd 6a 68 02 3e 15 79 af 3c
       -0.10673749 -0.045265954 0.12735143 0.021420041
000330 75 c6 0e be 4f 20 0a 3e 07 53 ca bd a0 6e 9b bd
       -0.13942893 0.13488887 -0.098791175 -0.075894594
000340 00 2d f6 bd 5e 8e 57 3d 4e 83 69 bc 2f c6 ce bd
       -0.12020302 0.052626006 -0.014252497 -0.10096394
000350 5f 81 f3 3c d5 81 d0 bc 6a 09 a0 bd 5f fd c4 bc
       0.029724775 -0.025452534 -0.078142956 -0.024046598
000360 07 61 0c be bd 4d 80 3d 3a 0f 10 bd d2 f3 d8 3d
       -0.13708888 0.062648274 -0.03517077 0.1059338
000370 7f 7d 5f 3d 31 6d 7f bd 2a da 2a 3c 4d 52 f5 bd
       0.05456304 -0.062359992 0.010427991 -0.11978588
000380 44 40 5b bd b8 d0 0a 3e ff 9e e0 bd 1c 95 8f bb
       -0.053528085 0.13556182 -0.10967826 -0.004381789
000390 8f cf 52 3d 10 7a 4f bd c1 2e 0b be d5 cc f8 3d
       0.051467475 -0.050653517 -0.13592054 0.121484436
0003a0 ec 9b 5f 3d ae 9e 50 3d 4a 76 a5 bd 14 0d 70 3d
       0.054592058 0.05093258 -0.080792025 0.058606222
0003b0 23 5f ff 3d 9c a0 8c bd 5e 32 04 be 8a 1c 07 3e
       0.12469318 -0.06866571 -0.12909839 0.1319448
0003c0 c1 4c a7 bb 3d eb b7 bd 97 00 52 3d c4 97 94 3c
       -0.0051055853 -0.08980415 0.051270094 0.018138774
0003d0 77 35 d9 bd 04 e7 3c 3d 34 f0 99 3d 38 10 0c 3d
       -0.10605901 0.04611875 0.07516518 0.034195155
0003e0 3b 30 b1 3c 99 ae 3f 3d cf db ea 3d 07 b5 a4 bd
       0.021629443 0.04679737 0.114677064 -0.08042341
0003f0 15 c7 0a be fa 56 16 bd a0 0b 97 bd fb 6c a3 bd
       -0.13552506 -0.03670404 -0.07375264 -0.07979771

residual_block.layer1.bias f4 [10]
000000 1d b6 67 bd 0e f5 ef bd 75 18 09 be 3e d9 d7 bd
       -0.05657016 -0.11716662 -0.13388236 -0.105394825
000010 1e 50 ca 3d b9 30 03 be 0a 4d fb 3c 0c 64 45 bc
       0.098785624 -0.12811555 0.030676384 -0.012047779
000020 41 05 e0 3d d4 7b db bd
       0.10938502 -0.10716978

residual_block.batch_norm_layer1.weight f4 [10]
000000 00 00 80 3f 00 00 80 3f 00 00 80 3f 00 00 80 3f
       1.0 1.0 1.0 1.0
000010 00 00 80 3f 00 00 80 3f 00 00 80 3f 00 00 80 3f
       1.0 1.0 1.0 1.0
000020 00 00 80 3f 00 00 80 3f
       1.0 1.0

residual_block.batch_norm_layer1.bias f4 [10]
000000 00 00 00 00 00 00 00 00 00 00 00 00 00 00 00 00
       0.0 0.0 0.0 0.0
000010 00 00 00 00 00 00 00 00 00 00 00 00 00 00 00 00
       0.0 0.0 0.0 0.0
000020 00 00 00 00 00 00 00 00
       0.0 0.0

residual_block.batch_norm_layer1.running_mean f4 [10]
000000 00 00 00 00 00 00 00 00 00 00 00 00 00 00 00 00
       0.0 0.0 0.0 0.0
000010 00 00 00 00 00 00 00 00 00 00 00 00 00 00 00 00
       0.0 0.0 0.0 0.0
000020 00 00 00 00 00 00 00 00
       0.0 0.0

residual_block.batch_norm_layer1.running_var f4 [10]
000000 00 00 80 3f 00 00 80 3f 00 00 80 3f 00 00 80 3f
       1.0 1.0 1.0 1.0
000010 00 00 80 3f 00 00 80 3f 00 00 80 3f 00 00 80 3f
       1.0 1.0 1.0 1.0
000020 00 00 80 3f 00 00 80 3f
       1.0 1.0

residual_block.layer2.weight f4 [10, 10, 5]
000000 e7 e7 05 bd b4 f1 fd bd 7d 5a 13 3d 73 a8 e3 bb
       -0.032691862 -0.12399617 0.03597497 -0.006947571
000010 18 80 ea bc 41 11 c0 bd f4 f1 08 3e 8c 2b 00 be
       -0.028625533 -0.09378291 0.13373548 -0.12516612
000020 b2 a4 c3 3d f4 42 90 3d 56 09 6a bd eb 4e 1d bd
       0.095528975 0.0704402 -0.05713781 -0.03840534
000030 5d 2e df 3d 7c 56 e8 bd d0 fd 87 3d cb 31 06 3b
       0.10897515 -0.113446206 0.06640208 0.0020476456
000040 2a 5a e5 3d 74 5b 0a be 41 97 c8 3d 56 41 23 bc
       0.11198838 -0.13511449 0.097944744 -0.009964308
000050 12 45 09 be 1a 70 10 3e bb 08 9a bc a7 42 c3 3d
       -0.13405254 0.14105263 -0.018802991 0.09534197
000060 19 62 0c be 61 40 07 3e dc 02 01 3e 83 d5 8d bb
       -0.13709296 0.13208152 0.12598747 -0.004328431
000070 64 73 c5 3c a4 8f a2 3d d1 21 8f bd 5f 24 4e bc
       0.024102874 0.079375535 -0.06988872 -0.012581914
000080 a3 9b a8 3b b7 b4 9b bd 59 53 c8 bc 6c 62 d5 bd
       0.0051455065 -0.07602828 -0.024453806 -0.10419163
000090 2b 37 d2 bd b6 ec d2 bd d1 7f 99 bd 30 49 c1 3d
       -0.10264429 -0.10299055 -0.07495082 0.094377875
0000a0 99 13 df bd 45 87 a0 bd 42 d4 37 3d 30 01 6c bd
       -0.1089241 -0.078383006 0.04488016 -0.05761832
0000b0 04 0d ea bc 14 11 0d 3e d8 56 a9 bd 23 8b 89 bd
       -0.02857066 0.13776046 -0.08268517 -0.06715991
0000c0 92 b9 c2 3d 6a fd 06 3e 60 57 de bc 0e b0 6a bd
       0.09508051 0.13182607 -0.027141273 -0.057296805
0000d0 09 25 58 3d f9 90 cf bd 28 a1 10 3e 15 3c 02 3e
       0.052769694 -0.10135073 0.14123976 0.12718232
0000e0 b0 02 03 3e e2 6b a5 3d 9b 84 47 3d 5e cf ad bd
       0.12793994 0.08077218 0.048710447 -0.08486818
0000f0 9d bb 63 bd 10 2b 03 3e ee d5 5e 3d ec ee 43 bd
       -0.055598844 0.12809396 0.054403238 -0.047835276
000100 6d d1 f0 bd 87 53 98 ba 4d 5b bf bc 99 08 e4 3d
       -0.11758695 -0.0011621573 -0.023358965 0.111344524
000110 7c b6 1c 3c 52 b1 08 bd 47 8f 00 bd d2 4f a6 3c
       0.009564992 -0.03337223 -0.03138664 0.020301733
000120 f7 36 02 be f8 8e 6d bd 96 0e 75 bd 09 b0 e4 bd
       -0.1271628 -0.057997674 -0.059828363 -0.111663885
000130 6e 75 c5 bd 89 51 01 be 9a e9 0e be d7 f7 23 bd
       -0.096415386 -0.1262876 -0.139563 -0.04003128
000140 b2 16 5c 3d 45 79 aa 3d 15 db ec 3d 14 6e 01 be
       0.05373258 0.083239116 0.11565224 -0.12639648
000150 87 43 1a bd ae bd fd bd 05 a0 e3 bd 44 6c 45 bd
       -0.037662055 -0.12389694 -0.11114506 -0.048198953
000160 70 9e b4 3d 7a 3e 9d bd 2d 6e 0c be c5 35 de 3d
       0.08819282 -0.07677932 -0.13713904 0.108500995
000170 9d b3 01 3e 2d 55 f4 3d 10 65 8f 3c 1d 5c c9 bd
       0.12666173 0.119303085 0.017504245 -0.09832022
000180 1f 3b db bd f3 28 78 bd e4 d4 f0 bc e9 4e f1 bd
       -0.10704636 -0.060585927 -0.02939839 -0.11782629
000190 b2 01 70 bd a9 31 eb 3d db 21 2c bd 2e b0 26 3d
       -0.058595367 0.11484081 -0.042024475 0.04069536
0001a0 82 ca cb bd d4 11 ac 3d 48 92 b9 3d 32 54 c8 bb
       -0.09950735 0.08401838 0.09061104 -0.0061135525
0001b0 b2 5f 68 3d 00 61 a1 3d 2a db d3 3c 9d fd b9 bd
       0.056731887 0.078798294 0.025861342 -0.09081576
0001c0 ae 12 aa 3d df 15 f6 bd 2a 32 0e be 58 71 4a 3d
       0.08304344 -0.1201589 -0.13886324 0.0494245
0001d0 2f 3b dc bc d8 e8 57 3b e1 05 2d bd 67 ea f3 bd
       -0.02688369 0.0032945182 -0.042241935 -0.11909943
0001e0 44 13 fd 3d 4a bd 27 bd 3e ac c2 3d 54 1e 4a bc
       0.1235719 -0.040952004 0.09505509 -0.012336332
0001f0 a4 13 a3 3d 4d f3 1d 3d 75 0e 06 be 41 2d ce 3d
       0.079627305 0.038562108 -0.13091452 0.10067225
000200 48 25 05 3e 30 73 04 3a 23 14 77 3d a5 65 a7 3d
       0.13002503 0.00050525647 0.06032194 0.08173684
000210 d0 93 8a bd ac cb 2f 3d 24 fb 9e 3d ee e5 9b 3d
       -0.06766474 0.042918846 0.07762745 0.07612215
000220 af 73 79 bd 74 bf b3 3d 9d 1e 9e 3d de f4 51 3d
       -0.06090134 0.08776751 0.07720683 0.051258914
000230 07 9e 03 3e 29 0a 32 3d 86 81 8e 3d dc be e0 bd
       0.12853251 0.04346672 0.069582984 -0.109739035
000240 51 b0 c5 3d 86 db be 3c f3 1b 2a 3d 3c d2 08 be
       0.0965277 0.023298036 0.04153056 -0.13361448
000250 f3 9b 08 3d 21 97 3e 3d 95 19 0a 3e 48 90 b1 bd
       0.03335185 0.046530847 0.13486321 -0.086700976
000260 b9 9b 0d be 99 a6 ea 3c b9 a5 03 be 6f c0 c1 bc
       -0.13828935 0.028643893 -0.12856187 -0.02365133
000270 ef 2d 8f 3d cc e5 05 3d 8f 03 5d bd 34 86 e9 3a
       0.06991183 0.032689855 -0.053958472 0.0017816485
000280 e3 19 ae bd 83 d0 09 3e 47 6d 57 3d 4f 45 1e 3d
       -0.08501031 0.13458447 0.05259445 0.038640317
000290 34 e7 05 3e da e7 e2 3d a3 69 15 bd c2 4b 03 bd
       0.13076478 0.110793784 -0.036477696 -0.03205467
0002a0 d0 45 de 3d f3 bc 6b bd 11 37 2c bd d8 97 02 3e
       0.108531594 -0.057553243 -0.042044703 0.12753236
0002b0 70 c4 e9 3d 68 7a 99 bd 5f e0 83 3d 80 ee 97 bd
       0.114144206 -0.0749405 0.0643928 -0.07418537
0002c0 39 ae 57 bc 7c 41 47 3d a5 41 2f 3d 67 0b 70 3d
       -0.0131640965 0.048646435 0.042787213 0.058604624
0002d0 b9 2e d6 3d d3 15 94 3d 22 34 f9 3c f1 d4 86 3d
       0.104581304 0.07230725 0.030420367 0.06583584
0002e0 70 8f 06 3e f4 73 26 bc b3 1e 55 bd 5e 8c 5d bd
       0.13140655 -0.010159481 -0.05203123 -0.054088943
0002f0 4e 7a 6b 3d ad 1a f8 3d 4d 7e a0 bd c2 3f 0c 3e
       0.057489686 0.12114463 -0.0783659 0.13696197
000300 eb 08 4c bd fd 71 ea bc f9 bc d9 bd ea 07 4a 3d
       -0.049813192 -0.028618807 -0.10631747 0.049323954
000310 9e 54 89 3d 62 9e 01 be 95 01 b6 3d d0 fc 3c 3b
       0.067055926 -0.12658074 0.088870205 0.0028837211
000320 ef 05 c8 bd 3e f6 0a 3d a4 0c 0f be 0c ed c7 bd
       -0.09766757 0.03392624 -0.13969666 -0.0976201
000330 35 9e 41 3d ca 80 d1 3d d9 8a d9 bd 82 f8 d2 bd
       0.04727002 0.10229643 -0.10622186 -0.10301305
000340 7f 53 88 3d b9 88 f6 bd 6d 83 ab bd 36 f6 1e bc
       0.066565506 -0.120377965 -0.08374677 -0.009702256
000350 af 57 89 bc 12 3e 09 3d 0c 03 9b bc a1 16 8d 3d
       -0.016765444 0.03350646 -0.018922351 0.06889082
000360 3b e3 b4 bd a7 c6 ae 3d 58 60 09 3e 9a e5 68 3d
       -0.08832403 0.08533984 0.13415658 0.05685959
000370 7c c4 7b bd ff fd 80 3c e0 25 ad 3c 8e 50 1c bd
       -0.06146668 0.015746115 0.021136224 -0.03816276
000380 d5 ff f6 bd 13 bc 58 bd d5 39 82 3d d0 b8 d5 bd
       -0.12060515 -0.052913737 0.06358687 -0.10435641
000390 21 5a bb 3d ae ae 01 be 0b 94 d9 3d 44 8e 1c 3d
       0.0914805 -0.12664291 0.1062394 0.038221613
0003a0 6a 4b e4 3d b0 a9 02 bc 4a 5d 3c bd 5a 17 06 3e
       0.111471966 -0.007975027 -0.045987405 0.13094845
0003b0 da c8 bb bd 75 a4 cb 3d 89 38 ab bd 6f 19 76 bd
       -0.09169169 0.09943477 -0.083603926 -0.06008285
0003c0 84 e9 62 bd bb 89 6a bd 7f 36 03 be 72 37 8e 3c
       -0.05539848 -0.057260256 -0.12813757 0.017360423
0003d0 09 6a 68 3d 7e 4c 35 bd 03 5a 9b 3d 99 bb 35 bd
       0.056741748 -0.0442624 0.07585528 -0.04436836
0003e0 88 4b a9 3d f9 5a 28 3d b5 17 00 bd b6 63 c4 bd
       0.082663596 0.041102383 -0.03127261 -0.09589331
0003f0 92 07 02 be e2 f8 c6 3d 58 55 9e bc 1c 6e b5 3d
       -0.126982 0.097154394 -0.019327804 0.08858892

residual_block.layer2.bias f4 [10]
000000 eb 90 9d bd 5a b8 59 3d d4 e1 85 3d 98 cd cc 3d
       -0.076936565 0.053154327 0.06537214 0.100001514
000010 3f b2 ec 3b 59 d9 96 bd af 8c dc 3d 17 05 18 bd
       0.007223397 -0.073656745 0.10769021 -0.03711423
000020 34 25 d7 3d 8d 44 88 bb
       0.10505143 -0.0041585625

residual_block.batch_norm_layer2.weight f4 [10]
000000 00 00 80 3f 00 00 80 3f 00 00 80 3f 00 00 80 3f
       1.0 1.0 1.0 1.0
000010 00 00 80 3f 00 00 80 3f 00 00 80 3f 00 00 80 3f
       1.0 1.0 1.0 1.0
000020 00 00 80 3f 00 00 80 3f
       1.0 1.0

residual_block.batch_norm_layer2.bias f4 [10]
000000 00 00 00 00 00 00 00 00 00 00 00 00 00 00 00 00
       0.0 0.0 0.0 0.0
000010 00 00 00 00 00 00 00 00 00 00 00 00 00 00 00 00
       0.0 0.0 0.0 0.0
000020 00 00 00 00 00 00 00 00
       0.0 0.0

residual_block.batch_norm_layer2.running_mean f4 [10]
000000 00 00 00 00 00 00 00 00 00 00 00 00 00 00 00 00
       0.0 0.0 0.0 0.0
000010 00 00 00 00 00 00 00 00 00 00 00 00 00 00 00 00
       0.0 0.0 0.0 0.0
000020 00 00 00 00 00 00 00 00
       0.0 0.0

residual_block.batch_norm_layer2.running_var f4 [10]
000000 00 00 80 3f 00 00 80 3f 00 00 80 3f 00 00 80 3f
       1.0 1.0 1.0 1.0
000010 00 00 80 3f 00 00 80 3f 00 00 80 3f 00 00 80 3f
       1.0 1.0 1.0 1.0
000020 00 00 80 3f 00 00 80 3f
       1.0 1.0

layer2.weight f4 [10, 10, 5]
000000 38 bc a8 bd a7 a1 8d 3d ec 76 9b 3d 16 20 a1 3a
       -0.08239025 0.06915598 0.07591042 0.0012292888
000010 82 0e f4 bc c9 40 7b bd 8b 24 0d 3e ed b7 f0 bd
       -0.029792074 -0.06134108 0.13783471 -0.11753831
000020 b6 20 fc 3b bf bf b2 bc 5e 70 e2 bc a9 80 d7 bd
       0.007694329 -0.021819947 -0.027641471 -0.10522587
000030 a5 d1 fe bc 21 94 17 3d 47 1c 55 3d 3c 03 79 bc
       -0.031105826 0.0370065 0.05202892 -0.015198525
000040 96 b3 ae bd 65 85 c6 3d 0e aa 85 bd 9b 2d 7b bc
       -0.08530347 0.09693412 -0.06526576 -0.015330697
000050 0e c6 cb bd 17 d6 3b bb 2a ca 96 3d 0e cc a2 bd
       -0.09949885 -0.0028661543 0.073627785 -0.079490766
000060 54 db 42 bd 5a 5f 70 bd db 91 74 3c 91 23 07 be
       -0.04757245 -0.058684684 0.014927353 -0.13197161
000070 59 b1 b1 bc 08 0e b5 bd 16 45 89 3d 1a ca a0 3d
       -0.021691011 -0.08840567 0.0670263 0.07851048
000080 fe f9 1e 3d 01 86 83 bd ed af f1 3d 2f 03 80 3d
       0.03881263 -0.064220436 0.11801133 0.06250607
000090 ce 0c e6 bd 2a 65 c7 bd 7b 2f d0 bd e0 fa ca bd
       -0.11232911 -0.097360924 -0.10165306 -0.09911132
0000a0 41 16 da bc 3b ff ef 3d 3f 9b c3 bd 48 29 26 3c
       -0.02662194 0.11718603 -0.09551095 0.010141678
0000b0 a4 0d 06 3e 3c 5c d8 3d 15 7a 0e be 82 5a 18 3d
       0.13091141 0.10564467 -0.13913758 0.03719569
0000c0 0e d7 9b 3d f3 29 b6 bd 4b cf fd 3d 41 8b db 3d
       0.07609378 -0.0889472 0.123930536 0.1071992
0000d0 8f 6c 58 bd 87 52 3a bc a4 ca 0d 3d 2e 98 f5 3d
       -0.052837905 -0.011372215 0.03461708 0.119919166
0000e0 47 2f 22 3d c2 72 a9 bd 68 8f 52 bd a0 0c 54 3d
       0.03959587 -0.082738414 -0.051406294 0.051769853
0000f0 96 a2 a7 3d 91 7d bf bd 6e 32 93 3d 21 f7 b4 3c
       0.08185308 -0.09350122 0.07187353 0.022090496
000100 a1 06 e3 3d e3 e0 01 3d 28 2e 4d ba db 65 bb 3d
       0.11085249 0.03170861 -0.0007827007 0.09150287
000110 94 5c a4 3d 8d 12 da bd 46 c6 f8 bd 01 91 29 3c
       0.080254704 -0.106480695 -0.12147193 0.010349513
000120 e0 4a b5 3d a1 36 10 3d ea 9f a0 bd ea 7f 44 bd
       0.08852172 0.03520835 -0.07843001 -0.04797355
000130 d1 6d b3 3d 82 b3 97 bc 31 2d 2d bc 7a 4a b8 bd
       0.0876118 -0.018518213 -0.0105698565 -0.0899858
000140 51 c7 63 3d 17 d3 e0 3d 51 e0 26 3d 7b 12 64 bd
       0.055610005 0.10977762 0.04074127 -0.055681687
000150 96 3b 7f bd af e1 cc 3c 49 9b 0d be b8 5b 71 bd
       -0.062312685 0.025009958 -0.13828768 -0.05892536
000160 f3 59 0a be 43 4c a0 bd b5 7e 6d 3d 65 00 d0 3c
       -0.13510875 -0.07827046 0.057982165 0.025390813
000170 dd 5c 75 bd 41 2b bd bd 89 78 62 3b 3f a7 18 3c
       -0.059903014 -0.09236766 0.0034556708 0.009317218
000180 0b b0 01 bd 48 2c 9a bd af 07 04 be 17 69 87 bd
       -0.03166203 -0.07527977 -0.12893556 -0.06611841
000190 b4 b8 64 bd 7b a0 35 3d 61 c0 aa bd 35 a8 e7 3d
       -0.05584021 0.0443425 -0.083374746 0.1131138
0001a0 eb fe dd 3c 24 49 c3 3d e8 4e 1e 3c 28 d9 a8 ba
       0.027099093 0.09535435 0.009662367 -0.00128821
0001b0 17 62 0c 3e d0 89 a4 bd 53 96 e2 3d fd af 66 bd
       0.13709293 -0.08034098 0.11063828 -0.05632018
0001c0 60 64 bf 3d 53 7b 0c be 9a 1b 68 ba 32 b1 f7 3d
       0.09345317 -0.1371892 -0.00088542106 0.12094344
0001d0 f2 e9 ad 3d 89 c2 c1 bd 99 0b 8b 3d 7b 02 db 3d
       0.08491887 -0.09460933 0.067893215 0.106938325
0001e0 01 9e 37 bd 11 f8 d5 bd 16 ad fe bc f6 c4 d0 bd
       -0.04482842 -0.104477055 -0.031088393 -0.10193817
0001f0 24 da a3 3d ae 98 ae 3c ab b9 63 bd a0 4f 9b 3d
       0.080005914 0.021313038 -0.05559699 0.07583547
000200 4f f6 fd bd 29 ae b9 bd f9 c6 6d bd b4 fc 21 bd
       -0.12400495 -0.090664215 -0.058051083 -0.039547637
000210 13 d6 48 3d 53 bc bc 3d 30 a8 77 3d ea 9b e5 bc
       0.049032282 0.092156075 0.06046313 -0.028028447
000220 ca c6 ea bd b2 30 df bd dc 0a d4 bc cc a7 00 3d
       -0.11463697 -0.1089796 -0.025884084 0.031410024
000230 2d aa f9 3d 03 7a ef bd bb 1f 0a be ea 28 99 bd
       0.121906616 -0.11693194 -0.13488667 -0.07478507
000240 ff f0 f3 bd 93 38 8f 3d fc 47 c2 3d 62 87 f0 bd
       -0.11911201 0.069932126 0.09486386 -0.11744572
000250 71 d0 d2 bd 03 15 93 3c 2d 07 a3 3c ee 17 aa 3d
       -0.10293663 0.017954355 0.019900883 0.083053455
000260 c8 db 09 be 8d f3 b3 bc 46 2e ed bd e3 5f d4 bd
       -0.13462746 -0.02196672 -0.115810916 -0.103698514
000270 78 cf d2 bd 7d 5b 9a bd f2 59 08 be 77 79 21 3b
       -0.10293478 -0.07536981 -0.13315561 0.002463905
000280 80 d7 81 3c d6 ab 98 bd 95 81 ca bd 99 38 ac bd
       0.015849829 -0.0745465 -0.09887997 -0.08409233
000290 54 0c ce 3d 99 3d 36 bd 5a 9e e9 bc 10 3c 7f 3c
       0.10060945 -0.044492338 -0.02851789 0.015578285
0002a0 83 32 8e 3d cf 22 4b bd 3a d0 f5 bc 4f 2d 05 be
       0.06943228 -0.049593743 -0.030006517 -0.13005565
0002b0 3f 59 78 bc 67 81 b5 3b fc 44 9b 3c 72 3d da 3d
       -0.015157997 0.0055391076 0.018953793 0.10656251
0002c0 48 2a 00 3e 18 a4 ee 3d 0e 0c ba bd 7d a6 a2 3d
       0.12516129 0.11652392 -0.090843305 0.07941911
0002d0 a3 3a 63 bd 3c 35 f2 bd a6 d4 a7 3d fc 6d 48 bd
       -0.055475842 -0.1182656 0.08194856 -0.048933014
0002e0 8e 77 8d 3d 1e 86 07 3e 27 99 2b bd 85 74 db bd
       0.06907569 0.13234755 -0.041894104 -0.10715584
0002f0 50 2f e7 3d b4 7a b7 3d 42 57 98 bd 26 42 e5 bc
       0.11288321 0.08958951 -0.07438518 -0.027985644
000300 80 74 02 3e f1 93 a6 3d cf 4c 01 3e 35 13 2b bd
       0.12739754 0.08133686 0.12626956 -0.041766364
000310 28 ac 29 bd f8 bf 50 bd c6 d3 fe bd 14 2b 98 bc
       -0.041423947 -0.050964326 -0.12442736 -0.018575229
000320 8c c1 a9 3d f2 a4 48 bc 6d 82 fb 3c 96 95 1a bc
       0.08288869 -0.012246357 0.03070184 -0.009435078
000330 86 65 b5 bd 15 51 8a 3b 2a 0e 9e 3d df c3 77 bd
       -0.08857255 0.0042210915 0.07717545 -0.06048953
000340 58 fc fe 3d 40 a2 dd 3d 80 ba 01 3e 03 be 32 3b
       0.124504745 0.10821962 0.126688 0.00272739
000350 ff 7b f1 bd 6b b8 26 bd 64 9a a9 3d 8f b6 00 3d
       -0.117912285 -0.04070322 0.08281401 0.0314241
000360 ce 43 6b 3d c4 44 21 3d 74 0d b7 bd e4 b8 06 be
       0.05743771 0.03937222 -0.08938113 -0.13156468
000370 51 a1 a2 3d 5b e8 4b bd 5c f6 f5 3d 35 e1 ed bc
       0.07940925 -0.04978214 0.1200988 -0.029038051
000380 1b a5 09 3e 40 cb 15 3c 5a 23 69 bd 83 3a 1a bd
       0.13441889 0.009142697 -0.05691848 -0.037653457
000390 2c 6e 00 be 5f 01 36 bd 96 a1 69 3d 4e e8 0f be
       -0.12542027 -0.0444349 0.057038866 -0.14053461
0003a0 dc d9 0d 3e b8 9e e2 3c 0d a2 cf bd cd 20 84 3d
       0.13852638 0.027663574 -0.101383306 0.06451569
0003b0 d8 07 b4 bc 26 df d3 bd 19 82 f1 bd ed 60 d9 bd
       -0.021976396 -0.103452966 -0.11792392 -0.1061419
0003c0 8a 62 e0 bd b0 7d c5 bd 0a 74 94 3d b7 ed 92 3d
       -0.10956295 -0.096431136 0.07248695 0.07174247
0003d0 a3 9b 77 bd 11 43 99 bd 04 dc 0c be 1d 29 9f bd
       -0.06045116 -0.07483495 -0.13755804 -0.077715136
0003e0 c8 90 61 3d 85 e6 b4 3d 53 f3 ec 3d e3 2b 9f bd
       0.055069715 0.088330306 0.11569848 -0.077720426
0003f0 93 28 e8 bd 75 20 b8 3d b2 cf c0 3c c0 c8 ec 3d
       -0.11335864 0.08990566 0.023536537 0.115617275

layer2.bias f4 [10]
000000 43 d2 92 bb 4d c6 0e be 3a f4 b7 3d 49 fa b3 3d
       -0.0044806316 -0.13942833 0.089821294 0.087879725
000010 0e 15 c4 3d 2b 8b c3 bc 98 66 d7 3d b4 60 50 3c
       0.09574328 -0.023870071 0.10517615 0.012718368
000020 fc 1b 79 3d 55 ba c1 3d
       0.060817704 0.09459368

batch_norm_layer2.weight f4 [10]
000000 00 00 80 3f 00 00 80 3f 00 00 80 3f 00 00 80 3f
       1.0 1.0 1.0 1.0
000010 00 00 80 3f 00 00 80 3f 00 00 80 3f 00 00 80 3f
       1.0 1.0 1.0 1.0
000020 00 00 80 3f 00 00 80 3f
       1.0 1.0

batch_norm_layer2.bias f4 [10]
000000 00 00 00 00 00 00 00 00 00 00 00 00 00 00 00 00
       0.0 0.0 0.0 0.0
000010 00 00 00 00 00 00 00 00 00 00 00 00 00 00 00 00
       0.0 0.0 0.0 0.0
000020 00 00 00 00 00 00 00 00
       0.0 0.0

batch_norm_layer2.running_mean f4 [10]
000000 00 00 00 00 00 00 00 00 00 00 00 00 00 00 00 00
       0.0 0.0 0.0 0.0
000010 00 00 00 00 00 00 00 00 00 00 00 00 00 00 00 00
       0.0 0.0 0.0 0.0
000020 00 00 00 00 00 00 00 00
       0.0 0.0

batch_norm_layer2.running_var f4 [10]
000000 00 00 80 3f 00 00 80 3f 00 00 80 3f 00 00 80 3f
       1.0 1.0 1.0 1.0
000010 00 00 80 3f 00 00 80 3f 00 00 80 3f 00 00 80 3f
       1.0 1.0 1.0 1.0
000020 00 00 80 3f 00 00 80 3f
       1.0 1.0

mlp.weight f4 [6, 1200]
000000 e4 78 ca bb 48 30 b9 bc 68 bd cf 3c 9b c4 bc 3c
       -0.006178962 -0.02260603 0.02535887 0.023042968
000010 02 d6 dc bc b0 ec d6 bc 84 23 ec 3c 29 49 ad 3c
       -0.026957516 -0.026235908 0.028825529 0.02115305
000020 7a 09 f7 3b 3f 4c c0 3c a6 95 91 3c c1 3f b8 3b
       0.0075389715 0.023473857 0.017771553 0.0056228344
000030 3b a4 bd ba c6 2a cf 3c fd 25 48 ba cb b7 e2 bc
       -0.00144685 0.02528895 -0.0007635055 -0.02767553
000040 62 fb e9 bc cd 43 dc 3c 3b 00 eb 3c 98 f2 50 3c
       -0.028562251 0.026887799 0.028686633 0.012753151
000050 0f 5b 7a 3c a1 ed 19 3c f4 7e 2b 3c 60 b9 86 3b
       0.015280499 0.009395034 0.01046728 0.004111454
000060 5b 11 14 3b c2 aa 3b bb 3a 83 fb bb 50 d9 b7 bc
       0.0022593352 -0.0028635715 -0.0076755555 -0.02244249
000070 e2 d8 ce 3c 50 b4 37 bc ff e9 85 bc cf 3b 21 3b
       0.025249902 -0.011212423 -0.01634693 0.00246023
000080 60 61 9e bc 44 9d ad 3c ad 61 4c bc 71 37 b3 bc
       -0.019333541 0.021193154 -0.01247446 -0.021877022
000090 1e 25 e2 3c 14 52 3b 3c d5 68 fe 3b 04 3a 94 3c
       0.02760559 0.011433143 0.007763962 0.01809407
0000a0 ee 23 a8 bc 9b be 7b ba 5f 7b d0 bc af 5d b5 3c
       -0.020524945 -0.00096032926 -0.025449453 0.022139398
0000b0 3c be 66 3c b2 e8 bb bc a0 76 36 3c cb fb 75 3c
       0.014083441 -0.022938106 0.011136681 0.015013645
0000c0 96 e3 ea 3c 39 93 e9 bc 39 52 3f 3c cb 78 a0 bc
       0.028672975 -0.028512584 0.011677318 -0.019588849
0000d0 f3 1d 11 3c ab 17 ba 3c 8d b9 e8 bb d4 a8 53 3c
       0.008857238 0.022716364 -0.0071021975 0.01291867
0000e0 3e b7 d9 3c 55 20 d4 3c 5b 4f be bc 5b 14 3c 3b
       0.026576634 0.025894323 -0.023231199 0.0028698656
0000f0 37 f5 60 bc 54 a5 78 3b 13 3e 03 bc 57 a4 2a 3c
       -0.013730339 0.003794034 -0.008010405 0.010415158
000100 27 8b 39 3c 07 63 b4 3c 99 8a d0 bb 76 9c ea bc
       0.01132468 0.022019876 -0.0063641784 -0.02863906
000110 79 ed 40 3c a2 1a e7 3c cd 91 5a 3c 60 ee 51 bc
       0.011775368 0.028210942 0.013340426 -0.012813181
000120 a4 fd df 3c ff 16 01 bc a6 40 4d 3a 8f 91 a7 3b
       0.027342625 -0.007879018 0.0007829763 0.0051137875
000130 e9 da a7 3b 0f da 4f bc a3 89 c9 3c a9 8a f6 ba
       0.0051225317 -0.012686267 0.024601763 -0.0018809634
000140 d1 ac c0 bc db 31 89 bc 2e 5a be 3b db 13 3f bc
       -0.023519905 -0.016747406 0.00580909 -0.011662449
000150 7e 3e ac bb b3 e0 b1 bc a9 b9 ad 3c e9 a3 34 3c
       -0.005256473 -0.02171359 0.021206694 0.011025407
000160 30 a4 06 3c f7 e4 fe bb cd db c4 3c 24 95 8a 3c
       0.008217856 -0.0077787596 0.02403059 0.016916819
000170 14 16 bf 3b 4d df 83 bc 3a 8b de bc 27 f4 45 bc
       0.0058314893 -0.016097689 -0.027165998 -0.012082136
000180 de 5c bb 3c ab ec 88 3c f1 b4 cc bc 9f 51 25 bc
       0.022871431 0.016714415 -0.024988623 -0.010090261
000190 a7 b1 95 3b ea d6 ae bc b5 ba 84 3c 25 49 89 bc
       0.004568297 -0.021342713 0.01620231 -0.01675851
0001a0 1c 67 ab 3c e5 e4 19 3c af c6 10 3c 26 f3 96 3b
       0.02092319 0.009392952 0.008836432 0.0046066223
0001b0 d7 6d b2 bc 3f 80 9f bc 6a 92 e3 bc 29 53 e8 bb
       -0.021780891 -0.019470332 -0.027779777 -0.0070899916
0001c0 f8 20 ce 3c bc 85 e9 3a ba 44 40 bb 77 77 7f bb
       0.025162205 0.0017816345 -0.002933784 -0.0038981119
0001d0 b2 cb 1e bb 7f c3 ed 3a ba 18 c4 bc 10 8c 75 3c
       -0.0024230299 0.0018139927 -0.023937572 0.014987007
0001e0 79 d0 36 bc d2 d1 dc bc d9 23 30 bc e0 3c 40 3b
       -0.011158102 -0.026955519 -0.010750734 0.002933316
0001f0 6c 85 bf 3c a2 35 7f bc 29 91 dc bc 77 9e 48 bc
       0.02337905 -0.015576752 -0.026924687 -0.012244812
000200 85 8e ca bc c4 82 d3 bc 0f a9 ae 3c a8 bb 05 3c
       -0.024726162 -0.02581919 0.021320848 0.0081624165
000210 a7 38 d2 bc 10 21 f6 bb 56 9d c5 3b f3 46 0e 3b
       -0.02566178 -0.0075112656 0.006030719 0.002170977
000220 1b 2d 51 3c 51 91 bf 3b b2 83 0b 3b 29 f1 74 bc
       0.012767102 0.0058461805 0.0021288213 -0.014950075
000230 ff 97 9f 3c 90 61 ab 3c f2 c9 f3 bb 55 f5 cc 3b
       0.019481657 0.020920545 -0.0074398452 0.006254832
000240 9a 66 45 3b 16 c3 52 bc 71 e3 44 bc 70 ae 28 bc
       0.003012097 -0.012863895 -0.012017117 -0.010295495
000250 09 10 07 3c c9 20 36 3c 17 1b 9e bc 38 de 97 bb
       0.008243569 0.011116215 -0.019300027 -0.004634645
000260 73 c7 9c 3c 47 d6 44 3c 9f 6e 95 3b 9d 41 a1 3b
       0.019138074 0.012013978 0.004560306 0.004921152
000270 f3 e0 f4 bb 0a 22 dc bc a0 cc aa 3c 78 3d 1c bc
       -0.007473105 -0.0268717 0.020849526 -0.00953614
000280 bd 91 8b bc 7d db 30 bc f2 6a 19 bb c4 50 95 bc
       -0.017037267 -0.010794518 -0.0023409692 -0.018226989
000290 e3 e8 c3 3b c3 6a c6 bc 17 5d 31 bc 91 5e 76 3c
       0.00597869 -0.02422083 -0.010825417 0.015037195
0002a0 65 fb 90 3c 83 36 e7 bc b4 c5 69 bb 8a 71 32 3c
       0.017698 -0.028224235 -0.0035670819 0.010891328
0002b0 1a 31 aa 3b 6c a3 33 bc e3 7e 16 3c 50 6b 9c 3b
       0.0051938416 -0.010964256 0.009185526 0.004773535
0002c0 e8 8d 7b bc 46 43 7f 3c 95 1e 2f 3c 1b b6 e5 bc
       -0.015353657 0.015580004 0.010688444 -0.028040936
0002d0 f0 e0 84 3c 6d 41 eb bb ac 0c d4 bc 16 e5 45 3c
       0.01622054 -0.00717943 -0.025884949 0.012078544
0002e0 a4 5e 1b 3c 71 60 bf 3c 84 ed 49 3c ea 82 65 3b
       0.009483013 0.023361417 0.012324695 0.0035020658
0002f0 02 2b 6c bc 5d 9e b5 bb 22 12 bc bc 7b f1 e4 3c
       -0.014414551 -0.00554256 -0.022957865 0.027947178
000300 5a ee ea 3c f2 42 9a 3c 6a 3f b4 bc ac 60 ab bc
       0.028678108 0.01883075 -0.022002894 -0.02092012
000310 21 72 d8 3c 75 71 5e bc 2c 9a 59 3c 51 92 97 bc
       0.026421608 -0.013576855 0.013281386 -0.018502386
000320 4a 38 75 bc eb d7 0f 3c ba ff 85 bc 44 61 e2 3c
       -0.014967034 0.008779506 -0.016357291 0.02763427
000330 67 bb ac bb ea 2b d1 bc 30 c0 bd bc 95 76 ac 3b
       -0.0052713635 -0.025533635 -0.023162931 0.0052631595
000340 27 0c 9b 3c b8 e2 d1 3c 76 4b 10 3c cf 82 ce bb
       0.018926693 0.025620803 0.008807054 -0.0063022147
000350 c2 05 ad bc 9e 0e 88 ba a5 0c 7e bc ed a6 c7 bc
       -0.02112091 -0.0010380333 -0.015505944 -0.024371589
000360 db 2b 6d 3c 6f df 9b 3c be df 3c 3c 23 8c 7e 3c
       0.014475788 0.01902744 0.011527954 0.015536341
000370 ee 27 a5 bc 15 fa ea 3c 28 82 cf 3c 29 b4 b9 3c
       -0.020160642 0.028683702 0.025330618 0.022668915
000380 55 f8 be 3c 77 1c db 3b f9 a3 4a bc 80 ec e9 3b
       0.023311773 0.006686743 -0.012368196 0.0071387887
000390 74 34 1f bc bd 68 b4 bc b8 67 96 ba 72 ad 71 3c
       -0.009717096 -0.0220226 -0.0011475002 0.014750825
0003a0 c8 82 2f 39 67 58 08 3c 0a c6 31 bb ad 7e ed 3a
       0.0001673802 0.008321858 -0.0027126097 0.0018119417
0003b0 6b b9 93 3c fa bf 91 3c 98 9b f0 bb a7 b2 99 b9
       0.01803275 0.017791737 -0.007342767 -0.0002931554
0003c0 4f 2c aa 3a 42 34 90 3c 94 89 f1 bb e3 50 95 bc
       0.0012983176 0.017603043 -0.007371137 -0.018227046
0003d0 46 58 66 3c 00 10 36 3c b1 0c 23 bc 3a 15 ec bc
       0.014059132 0.011112213 -0.009951756 -0.028818715
0003e0 70 e2 dd bc ad 2d 9d 3b 1a bf 39 bc e5 97 de ba
       -0.027085513 0.0047967047 -0.011337066 -0.0016982524
0003f0 82 87 b5 bc 1b 46 24 3c 7b f6 ec 3b aa 65 fc 3b
       -0.022159342 0.01002648 0.007231531 0.007702549

mlp.bias f4 [6]
000000 86 c8 17 bc c2 5e 8b 3c 95 f2 d8 3b 7d e5 b9 bc
       -0.009264117 0.017012957 0.006620715 -0.022692436
000010 f9 b2 72 ba 20 50 73 3c
       -0.00092582364 0.014850646
