models/ConvModel/UCIHAR_1D_Model_01.pt (torch, 36361 bytes, 10 tensors)

layer1.weight f4 [10, 9, 5]
-0.58828604 -0.5335469 -0.42511913 -0.42467356 -0.6432506 0.27123064 0.3180827 0.10161056
0.13227628 0.040594302 0.1019696 -0.0050745853 0.030895147 -0.03883384 0.05295421 -0.08946437
-0.054564234 0.09900145 0.021129498 -0.30794933 -0.3005272 0.19996285 0.019605905 0.20570648
0.08959138 -0.07515088 -0.054754674 0.09435907 -0.06717309 -0.16546118 -0.4629825 -0.17499338
-0.13667212 -0.29597667 -0.06958565 -0.0015662791 -0.17539686 -0.19309978 -0.34262484 -0.3816799
0.15486042 0.14243126 0.15741825 0.21318461 -0.016142784 0.005442926 -0.07998166 -0.045485113
-0.13584743 -0.0009550082 0.11009875 -0.15452583 0.09479303 -0.018351851 -0.10381225 0.10732046
0.07997093 0.03626057 -0.005138679 0.12339366 0.17044821 0.05047354 0.05644993 -0.083692186
0.06415566 0.19322696 0.14637645 0.14619777 -0.085833274 -0.31538635 -0.09127074 -0.07814957
0.02019983 -0.09585899 0.043549653 -0.3167556 -0.4577034 -0.3960207 -0.4707436 -0.33998573
0.16818337 -0.01858057 0.1941802 0.21523693 0.017381515 0.08170615 0.18178312 0.21528362
0.19894817 0.17691326 -0.44147417 -0.25343677 -0.18618743 -0.21659416 -0.09945601 0.12729952
0.045260202 0.14080074 -0.23132516 -0.3409503 0.064928435 -0.0006054271 0.14557175 0.11086482
0.15886457 0.69867694 -0.19453457 -0.77307 -0.48259622 0.3600925 0.16340317 -0.04839887
-0.019803576 -0.2735655 -0.2637623 0.59853005 0.05927348 -0.20659487 -0.5471931 -0.67577153
-0.2664324 0.023016272 0.11581719 -0.0679351 0.22610174 0.55049855 0.6980122 0.5221648
0.63438416 0.29742813 0.15682177 0.08570504 0.15768224 0.037072837 0.19644034 0.8627032
0.6142363 0.4109699 0.56354445 0.48989406 -0.61437905 -0.2673579 -0.14914533 -0.046361648
-0.037371546 0.034495395 0.03324218 0.09089021 0.3213653 0.5990843 -0.47857037 -0.3067791
-0.17688978 -0.02298844 0.22699663 0.15119012 -0.047047943 -0.15594214 0.13335727 -0.26975757
-0.1575184 -0.14300372 -0.20023552 -0.23010075 -0.25397146 0.32395107 0.30198517 0.04533053
0.020262685 0.07049124 0.3004233 0.37684724 0.41053903 0.69433296 0.5954316 -0.1924316
-0.14020866 -0.23452829 -0.0854956 0.1708508 0.17393528 0.25172395 0.32167387 0.26604995
0.13200577 -0.26573697 -0.30231696 -0.2839615 -0.5413509 -0.28658396 -0.6257345 -0.5412127
-0.21927863 -0.30002445 -0.052712817 0.096959725 0.20389235 0.29761985 0.18338169 0.4821467
0.019096997 -0.13634962 -0.109925956 -0.2158858 0.08883796 0.18627879 0.1479304 0.23008499
0.020700507 0.13427252 0.0041841795 -0.10109979 0.013114253 0.078294255 -0.06100625 0.37181208
0.22806315 0.3165386 0.06773129 0.11440053 0.25203747 0.2109397 0.5304179 0.65008366
0.6076151 0.48669752 0.26841164 -0.15829207 -0.25820768 -0.28066212 0.18339063 -0.111530915
-0.29876482 -0.28276128 -0.22401436 0.18187301 0.08392044 -0.17616111 -0.43124157 -0.14633536
0.028649472 -0.006558291 0.29593056 0.27608863 0.12390985 0.18697049 0.11569781 0.13411297
0.19279313 0.37084144 -0.19475377 0.15847865 0.10852274 -0.22705916 -0.41268665 0.4965173
00000000: ea99 16bf 8896 08bf 37a9 d9be d06e d9be
00000010: 12ac 24bf bede 8a3e bcdb a23e 3319 d03d
00000020: 6f73 073e 3646 263d 70d5 d03d b548 a6bb
00000030: d217 fd3c 3c10 1fbd 84e6 583d 1839 b7bd
00000040: bf7e 5fbd 46c1 ca3d c517 ad3c 89ab 9dbe
00000050: b3de 99be 10c3 4c3e 909c a03c b8a4 523e
00000060: af7b b73d b4e8 99bd 7046 60bd 543f c13d
00000070: 0c92 89bd a86e 29be 0b0c edbe 7731 33be
00000080: c7f3 0bbe 418a 97be ec82 8ebd 9b4b cdba
00000090: 3c9b 33be f3bb 45be 866c afbe 8c6b c3be
000000a0: bb93 1e3e 80d9 113e 4032 213e 114d 5a3e
000000b0: df3d 84bc 935a b23b 6dcd a3bd 994e 3abd
000000c0: 971b 0bbe 8459 7aba 747b e13d 053c 1ebe
000000d0: d922 c23d 9f56 96bc 849b d4bd d4ca db3d
000000e0: cdc7 a33d f785 143d 5d62 a8bb d1b5 fc3d
000000f0: fa89 2e3e 58bd 4e3d 0b38 673d cf66 abbd
00000100: 0b64 833d 4add 453e b5e3 153e deb4 153e
00000110: 5bc9 afbd 527a a1be 27ec babd e20c a0bd
00000120: 1d7a a53c b851 c4bd 1f61 323d ca2d a2be
00000130: 1a58 eabe 3ac3 cabe 4e05 f1be 9c12 aebe
00000140: 4338 2c3e 4836 98bc 2dd7 463e 1267 5c3e
00000150: ae63 8e3c 8e55 a73d 5b25 3a3e 4f73 5c3e
00000160: 12b9 4b3e c028 353e e708 e2be 77c2 81be
00000170: eba7 3ebe dcca 5dbe 98af cbbd ce5a 023e
00000180: c362 393d 122e 103e 81e0 6cbe 0a91 aebe
00000190: 33f9 843d 86b5 1eba c310 153e 180d e33d
000001a0: 65ad 223e 7edc 323f 1234 47be eae7 45bf
000001b0: da16 f7be 0b5e b83e 2953 273e e53d 46bd
000001c0: 1c3b a2bc c710 8cbe da0b 87be 4439 193f
000001d0: c0c8 723d 9b8d 53be d914 0cbf 5dff 2cbf
000001e0: d469 88be 9f8c bc3c 9031 ed3d 8f21 8bbd
000001f0: 3787 673e 79ed 0c3f edb0 323f 98ac 053f
00000200: 0067 223f 8048 983e e395 203e 2086 af3d
00000210: 7477 213e b0d9 173d a827 493e 1eda 5c3f
00000220: 973e 1d3f a66a d23e 7344 103f 65d3 fa3e
00000230: f247 1dbf 22e3 88be 8eb9 18be b6e5 3dbd
00000240: e812 19bd 0b4b 0d3d f428 083d a524 ba3d
00000250: fe89 a43e 975d 193f 2d07 f5be 2612 9dbe
00000260: 9822 35be 4152 bcbc ce71 683e 95d1 1a3e
00000270: 58b5 40bd 4caf 1fbe cf8e 083e aa1d 8abe
00000280: 814c 21be 916f 12be 8a0a 4dbe 889f 6bbe
00000290: 8c08 82be eadc a53e cd9d 9a3e 81ac 393d
000002a0: eefd a53c b65d 903d 15d1 993e 1ff2 c03e
000002b0: 2c32 d23e cebf 313f 356e 183f ca0c 45be
000002c0: dc92 0fbe 2f28 70be 5118 afbd 83f3 2e3e
000002d0: 171c 323e f6e1 803e 70b2 a43e b337 883e
000002e0: 852c 073e ad0e 88be 4ac9 9abe 6763 91be
000002f0: f995 0abf 22bb 92be 2330 20bf ea8c 0abf
00000300: 948a 60be ce9c 99be 65e9 57bd d292 c63d
00000310: 28c9 503e a161 983e 69c8 3b3e efdb f63e
00000320: 4e71 9c3c 3c9f 0bbe dc20 e1bd 2b11 5dbe
00000330: adf0 b53d debf 3e3e 117b 173e 669b 6b3e
00000340: 1c94 a93c bc7e 093e 711b 893b 680d cfbd
00000350: 2add 563c bd58 a03d b1e1 79bd 275e be3e
00000360: 6389 693e 5911 a23e b4b6 8a3d d34a ea3d
00000370: 0e0b 813e 9400 583e 78c9 073f e26b 263f
00000380: aa8c 1b3f 6b30 f93e 406d 893e 5117 22be
00000390: cc33 84be f2b2 8fbe c1ca 3b3e 526a e4bd
000003a0: b4f7 98be 16c6 90be 0564 65be eb3c 3a3e
000003b0: 7bde ab3d 9463 34be b2cb dcbe f0d8 15be
000003c0: 4cb2 ea3c efe6 d6bb 3684 973e 7d5b 8d3e
000003d0: 73c4 fd3d 3175 3f3e f9f2 ec3d e954 093e
000003e0: 906b 453e eede bd3e 886d 47be 3a48 223e
000003f0: 2c41 de3d 3282 68be aa4b d3be 8437 fe3e

layer1.bias f4 [10]
0.6838495 0.074933656 0.011814773 -0.3287307 -0.0005780034 -0.034665685 0.025746264 0.5557461
-0.41717413 0.28759953
00000000: c310 2f3f d176 993d c092 413c 644f a8be
00000010: 2785 17ba 9bfd 0dbd d4e9 d23c 6045 0e3f
00000020: d997 d5be 3f40 933e

layer2.weight f4 [10, 10, 5]
-0.017430263 -0.048388205 -0.14677015 -0.27867332 -0.24017866 -0.081857026 -0.120627925 -0.035145134
-0.0026876344 -0.2627814 0.1232729 0.27695164 0.31162462 0.06934915 0.029722612 -0.20606673
-0.06888702 -0.18037204 -0.11001681 0.15602158 0.1792851 0.006240181 0.13809165 -0.005785682
0.09892185 0.26908058 0.067303896 0.0018112761 0.10743588 -0.05479377 0.24882036 0.36288187
0.2745592 0.22125322 0.2493958 -0.3149503 -0.14765675 -0.12342488 -0.11308921 -0.21519142
0.08385691 0.08397177 0.116893165 -0.069965236 -0.122519076 -0.27475396 -0.12505913 -0.072605
-0.074891046 -0.26767904 -0.048632562 -0.022711053 -0.14216924 0.22379084 0.06900616 -0.14017327
-0.059013005 -0.009654412 -0.123423755 -0.10573796 0.036085904 -0.03143129 -0.014014567 -0.21444613
-0.17543277 0.35413238 0.1386577 0.087182626 -0.07296022 -0.36083186 -0.04332219 0.10809718
-0.07396207 0.045924634 0.13349472 -0.3718972 -0.09161041 0.21988136 0.28036004 0.46857992
-0.00057329563 -0.077890605 -0.07743212 -0.14004767 -0.060412407 -0.033088766 0.05877663 0.15953015
-0.015820691 0.061541513 0.11053681 0.24177918 0.08347852 -0.083390534 -0.072112486 -0.040975336
0.08372517 0.065490685 -0.12020501 0.023420023 -0.12516773 -0.2805869 -0.2629209 -0.10281667
-0.1698017 -0.06861896 -0.29253185 -0.067608215 -0.29027972 -0.13845627 0.31363073 0.4210297
0.49432173 0.42953044 0.3227246 -0.17233552 -0.042251848 0.12504505 0.13827868 0.4141783
-0.38968056 -0.32964578 -0.5540068 -0.6257485 -0.4906561 0.28953028 -0.07977455 0.01938439
0.11152292 -0.10190403 0.14143243 0.1319229 -0.013151417 -0.017790968 -0.23098272 -0.45026383
-0.20762424 -0.2286047 -0.10401532 -0.11271477 0.3328919 0.39038566 0.22564775 0.12482821
0.04187831 -0.14235139 -0.23035268 -0.25462914 -0.26473737 -0.10280643 0.45856863 0.41547424
0.42028162 0.23888318 0.19082136 0.29563785 0.35959244 0.2262541 0.14571816 0.39321503
0.117248744 -0.12832004 0.090436466 0.026372246 0.15889041 -0.08334001 0.112081885 0.13567789
0.095191754 0.14751038 -0.22986388 -0.21185514 -0.11452038 -0.15002377 -0.13772248 0.19553111
0.11168366 0.29179138 0.18382178 0.14831658 0.03516829 0.03360175 0.15548833 0.3176547
0.4667601 0.15317208 0.2419862 -0.030768037 -0.0044816975 0.12512685 -0.04083744 -0.14624028
-0.08465574 0.30727023 0.35793233 0.37796444 0.12245668 0.26960647 0.22495887 0.31497368
-0.03272921 0.06294776 -0.06484998 0.11173994 0.10356018 -0.10581944 -0.08057725 0.047456153
0.007718586 0.020636795 -0.12268813 0.06122475 0.08642594 -0.1219452 -0.084007315 0.12444424
0.2156693 0.12017759 -0.13814873 -0.18142912 0.1904437 -0.07045798 0.0005269901 0.17837825
-0.0065070055 0.13216536 0.2913964 0.18845403 0.22834824 0.19860993 -0.14440502 0.051530138
0.087606624 -0.011991015 0.019594483 -0.119283095 -0.10744859 0.07761354 -0.10599034 -0.0620993
0.04382287 -0.12537532 -0.1792592 -0.15562831 -0.1438778 0.050789274 0.02933354 -0.10960366
-0.1422476 0.05804087 0.022939658 0.20047371 0.0967618 0.10217047 0.054915063 0.16521694
00000000: e9c9 8ebc b632 46bd ea4a 16be 45ae 8ebe
00000010: 65f1 75be a8a4 a7bd c60b f7bd 58f4 0fbd
00000020: 0623 30bb 498b 86be 8176 fc3d 9bcc 8d3e
00000030: 438d 9f3e ed06 8e3d d67c f33c 2803 53be
00000040: a314 8dbd 73b3 38be 7e50 e1bd 1fc4 1f3e
00000050: 8396 373e 6f7a cc3b e667 0d3e d195 bdbb
00000060: 8a97 ca3d eec4 893e a0d6 893d 5768 ed3a
00000070: 5807 dc3d 6f6f 60bd c4ca 7e3e a7cb b93e
00000080: 0693 8c3e 3490 623e 9d61 7f3e 2a41 a1be
00000090: 5533 17be 2fc6 fcbd 519b e7bd 245b 5cbe
000000a0: 2cbd ab3d 64f9 ab3d af65 ef3d ef49 8fbd
000000b0: 48eb fabd 8dac 8cbe 800f 00be eeb1 94bd
000000c0: 7a60 99bd 3a0d 89be f032 47bd 880c babc
000000d0: d094 11be 6d29 653e 1a53 8d3d 9589 0fbe
000000e0: 9fb7 71bd 8a2d 1ebc 98c5 fcbd 258d d8bd
000000f0: d0ce 133d 19be 00bd 5b9d 65bc c497 5bbe
00000100: a6a4 33be d750 b53e 49fc 0d3e ce8c b23d
00000110: 2b6c 95bd f4be b8be 9c72 31bd 0e62 dd3d
00000120: 6d79 97bd 781b 3c3d d7b2 083e 4f69 bebe
00000130: 3d9e bbbd 9428 613e 5a8b 8f3e b5e9 ef3e
00000140: 3849 16ba 1c85 9fbd bb94 9ebd a868 0fbe
00000150: 0073 77bd 1688 07bd c3bf 703d df5b 233e
00000160: 659a 81bc f412 7c3d 1f61 e23d f694 773e
00000170: c9f6 aa3d a8c8 aabd b6af 93bd c1d5 27bd
00000180: 1a78 ab3d fb1f 863d 0b2e f6bd 59db bf3c
00000190: f82b 00be 16a9 8fbe 919d 86be 8c91 d2bd
000001a0: 7fe0 2dbe 1988 8cbd bcc6 95be 2d76 8abd
000001b0: 8b9f 94be 7bc7 0dbe 3594 a03e 3491 d73e
000001c0: bd17 fd3e 6aeb db3e 293c a53e b978 30be
000001d0: 4610 2dbd cf0b 003e ed98 0d3e 2e0f d43e
000001e0: 3684 c7be 55c7 a8be 64d3 0dbf 0e31 20bf
000001f0: 4737 fbbe 503d 943e d760 a3bd 03cc 9e3c
00000200: 2166 e43d 0fb3 d0bd aad3 103e cc16 073e
00000210: 0a79 57bc 5dbe 91bc bc86 6cbe fb88 e6be
00000220: 739b 54be 5a17 6abe fc05 d5bd 00d7 e6bd
00000230: cf70 aa3e a1e0 c73e 3410 673e efa5 ff3d
00000240: 9788 2b3d 90c4 11be 93e1 6bbe c05e 82be
00000250: a88b 87be 2d8c d2bd 82c9 ea3e 0ab9 d43e
00000260: 272f d73e cb9d 743e ad66 433e d85d 973e
00000270: 801c b83e 28af 673e 2437 153e 7b53 c93e
00000280: 1c20 f03d 5466 03be c136 b93d 9c0a d83c
00000290: 2bb4 223e 2bae aabd 308b e53d 25ef 0a3e
000002a0: e5f3 c23d f60c 173e 7061 6bbe 8ef0 58be
000002b0: a989 eabd d59f 19be 1f07 0dbe 4f39 483e
000002c0: 67ba e43d ae65 953e c73b 3c3e 4de0 173e
000002d0: a00c 103d fda1 093d 5538 1f3e a3a3 a23e
000002e0: 2efb ee3e 24d9 1c3e 3bcb 773e 400d fcbc
000002f0: 34db 92bb 4121 003e 2945 27bd 03c0 15be
00000300: fd5f adbd 8652 9d3e e842 b73e 8e84 c13e
00000310: 91ca fa3d dc09 8a3e 9e5b 663e 3b44 a13e
00000320: 100f 06bd c1ea 803d 11d0 84bd e9d7 e43d
00000330: 5c17 d43d ddb7 d8bd af05 a5bd 6261 423d
00000340: 31ec fc3b 7f0e a93c ea43 fbbd cec6 7a3d
00000350: 1500 b13d 68be f9bd 070c acbd 9fdc fe3d
00000360: 6ad8 5c3e ab1f f63d dc76 0dbe 8ec8 39be
00000370: ac03 433e 464c 90bd b525 0a3a caa8 363e
00000380: b838 d5bb 5b56 073e e931 953e 18fa 403e
00000390: 1fd4 693e 6760 4b3e e9de 13be 4411 533d
000003a0: 1a6b b33d f675 44bc 9c84 a03c b24a f4bd
000003b0: 020e dcbd d9f3 9e3d 7711 d9bd d65b 7ebd
000003c0: 9c7f 333d 6362 00be b98f 37be 075d 1fbe
000003d0: b454 13be 6a08 503d e44c f03c e277 e0bd
000003e0: 5ba9 11be 43bc 6d3d f3eb bb3c fb48 4d3e
000003f0: 0d2b c63d c03e d13d 9eee 603d a12e 293e

layer2.bias f4 [10]
-0.42641112 -0.509927 -0.008122972 -0.007370696 -0.12603682 -0.47920325 0.12641236 -0.13497576
-0.49968356 -0.15312286
00000000: 8f52 dabe 938a 02bf 3716 05bc e185 f1bb
00000010: cc0f 01be 215a f5be 3e72 013e 1637 0abe
00000020: 86d6 ffbe 3dcc 1cbe

layer3.weight f4 [10, 10, 5]
-0.029212782 0.056085724 0.011171707 0.13177471 -0.06593996 0.11471891 0.10716523 0.05157603
0.008751536 -0.0077481763 0.11258272 0.056435395 -0.09468126 0.011521723 0.037857 -0.041324876
-0.036480922 -0.018054977 -0.13435578 0.044423334 0.05044471 0.0022289576 -0.036882617 -0.051926713
-0.10190558 0.03984943 0.04540716 -0.001034194 0.057951916 0.016639886 0.009083906 -0.043348454
-0.13033238 0.019074844 0.08622658 0.00019073978 0.07745816 0.05645218 0.10628097 0.13496837
-0.033203613 -0.10688005 0.046424054 -0.08474693 -0.009753949 -0.09299594 -0.09533018 -0.0053805145
0.02288056 0.03210997 -0.1400815 0.038834818 0.13916802 -0.09750693 -0.115522794 -0.1348375
-0.008854552 -0.12521274 0.13364314 0.03813321 -0.04284751 -0.11721968 -0.035028443 -0.008068493
-0.01937081 -0.10073261 0.075045936 0.033507388 -0.10066871 0.019834513 0.073033914 -0.08580362
-0.1138831 0.08686123 0.086046785 -0.010544888 0.09752155 0.09268891 0.004772017 -0.029501583
-0.06650707 0.12905918 -0.08736085 -0.06787975 0.039694652 0.0414184 -0.113982916 -0.012861733
0.1034525 -0.14082332 0.020692652 -0.020802187 -0.121355824 0.055573136 0.12720618 -0.13239822
0.11883774 -0.092200175 0.080603786 0.0059859343 0.0929362 0.11854232 -0.038145192 -0.04129504
-0.16380247 0.029181646 0.21142945 -0.026338218 0.11253018 0.21748558 0.028087532 0.20006011
-0.021548692 0.1351749 0.0014831175 -0.037433792 -0.10591106 0.040171277 -0.041083146 0.08819045
-0.16927668 -0.15736532 0.035110038 0.08784562 0.01779853 -0.2517551 -0.22389215 -0.0985288
-0.287849 -0.17885739 0.01937031 0.18288402 0.17067437 0.20434722 0.052752633 0.014988359
-0.09250204 0.07310402 0.11383904 -0.021105343 -0.13074961 0.08449211 0.018890755 0.11671294
0.0069528734 0.02740795 0.0550385 -0.00048053017 0.0933992 0.030274043 0.3903508 0.19106455
0.40635142 0.23611672 0.292203 0.4063563 0.38227305 0.42010936 0.34616864 0.43230292
0.390303 0.31750035 0.430691 0.47097445 0.33472347 -0.08594827 -0.22991647 -0.21444546
-0.10292847 -0.25559607 0.24352463 0.2872335 0.027967393 0.08178305 0.085484125 -0.16513108
-0.111522265 -0.30747464 -0.29076555 -0.22718479 0.38311052 0.37826344 0.51873636 0.5142661
0.5611141 -0.005721053 0.014225836 -0.12290579 -0.0596374 0.012428249 -0.06499254 -0.0142037105
-0.046904035 -0.19869313 -0.24481641 -0.005272653 0.02537255 -0.09795026 -0.112769656 -0.19554333
-0.117730506 -0.030097766 0.06493664 -0.0728977 -0.1365982 0.03217689 -0.09490306 -0.047816373
0.048871562 0.15111133 -0.06990516 -0.008594108 -0.024660897 -0.12862015 0.1172978 0.10385366
-0.029722013 0.01795199 -0.013283101 0.011724476 0.105148144 -0.12448313 0.031012828 0.007896265
-0.12562783 0.00873399 0.12557192 0.09226862 0.097976334 -0.02475081 0.050007902 -0.021875983
-0.08556434 -0.11273272 0.118318126 -0.06312867 0.022050569 0.0701313 0.031739168 0.0970323
-0.11152613 -0.0013512062 -0.11616958 0.13224667 0.046553366 0.12506099 -0.073364146 -0.088148005
-0.04280439 0.005352186 0.12645735 0.044676587 0.22853829 0.21918514 0.050383106 -0.016936742
00000000: a54f efbc 25ba 653d 8909 373c f3ef 063e
00000010: 880b 87bd bff1 ea3d 7279 db3d 6341 533d
00000020: 9a62 0f3c 6ae4 fdbb c591 e63d cd28 673d
00000030: 40e8 c1bd 9cc5 3c3c f10f 1b3d 4644 29bd
00000040: 056d 15bd 08e8 93bc 9094 09be 3ef5 353d
00000050: 1d9f 4e3d b413 123b 3a12 17bd 1bb1 54bd
00000060: dfb3 d0bd 2839 233d dcfc 393d cb8d 87ba
00000070: fd5e 6d3d 5f50 883c aad4 143c 268e 31bd
00000080: da75 05be d942 9c3c 9097 b03d 5201 4839
00000090: 62a2 9e3d 673a 673d d6a9 d93d 2635 0a3e
000000a0: 8300 08bd ede3 dabd 2627 3e3d cc8f adbd
000000b0: 07cf 1fbc a874 bebd 783c c3bd 074f b0bb
000000c0: 0370 bb3c be85 033d 8671 0fbe 4211 1f3d
000000d0: 1082 0e3e b7b1 c7bd 3797 ecbd d712 0abe
000000e0: af12 11bc c537 00be bfd9 083e 9231 1c3d
000000f0: df80 2fbd df10 f0bd fc79 0fbd b631 04bc
00000100: 88af 9ebc e64c cebd afb1 993d 0b3f 093d
00000110: 662b cebd fd7b a23c ce92 953d cfb9 afbd
00000120: 8b3b e9bd 4de4 b13d 4c39 b03d 77c4 2cbc
00000130: 61b9 c73d afd3 bd3d 945e 9c3b 4ead f1bc
00000140: dc34 88bd 1728 043e 3fea b2bd 8a04 8bbd
00000150: dc96 223d 57a6 293d e06f e9bd 05ba 52bc
00000160: e8de d33d fd33 10be a383 a93c 5969 aabc
00000170: 6789 f8bd a8a0 633d 5642 023e 6693 07be
00000180: 3361 f33d 72d3 bcbd 9913 a53d a825 c43b
00000190: 5655 be3d 51c6 f23d 223e 1cbd fd24 29bd
000001a0: d6bb 27be 590e ef3c f680 583e 3fc3 d7bc
000001b0: 3976 e63d 8ab4 5e3e d317 e63c 8fdc 4c3e
000001c0: e286 b0bc 4a6b 0a3e 2a65 c23a 2d54 19bd
000001d0: e6e7 d8bd a38a 243d cd46 28bd 329d b43d
000001e0: de56 2dbe 6024 21be 8bcf 0f3d 68e8 b33d
000001f0: 39ce 913c 0be6 80be fc43 65be 78c9 c9bd
00000200: f260 93be 6426 37be 7cae 9e3c f345 3b3e
00000210: 43c5 2e3e 6640 513e 2513 583d bc91 753c
00000220: b671 bdbd 8fb7 953d 7124 e93d 1de5 acbc
00000230: 3ae3 05be 330a ad3d c9c0 9a3c 3207 ef3d
00000240: eed4 e33b a386 e03c 0d70 613d abef fbb9
00000250: 1448 bf3d 4501 f83c 0fdc c73e 6da6 433e
00000260: 4b0d d03e 95c8 713e a29b 953e ef0d d03e
00000270: 4bb9 c33e 9318 d73e 043d b13e cf56 dd3e
00000280: cbd5 c73e 688f a23e 8883 dc3e 9023 f13e
00000290: e060 ab3e a605 b0bd 396f 6bbe 9797 5bbe
000002a0: 29cc d2bd 7ddd 82be 855e 793e 4510 933e
000002b0: e01b e53c df7d a73d 4d12 af3d 1f18 29be
000002c0: c965 e4bd 516d 9dbe 39df 94be 21a3 68be
000002d0: 1027 c43e bfab c13e e8cb 043f f1a6 033f
000002e0: 2ca5 0f3f ac77 bbbb 7b13 693c 08b6 fbbd
000002f0: 5946 74bd db9f 4b3c cf1a 85bd aeb6 68bc
00000300: 721e 40bd 3676 4bbe 27b1 7abe 38c6 acbb
00000310: 18da cf3c 259a c8bd c7f3 e6bd 833c 48be
00000320: b11c f1bd 978f f6bc 80fd 843d 644b 95bd
00000330: 66e0 0bbe eacb 033d 895c c2bd 1adb 43bd
00000340: 8c2d 483d eebc 1a3e 702a 8fbd 4dce 0cbc
00000350: a605 cabc 00b5 03be d439 f03d 3ab1 d43d
00000360: 947b f3bc 0d10 933c 5da1 59bc 0418 403c
00000370: e957 d73d 03f1 febd 9d0e fe3c 565f 013c
00000380: 95a4 00be 0219 0f3c ed95 003e 55f7 bc3d
00000390: d1a7 c83d 36c2 cabc 16d5 4c3d 4335 b3bc
000003a0: 5b3c afbd 6ae0 e6bd c650 f23d 9b49 81bd
000003b0: 65a3 b43c 00a1 8f3d ee00 023d dfb8 c63d
000003c0: d067 e4bd f51a b1ba 51ea edbd ac6b 073e
000003d0: beae 3e3d fd0f 003e f13f 96bd f186 b4bd
000003e0: a853 2fbd 6461 af3b 097e 013e ccfe 363d
000003f0: f105 6a3e 1272 603e 845e 4e3d ecbe 8abc

layer3.bias f4 [10]
-0.064591564 -0.12250364 0.3765477 -0.05083569 -0.024872422 -0.38795817 0.5352591 -0.43797785
-0.27944386 -0.046645183
00000000: 9548 84bd 30e3 fabd dcca c03e 1639 50bd
00000010: 40c1 cbbc 74a2 c6be be06 093f a23e e0be
00000020: 4413 8fbe 050f 3fbd

layer4.weight f4 [10, 10, 5]
0.0281062 0.02129499 0.046968125 0.10703366 -0.029568208 0.05759991 0.033069987 -0.06986713
-0.05755178 -0.100958854 0.10532446 -0.09241899 -0.10028595 -0.04815573 0.116525605 -0.11046792
0.10708938 -0.14071755 0.017942334 0.029212106 -0.068994895 -0.043578424 -0.061164953 0.11868919
0.114091896 -0.03929056 0.033452537 -0.08401189 -0.040374324 0.09880403 0.011589764 0.10648997
0.098037764 -0.05448087 0.06578536 0.024178408 0.033003308 -0.12664321 0.11392356 -0.12369324
0.0353118 -0.07734409 -0.014641971 0.012137428 -0.038389254 -0.08545206 -0.08348314 0.09046096
0.029558107 0.023577986 -0.067167684 0.0027025975 -0.043377753 -0.07041797 0.13866018 -0.024536612
-0.08906301 0.015191865 -0.047648117 -0.029532066 0.03432896 -0.11950533 0.0026904212 -0.07540006
-0.07907227 -0.29774615 -0.24199867 -0.19635303 0.017674077 -0.03687845 -0.094231024 0.07888391
-0.124897026 -0.09081435 -0.053324994 -0.116092205 0.081071876 0.07342077 -0.059331723 -0.110064685
0.14358048 0.09420399 -0.04402538 0.09547702 -0.10504908 0.061033197 0.2102588 0.2613868
0.3423773 0.3440503 0.2800819 0.23785721 0.34488386 0.35464042 0.3343529 -0.25443274
-0.13159132 -0.108195685 0.031766474 -0.14285457 -0.047852118 -0.06304795 -0.11017745 0.13941818
-0.10325516 -0.12045002 -0.015523761 -0.048133757 0.013469052 0.10552783 -0.019755138 0.13220003
0.059789535 -0.00567542 -0.1553028 0.20785776 0.04822191 -0.23119906 -0.556423 -0.66603184
0.08245604 0.1396743 0.01450896 0.03594371 0.06999123 0.08471488 0.015780509 -0.17203021
-0.24913481 -0.24429628 0.050275553 0.04804002 -0.059135124 -0.039035413 -0.049082533 0.37210792
0.083034374 0.08696201 0.14877555 0.082567394 0.15231144 0.32384038 0.15290174 0.14109494
0.020706797 0.14064415 0.13303545 -0.08257022 0.1127074 0.07190769 -0.13051179 -0.03360778
0.0273235 -0.06938718 0.02641832 -0.07752223 -0.034547403 0.034076218 -0.08280003 0.12973015
0.08800176 -0.118833296 -3.90996e-05 0.048000466 0.008996188 -0.09858474 0.12790197 -0.0072114337
0.07884624 -0.033804066 -0.03671805 -0.119892076 -0.07276258 0.058401726 0.100291684 0.11618465
-0.0581108 0.12969007 0.11068854 -0.074167065 0.053318225 -0.07787361 0.095884755 -0.04883629
0.016668482 -0.08740532 0.030835712 -0.13196461 -0.12343827 -0.098793246 0.05698004 -0.1298538
-0.12399776 -0.12001818 0.05847281 -0.085471585 0.010959439 0.037536718 -0.115872554 0.1106051
0.06934098 0.12878224 0.12788676 -0.10097343 -0.02878754 -0.037872627 -0.062051717 0.11613122
0.11351743 0.09301416 0.0023468111 0.17606089 0.27481303 0.29518002 0.12910043 0.566628
0.63739955 0.46032423 0.6140715 0.5739018 0.106954016 0.037476532 0.11067136 0.105834566
-0.07850262 -0.044977915 -0.12756576 0.022589698 -0.07057449 -0.007877796 0.105130225 0.1273096
-0.037406515 0.15147224 0.18671344 -0.070000865 -0.13483335 -0.0396085 -0.21131076 -0.057657998
-0.30765283 -0.084059216 -0.18869151 -0.2978976 -0.23027779 0.19707642 0.18169689 0.10736675
0.16764885 0.13255624 -0.044053137 -0.13540037 -0.06293641 -0.105089135 0.1404939 -0.09941883
00000000: f93e e63c d572 ae3c a661 403d 7734 db3d
00000010: 0739 f2bc e2ed 6b3d 6574 073d 7f16 8fbd
00000020: 6abb 6bbd 84c3 cebd 5ab4 d73d 2b46 bdbd
00000030: b862 cdbd f13e 45bd faa4 ee3d 013d e2bd
00000040: ad51 db3d 4318 10be cdfb 923c 3a4e ef3c
00000050: 324d 8dbd 4a7f 32bd 1a88 7abd 5113 f33d
00000060: 03a9 e93d 23ef 20bd 8705 093d 6d0e acbd
00000070: 8c5f 25bd c459 ca3d fee2 3d3c 6a17 da3d
00000080: 06c8 c83d 5527 5fbd 7aba 863d cc11 c63c
00000090: 7a2e 073d c2ae 01be c150 e93d e252 fdbd
000000a0: 1ba3 103d 9466 9ebd e1e4 6fbc 10dc 463c
000000b0: 0d3e 1dbd 7d01 afbd 35f9 aabd 9943 b93d
000000c0: d823 f23c 9f26 c13c 368f 89bd 101e 313b
000000d0: dfac 31bd 4c37 90bd effc 0d3e 0101 c9bc
000000e0: ab66 b6bd 4de7 783c ac2a 43bd 3bed f1bc
000000f0: 869c 0c3d 36bf f4bd c751 303b 596b 9abd
00000100: a4f0 a1bd 2f72 98be 80ce 77be c510 49be
00000110: 3ac9 903c dc0d 17bd 32fc c0bd e38d a13d
00000120: 03ca ffbd e0fc b9bd 4f6b 5abd c0c1 edbd
00000130: 0309 a63d a15d 963d d205 73bd 9869 e1bd
00000140: c306 133e 06ee c03d f553 34bd 7589 c33d
00000150: f923 d7bd f2fd 793d 154e 573e 7ed4 853e
00000160: 144c af3e 5c27 b03e e566 8f3e d790 733e
00000170: 9e94 b03e 6e93 b53e 4e30 ab3e 0245 82be
00000180: e0bf 06be b395 ddbd 901d 023d 7848 12be
00000190: 9500 44bd 491f 81bd b7a4 e1bd a4c3 0e3e
000001a0: 7177 d3bd 80ae f6bd 5f57 7ebc e727 45bd
000001b0: 4cad 5c3c fa1e d83d 87d5 a1bc 725f 073e
000001c0: dfe5 743d e0f8 b9bb b207 1fbe aad8 543e
000001d0: 5684 453d 72bf 6cbe bd71 0ebf 1081 2abf
000001e0: b6de a83d c806 0f3e fdb6 6d3c b639 133d
000001f0: 9057 8f3d ff7e ad3d 2046 813c b028 30be
00000200: 321d 7fbe ce28 7abe bded 4d3d 9dc5 443d
00000210: ac37 72bd 99e3 1fbd c40a 49bd ee84 be3e
00000220: ed0d aa3d 2319 b23d 9e58 183e 1819 a93d
00000230: 88f7 1b3e 68ce a53e 4692 1c3e 317b 103e
00000240: 4da1 a93c 0505 103e 723a 083e 931a a9bd
00000250: 23d3 e63d 5744 933d e2a4 05be 50a8 09bd
00000260: 88d5 df3c de1a 8ebd 3c6b d83c fac3 9ebd
00000270: 9481 0dbd 8193 0b3d 1093 a9bd fbd7 043e
00000280: 443a b43d df5e f3bd e0fe 23b8 239c 443d
00000290: bf64 133c cce6 c9bd bcf8 023e e44d ecbb
000002a0: 237a a13d 2276 0abd aa65 16bd fa89 f5bd
000002b0: 8c04 95bd a636 6f3d ba65 cd3d 38f2 ed3d
000002c0: 9705 6ebd 79cd 043e acb0 e23d e7e4 97bd
000002d0: 3664 5a3d 337c 9fbd 3a5f c43d 9008 48bd
000002e0: 578c 883c 8f01 b3bd 2d9b fc3c bb21 07be
000002f0: 34cd fcbd 1d54 cabd e763 693d 65f8 04be
00000300: 8af2 fdbd 17cc f5bd 2f81 6f3d ba0b afbd
00000310: 388f 333c 1ac0 193d 974e edbd ed84 e23d
00000320: a502 8e3d 7edf 033e bff4 023e 28cb cebd
00000330: d9d3 ebbc 5420 1bbd f129 7ebd 34d6 ed3d
00000340: d47b e83d 357e be3d f5cc 193b 4e49 343e
00000350: 4bb4 8c3e d621 973e e732 043e 880e 113f
00000360: 9e2c 233f 9eaf eb3e ca33 1d3f 3aeb 123f
00000370: b50a db3d fe80 193d aaa7 e23d cbbf d83d
00000380: fbc5 a0bd c33a 38bd 99a0 02be 080e b93c
00000390: 5c89 90bd df11 01bc 844e d73d 735d 023e
000003a0: 9337 19bd 8a1b 1b3e cf31 3f3e 9d5c 8fbd
000003b0: c111 0abe 863c 22bd d961 58be cb2a 6cbd
000003c0: ac84 9dbe 3d27 acbd 5938 41be 0986 98be
000003d0: f1cd 6bbe 67ce 493e c00e 3a3e 19e3 db3d
000003e0: 24ac 2b3e d3bc 073e 1071 34bd 65a6 0abe
000003f0: cee4 80bd f938 d7bd a2dd 0f3e 199c cbbd

layer4.bias f4 [10]
-0.06321628 0.2787266 -0.26373333 -0.08040111 0.2845287 -0.08231848 -0.23781958 -0.97058266
-0.024265314 -0.2959862
00000000: 8977 81bd 41b5 8e3e 0e08 87be 56a9 a4bd
00000010: bfad 913e 9796 a8bd fa86 73be 1b78 78bf
00000020: 0dc8 c6bc 818b 97be

mlp.weight f4 [6, 1040]
0.027453681 0.020023596 -0.014986111 0.029566132 -0.015077607 0.005299304 0.0024711865 0.0027111685
0.022383606 -0.011923933 -0.022871397 -0.024697717 -0.0084475605 -0.021106763 -0.009704763 0.01449166
0.02280531 0.013329724 0.015421738 -0.025212267 0.024292702 -0.02957763 0.017741846 -0.005081228
0.0059634703 0.013490574 -0.0015405739 0.030437727 -0.011256089 -0.004454112 0.014938532 -0.025158327
-0.008290815 -0.02030142 -0.017605158 0.027548295 -0.02819867 0.019445378 0.018333934 0.017952623
0.02121666 0.008387253 0.0050410153 0.017786777 -0.0032905736 0.022809086 -0.026738213 -0.010969894
0.019025916 -0.024338655 -0.0075464305 0.01707182 0.010327369 -0.011023157 -0.008616172 0.022646772
0.010784635 -0.009771618 -0.022260973 0.0023676178 0.006688729 -0.021159003 0.002408297 -0.02232194
0.015950192 0.0033505182 -0.01886423 0.019047536 -0.027881572 -0.029019255 0.012198493 0.011874487
0.0104073025 0.0036410848 0.0077012614 -0.01232649 -0.020750446 0.013673532 -0.0076345797 0.01841436
0.009112137 0.010166002 0.02511177 -0.017447844 0.015151258 0.0014709713 0.015237832 -0.018281538
0.01337332 0.015525276 0.02945307 -0.027927244 -0.0015981373 -0.005227224 -0.00962205 -0.027932595
0.012931456 0.025195288 -0.02617538 0.01611475 0.020333767 0.024838595 -0.010666937 -0.0075207204
-0.1629853 -0.085090496 -0.051525004 -0.064239755 -0.0064386837 0.002710198 -0.014886134 -0.011924357
-0.027074339 -0.020289157 -0.029962095 -0.042217165 -0.046840537 -0.08670408 -0.05809102 -0.0386866
-0.08817605 -0.06922342 -0.05101632 -0.06246295 -0.062146787 -0.0050354935 -0.04800994 -0.035813726
0.015572029 -0.029597385 0.03330911 -0.021582948 -0.026797278 -0.0215689 -0.08100607 -0.06684174
-0.03689957 -0.05096696 -0.038922887 -0.014018681 -0.054610837 -0.04781336 -0.0348124 -0.0016176061
-0.027842676 -0.0537945 -0.063932166 -0.033852283 -0.023787007 -0.023249596 0.010733374 -0.0069117015
0.004824482 0.0019062953 -0.048707284 -0.04952466 -0.08314659 -0.03818639 -0.03888039 -0.032188363
-0.018334128 -0.0034031358 -0.03365403 -0.018968621 -0.015986921 -0.04891652 -0.00891706 -0.015828295
-0.05098656 -0.01732028 -0.02147432 -0.05317545 -0.024023533 -0.0719548 -0.08314388 -0.07532112
-0.045320764 -0.034961157 -0.058923904 -0.053660836 -0.030879116 0.009057698 0.002410289 -0.044504497
-0.044304125 -0.022970244 0.00088934397 -0.0034417568 -0.04839648 -0.053180225 -0.018950293 -0.0250005
0.017322784 -0.019016115 0.034984082 -0.0048885266 -0.023446448 -0.0022651176 -0.056926344 -0.051789306
-0.016989855 0.010666702 -0.009548645 -0.039867137 -0.030143635 -0.07231669 -0.03450938 -0.045860555
0.0344632 0.018243836 0.055236235 0.027100448 0.051461272 0.03907378 0.0056319204 0.03727005
0.03163637 -0.0025617662 0.038956966 0.05723863 0.018890863 0.047099795 0.05140998 0.018058576
0.016981887 -0.0048877182 0.009038249 0.021904016 0.016976915 0.012572022 0.03026105 -0.002582588
0.043291256 0.033255722 0.0055868835 0.032706633 0.008767466 0.026851183 0.052251633 -0.006252456
-0.00809853 0.00743251 0.03678029 0.032147788 0.02315734 0.03162124 0.037565026 0.04350561
-0.013082249 0.013139006 -0.0057860655 0.023542505 0.03931815 0.012022453 0.030201448 0.028496306
00000000: 8be6 e03c 8608 a43c 4e88 75bc ac34 f23c
00000010: 1108 77bc c9a5 ad3b a1f3 213b dcad 313b
00000020: d35d b73c 9a5c 43bc cc5c bbbc de52 cabc
00000030: a367 0abc 17e8 acbc ba00 1fbc 6d6e 6d3c
00000040: 34d2 ba3c ea64 5a3c 75ab 7c3c f589 cebc
00000050: 7d01 c73c c94c f2bc 5957 913c 6e80 a6bb
00000060: 3769 c33b 9207 5d3c 15ed c9ba 8a58 f93c
00000070: 766b 38bc cdf3 91bb bfc0 743c d618 cebc
00000080: 33d6 07bc 2a4f a6bc b138 90bc f6ac e13c
00000090: e600 e7bc ea4b 9f3c 0c31 963c 6111 933c
000000a0: 90ce ad3c b06a 093c 1a2f a53b 93b5 913c
000000b0: aaa6 57bb 1fda ba3c 190a dbbc 12bb 33bc
000000c0: 3ddc 9b3c dc61 c7bc 0c48 f7bb 34da 8b3c
000000d0: 2034 293c 799a 34bc d82a 0dbc b985 b93c
000000e0: 0ab2 303c 2319 20bc a55c b6bc 092a 1b3b
000000f0: 202d db3b a555 adbc 85d4 1d3b 80dc b6bc
00000100: faa9 823c 5e94 5b3b 2889 9abc 9409 9c3c
00000110: e567 e4bc cab9 edbc 30dc 473c 358d 423c
00000120: 6483 2a3c 449f 6e3b dd5a fc3b 0cf5 49bc
00000130: d7fc a9bc f306 603c 7f2b fabb b6d9 963c
00000140: 134b 153c 4e8f 263c 33b7 cd3c c8ee 8ebc
00000150: fb3c 783c 9bcd c03a 1aa8 793c 2ac3 95bc
00000160: c51b 5b3c ba5d 7e3c 9147 f13c adc7 e4bc
00000170: 9778 d1ba 2249 abbb cea5 1dbc e6d2 e4bc
00000180: 75de 533c 5966 ce3c c06d d6bc 1503 843c
00000190: 0093 a63c 4f7a cb3c 60c4 2ebc 6070 f6bb
000001a0: 9ee5 26be ed43 aebd e20b 53bd 2290 83bd
000001b0: 98fb d2bb 949d 313b f9e4 73bc 615e 43bc
000001c0: 01cb ddbc 7235 a6bc 1173 f5bc e8eb 2cbd
000001d0: dddb 3fbd e991 b1bd d9f0 6dbd d775 1ebd
000001e0: a595 b4bd 02c5 8dbd 7df6 50bd 26d9 7fbd
000001f0: a18d 7ebd c800 a5bb 12a6 44bd 6ab1 12bd
00000200: d321 7f3c 3776 f2bc 226f 083d b9ce b0bc
00000210: f785 dbbc 43b1 b0bc 83e6 a5bd 52e4 88bd
00000220: 0124 17bd bbc2 50bd 9b6d 1fbd 9cae 65bc
00000230: 9daf 5fbd f1d7 43bd 7297 0ebd db05 d4ba
00000240: 5316 e4bc 9f57 5cbd deee 82bd b1a8 0abd
00000250: f8dc c2bc f075 bebc 09db 2f3c 8e7b e2bb
00000260: b016 9e3b a8dc f93a 4a81 47bd 5fda 4abd
00000270: c248 aabd 5569 1cbd 0b41 1fbd f2d7 03bd
00000280: 7431 96bc 2507 5fbb cfd8 09bd 1564 9bbc
00000290: 01f7 82bc b05c 48bd dc18 12bc 57aa 81bc
000002a0: 48d7 50bd 43e3 8dbc eaea afbc 80ce 59bd
000002b0: 00cd c4bc 0a5d 93bd 5747 aabd f641 9abd
000002c0: 44a2 39bd 6e33 0fbd 315a 71bd 77cb 5bbd
000002d0: 33f6 fcbc bd66 143c f0f5 1d3b 594a 36bd
000002e0: 3e78 35bd 182c bcbc dd22 693a 198f 61bb
000002f0: 633b 46bd 82d3 59bd a53d 9bbc d9cd ccbc
00000300: 83e8 8d3c afc7 9bbc 784b 0f3d ef2f a0bb
00000310: c412 c0bc 5e72 14bb 992b 69bd 0621 54bd
00000320: 4f2e 8bbc 64c3 2e3c eb71 1cbc b94b 23bd
00000330: c9ef f6bc c61a 94bd b559 0dbd 47d8 3bbd
00000340: 4929 0d3d 1974 953c 643f 623d c201 de3c
00000350: 0ec9 523d d40b 203d f98b b83b 7ba8 183d
00000360: 2395 013d 4ee3 27bb 5791 1f3d 0e73 6a3d
00000370: 03c1 9a3c b7eb 403d 4593 523d 94ef 933c
00000380: 991d 8b3c 2729 a0bb 2a15 143c 0d70 b33c
00000390: 2c13 8b3c e2fa 4d3c 06e6 f73c a340 29bb
000003a0: 2c52 313d 2737 083d 2d12 b73b 64f7 053d
000003b0: 6ba5 0f3c 03f7 db3c cf05 563d 67e1 ccbb
000003c0: b2af 04bc 6a8c f33b eea6 163d 66ad 033d
000003d0: 76b4 bd3c 4685 013d c9dd 193d f032 323d
000003e0: ee56 56bc fc44 573c 0999 bdbb 36dc c03c
000003f0: 120c 213d d3f9 443c 0769 f73c 1671 e93c

mlp.bias f4 [6]
-0.2528321 0.10750842 -0.13275462 0.28733295 0.08054215 -0.08584198
00000000: 3673 81be 602d dc3d d4f0 07be 4e1d 933e
00000010: 48f3 a43d eccd afbd
