models/ConvModel/UCIHAR_1D_Model.pt (torch, 46781 bytes, 26 tensors)

layer1.weight f4 [10, 9, 5]
00000000: cad2 77bd 4327 503b d220 a63d 3d61 9b3d
00000010: f2fb d0bd 3083 4d3d f44f debd 7e90 32bd
00000020: 423c 3e3d 5f21 8ebd fc6d 093e 6f42 5d3e
00000030: 94c4 913d fb0a 233d ba72 d1bd 14d6 c5bb
00000040: 9f30 d9bd f43b 81bd caa2 8b3d e083 013e
00000050: 69d6 843d bbb4 da3d 24ca 6bbd 902c a33d
00000060: 04f4 8d3d 7e67 843c e8ec 15bd df38 0e3e
00000070: 8f54 023e 42ac 983d f487 0abe a309 743d
00000080: 5656 973d ed1e 8f3c f566 90bd d587 0c3d
00000090: 5658 413d 8e8c ad3d df24 51bd 8872 02be
000000a0: becf 18bd d1a9 fe3d a97b d73d 401e 4b3d
000000b0: 4d7e 1dbd f592 c63c 36af 0e3e e7a4 c93c
000000c0: ca68 233e 4716 e33c e343 edbc c97e 4b3d
000000d0: 286a dd3d 790c a9bc f9c5 343e 1275 a33d
000000e0: 0bff c5bd 87b8 133d faa7 f33d e5ee 91bc
000000f0: 153a d93d be39 493d ece5 68bc 46da 4d3d
00000100: d02b c6bd 6941 15bd 85b4 553c 7326 d9bd
00000110: 24e0 06be d3f7 62bd 326e 9a3d 1813 0f3e
00000120: b01a 243e 7fa7 1d3e 9db6 bd3d b679 683d
00000130: 20d2 853d f600 da3c 92df 8bbd eefc 7c3d
00000140: a015 413d 9703 1ebd bb20 cd3d 9240 913d
00000150: de3c 1b3b c841 97bc 987d 813d 6a09 45bd
00000160: 10f2 fb3d cd74 0c3d a718 e63d d5b7 aa3c
00000170: 080f 193d 4acd 9f3d eeab a73d 2c2e f0bd
00000180: 0879 f7bd 84cb e1bc 181f cd3c 90b0 a1bd
00000190: 30bd 3a3c e4d1 f03b 739e 37bd 84eb 00bd
000001a0: 7493 b53d 0a39 58bd 1f30 dbbc d0f7 46bc
000001b0: d5ff 1fbd f4fb cd3d 71b8 203e b9c0 8ebd
000001c0: 9d5d 6abd 0cd9 1b3e d47e a6bd 78d1 1dbd
000001d0: d249 6a3d c445 87bd 56bd 5dbd 82c0 893b
000001e0: 6313 c63d e4db 053d b4f5 f33d 503e 043e
000001f0: 5c10 eb3d c120 203d 43f0 273d 866a 8d3d
00000200: 674e bebd 87bb 013e 0865 953b 103f 9fbd
00000210: 72f9 fd3d 2e30 f93d ef41 093e c44c 033d
00000220: 4914 893c 766b 95bd 76a3 f2bc ef03 55bd
00000230: d31f 2f3e 6244 d13c 3946 d03d e64a 69bd
00000240: 119f 0cbe b963 7a3c 8258 82bc a9df b43c
00000250: d8e3 263d 0814 03bd 1619 ccbd 8d8b 093e
00000260: 9979 a33c 9df3 d0bd 611d b1bd 7bed 33bd
00000270: 38cd 1f3d ecc8 943c 10ed 5bbd e3d3 263d
00000280: 0090 fcbd 3b76 0fbc f402 53bd c967 ecbd
00000290: dff4 0fbd 5d8e bfbd 9529 07be b7e3 60bd
000002a0: 3fbe 5bbd b3cf 7fbd 7796 803c 2d46 d5bd
000002b0: 8eb7 1fbd 5a26 963d 4f14 ad3d 2786 613d
000002c0: 116f 03bd 592f dc3d 7766 04bd 47f9 e5bd
000002d0: 8f9d b83c 0ec4 b1bb 87ea 813d a8a1 debd
000002e0: ecac 18be 1b10 3fbd 9e4a c33c bad1 0cbe
000002f0: 0c49 21be 9cc3 d63d 5a01 babc 9c96 1bbc
00000300: b21c 3cbe f236 e7bd d867 82be dd63 e3bd
00000310: 6caa 483d d519 0bbe bc53 bc3d a96c 4b3d
00000320: 6cec c63c 4959 35bd ab60 c7bd 98d6 43bd
00000330: 788a 05be 793e 8fbd d927 3e3d 9020 eabd
00000340: 9109 25be f24c 04be 168a 00be d9cb 553d
00000350: 2668 18be b803 a1bc 1efe bfbd 711e e6bd
00000360: 084b e9bc e830 543c 5dfd 323c 6b72 87bd
00000370: 22af c9bd fece 6dbd 9fc6 113e 8672 95bd
00000380: f4ba a73d e694 623d feda 0e3e 08e7 a43c
00000390: b9de 7e3d 9bae d33d e046 04be 4edb 9dbd
000003a0: 379e 4fbe b347 eabd 37f7 3dbe fcf6 f4bd
000003b0: c266 16be ff5c 2cbe adcc 1abe e724 f2bb
000003c0: 834e 94bd 581a 06be 9363 ba3d b56d c93d
000003d0: 7f7c e2bd 6328 83bd 7b0f acbd d713 febc
000003e0: b43e acbd 5565 61bc 552f 1b3d b3be bebd
000003f0: c5d8 b03c 9a25 183e c7a0 d23d 00e5 aebd
-0.06050376 0.0031761683 0.08111729 0.07586906 -0.10204305 0.05017394 -0.108550936 -0.04359483
0.046444185 -0.06939959 0.13420862 0.21607374 0.071175724 0.039805394 -0.102269605 -0.006037483
-0.10604977 -0.06310263 0.06818159 0.12647963 0.06486208 0.10679003 -0.057565823 0.07967484
0.06931308 0.01616263 -0.036602885 0.13888882 0.12727569 0.074547306 -0.13528425 0.059579503
0.07389514 0.017470801 -0.070508875 0.034309227 0.047203384 0.08474074 -0.051060554 -0.12739003
-0.037307493 0.12434734 0.10521633 0.049589396 -0.038450528 0.024239996 0.13934025 0.024614764
0.15957943 0.027720584 -0.028963035 0.04968146 0.10811263 -0.02063583 0.17653646 0.07981314
-0.09667786 0.03606465 0.11897273 -0.01781411 0.106067814 0.049127333 -0.014214974 0.05025699
-0.09676325 -0.036439333 0.0130435275 -0.10603037 -0.1317144 -0.055412125 0.07540549 0.13972127
0.16025805 0.15395926 0.09263346 0.056756698 0.06534219 0.026611786 -0.06829752 0.06176465
0.047139764 -0.038577642 0.100160085 0.07092394 0.0023687403 -0.018463984 0.06322783 -0.04810468
0.12302029 0.034291077 0.11235171 0.020839611 0.03736785 0.07802828 0.0818709 -0.117275566
-0.12083632 -0.027562864 0.02503924 -0.07895005 0.011397645 0.0073492397 -0.044828843 -0.031474605
0.08866015 -0.05278877 -0.026756344 -0.012144044 -0.03906234 0.10057822 0.15695359 -0.06970353
-0.057218183 0.15219516 -0.08129659 -0.038529843 0.057199307 -0.066051036 -0.054135643 0.004203857
0.096716665 0.032680407 0.119120985 0.12914395 0.1147773 0.039093737 0.041000616 0.06905083
-0.09292298 0.12669192 0.004559163 -0.077757 0.124010935 0.12167393 0.13404058 0.03205563
0.016733306 -0.07295887 -0.02961896 -0.052005704 0.17101984 0.025545303 0.10169644 -0.056956194
-0.13732554 0.015282565 -0.015911344 0.022079306 0.040744632 -0.032001525 -0.09965722 0.1343214
0.019955443 -0.102027155 -0.08648182 -0.04392765 0.03901407 0.018162213 -0.053692877 0.040729415
-0.12332153 -0.008756216 -0.05151649 -0.11543233 -0.035145637 -0.093533255 -0.13199456 -0.054904666
-0.05364823 -0.062453937 0.015696747 -0.104137756 -0.03899341 0.07331534 0.08451139 0.05505958
-0.032088343 0.10751218 -0.03232428 -0.112291865 0.022536067 -0.005424983 0.06343561 -0.10870677
-0.14909714 -0.04664622 0.023839291 -0.1375188 -0.15750521 0.10486528 -0.022705723 -0.009496357
-0.18370321 -0.11289777 -0.25469851 -0.11103032 0.048990652 -0.13584073 0.091956586 0.049664173
0.024282657 -0.044274602 -0.09735235 -0.047812074 -0.13041103 -0.069943376 0.04642472 -0.11431992
-0.1611693 -0.12919977 -0.12552676 0.052196357 -0.1488348 -0.019655094 -0.09374641 -0.11236275
-0.02847816 0.012951113 0.010924664 -0.0661362 -0.09847857 -0.05805873 0.14235924 -0.07297234
0.08189955 0.055317782 0.13950726 0.020129696 0.062224124 0.10336038 -0.12917662 -0.07707845
-0.20275198 -0.11439457 -0.18551336 -0.11961171 -0.14687636 -0.1683235 -0.1511714 -0.007389653
-0.072415374 -0.13095987 0.091010235 0.09835378 -0.11058902 -0.064041875 -0.0840139 -0.03101532
-0.08410397 -0.01375707 0.037886936 -0.09313717 0.021587739 0.14858094 0.10284572 -0.08539772

layer1.bias f4 [10]
00000000: 0058 833d 4b88 003e 671c 78bd b1b2 0bbe
00000010: 15d9 11be 2e82 20bc c8ca ddbd fb05 3a3e
00000020: 6fc9 e13d 209c 913d
0.06413269 0.12551992 -0.06057396 -0.13642384 -0.14242966 -0.009796662 -0.10829693 0.18166344
0.110247485 0.071098566

batch_norm_layer1.weight f4 [10]
00000000: 6ae4 803f 5817 783f 661a 843f e8e1 843f
00000010: 2fe4 783f 5ce1 823f 41de 7c3f 10f6 7e3f
00000020: 1baa 7a3f 4d5f 7c3f
1.0069706 0.9691062 1.0320556 1.0381441 0.9722318 1.0225024 0.9877663 0.9959421
0.9791581 0.9858292

batch_norm_layer1.bias f4 [10]
00000000: 0d07 ecbc bdea a3bc 6429 bc3c 29e0 5d3d
00000010: 3496 9bbc bb35 e6bb 2c01 f13c ce0b 35bd
00000020: 9ff8 3c3c b5dd 11bd
-0.028811956 -0.020009393 0.022968955 0.054168854 -0.01899252 -0.007025448 0.029419504 -0.04420071
0.011533885 -0.035611827

batch_norm_layer1.running_mean f4 [10]
00000000: b6f4 fb3c 2afb 823e 3ca9 ba3e 1177 ebbe
00000010: d132 d6be 6490 f8bd 8347 7f3d e3a8 e93e
00000020: aeed 773e c780 403e
0.030756336 0.25582248 0.3645724 -0.45989278 -0.41835645 -0.12136915 0.06232406 0.45636663
0.24211761 0.18799125

batch_norm_layer1.running_var f4 [10]
00000000: 0af4 f13c 8a2e 373d 91ca 133d 65b0 113d
00000010: 42fc 2e3d 127e 333d ed69 183d 7b37 c23c
00000020: af3c db3c fee9 633c
0.029535312 0.044722117 0.036081854 0.035568614 0.04272104 0.043821402 0.037210394 0.023708096
0.026762335 0.013910769

residual_block.layer1.weight f4 [10, 10, 5]
00000000: 402f d1bc e221 b83c b9d4 8cbc 6f2d 0d3e
00000010: 311d 93bd b5e5 6bbd ede6 c03d 1dad f63d
00000020: cacb ddbd c681 a03c 5a4e 9ebd e2d6 8e3d
00000030: 6532 b0bd 64a1 673d 795d d93d ee88 39bd
00000040: 143a 77bd f17d 6dbd c6bd e93d 86d5 a13c
00000050: aaa9 c83d 603a c23d 1712 fa3c 7a76 493d
00000060: ea15 ae3d 303c 613d b234 e33d 84f1 e33d
00000070: 9b78 1bbd b55e 0cbe 3bee 233e 0cce f23d
00000080: 9745 dbbd eca0 19bd 7852 2bb8 c4f4 e7bd
00000090: 23b4 85bd e5f4 02be f6dc 533c ba90 9c3d
000000a0: 1036 fe3c 01f7 9d3d 29fd 9cbd 336c 1d3e
000000b0: e81b a23d 8dd9 6b3c c5b8 713d b136 bf3d
000000c0: ed15 6f3d a40d e43d b327 86bd 7c2f 0fbe
000000d0: 6bdb f03d 8992 12be 4706 bfbd fa4c 96bd
000000e0: 9d72 8a3d 5b3f d7bd fa05 da3d b8fa cebd
000000f0: d3e6 153e 014a 003e 0d45 86bd cc78 133e
00000100: 579f 0e3e 99a6 ea3d 3b2c cd3d c2ae 0abe
00000110: 2b1f 223d 6f02 55bd 3d05 013d ec48 cfbb
00000120: 82fb cdbd 3af9 df3b b8f2 443c 07ab 213c
00000130: 03f2 1b3e c10e 62bc b3b1 96bc b000 a2bd
00000140: 3efc a73d efaf c0bc e4ae e73b 8d15 e03c
00000150: bb2e 12be b085 aabd 4dd1 fc3d 1cdb 063e
00000160: 8d7b d3bd 8753 62bd ff69 1b3c aae9 9f3d
00000170: d89f c0bd 7835 d2bd 451b d8bb 8f92 4bbc
00000180: 8e6f 3f3d 6ee6 00bb 65a9 fbbd ef45 ca3d
00000190: 6eee 483d 310e 12be efeb 193d 621a b73d
000001a0: df90 983d 8324 793c 9985 c83c 9f1b c33d
000001b0: 7dd5 5abd de52 c1bd 220d 06be 6ffa 2abe
000001c0: 3465 eebd 60e6 d7bd 6933 9e3d 4c3b e53d
000001d0: 831a 953d e809 f73d 40b9 bc3d 6542 55bd
000001e0: 428c 203d b8f8 73bd dd21 e1bd 9035 043e
000001f0: 6165 c63d 7ed0 483d f8b4 ca3d 5ebf d43d
00000200: d6d1 9cbc 12d9 843d 0105 eabc 941e c3bc
00000210: 56b5 01be f733 b03d 406e 06bc f143 203d
00000220: 40e4 debd 5b8d fabd 7ba2 dc3d f75c 6ebd
00000230: 3337 a4bd 9d04 bcbd 07cc 133e 7ff7 d93b
00000240: 7ca2 2bbd 4a7a a6bd e810 b4bd b22c 0bbd
00000250: 5d31 c43d caed c63c 6a5c ebbd c59f 12be
00000260: 1892 67bd 2ece 6e3d b960 a53d 15af d93d
00000270: 7077 4c3d d051 903c fb4a 83bd 3c4e 173e
00000280: f8e7 b03d d89c eb3d 424c 6dbd 68f0 efbc
00000290: 01a2 213d 6686 4fbd 91e1 463d 5085 febd
000002a0: 8d9f 00be de43 e73d a5b9 ccbb f44b e63d
000002b0: 812d a6bd 2c94 a93d 9ef7 aabd f7d0 363d
000002c0: 00ca 11bd edb3 a6bd 037a 14be 0452 28bd
000002d0: 83fe c9bd b137 343b c951 8cbd 4ab9 04be
000002e0: acdd 163e 7f0e f1bd 3497 bdbd a3af 9cbd
000002f0: 98ee aabc 2f28 0bbd 2976 263d 9581 043d
00000300: d4bd 3d3d 7fe9 4d3c e17c e0bd 118a c73d
00000310: 54e8 fbbd e78c b33d 8cdf 02bc e1cf bc3d
00000320: 92f5 a03c fda0 1abe 3426 843d 9bf8 273c
00000330: 1a6d c7bd 593a 6a3d 18f8 003e fccf c2bd
00000340: 4ea6 c2bd 00a3 063e 4ef6 123e eaa2 363e
00000350: 3ead a2bd efc2 173b 3cc9 86bd bd98 88bd
00000360: 10a0 493d 1067 17be 9687 b43d ba67 babd
00000370: a139 90bd 64d6 203c 8033 0bbd 5eb0 99bc
00000380: b4cd e43d 325c 49bd 3e54 903d d0d8 ac3c
00000390: 7c25 313d 0ebe e73d a01d a73d a6df 143d
000003a0: f51f 4c3d dbdb c9bc 32c1 84bb 84f6 b83a
000003b0: 3bd3 a73b 7f09 e1bd a324 b8bd 7ba1 563c
000003c0: 832e 09be f136 073e 3c41 04be b0fb b5bc
000003d0: 85c8 e03d 3936 88bd 1e0c 963b 64fb f93d
000003e0: ca61 70bd 17e7 e5bd beb7 d6bc e33c 6a3d
000003f0: f6a7 13be 4349 0abe 588d 383d 648d 15be
-0.025535226 0.022477094 -0.017191278 0.13786863 -0.07183302 -0.057592113 0.094190456 0.120447375
-0.10829885 0.01959313 -0.07729788 0.069745794 -0.08603362 0.0565504 0.106135316 -0.045296602
-0.060358122 -0.057981435 0.114131495 0.019755136 0.09797986 0.094837904 0.030526204 0.049185254
0.085002735 0.05498904 0.11094035 0.1113005 -0.037956815 -0.13708003 0.16008846 0.118557066
-0.107066326 -0.037506983 -4.0846382e-05 -0.11325982 -0.06528499 -0.12788732 0.012931099 0.07644792
0.031031638 0.07713128 -0.07665474 0.15373306 0.07915479 0.01439513 0.0590141 0.093366034
0.05837052 0.11135414 -0.06550541 -0.13982958 0.11760601 -0.14313711 -0.09327369 -0.07338901
0.06760142 -0.10510131 0.10645671 -0.101064146 0.14638834 0.1252823 -0.06556139 0.14401549
0.13927971 0.11457557 0.10018202 -0.13543227 0.039580505 -0.052004274 0.031499136 -0.0063258316
-0.10057737 0.00683513 0.012020759 0.009867436 0.15229039 -0.013797463 -0.01839528 -0.079102874
0.08202408 -0.023521392 0.007070409 0.027354026 -0.14275639 -0.0832628 0.123446085 0.13169521
-0.103263 -0.05525544 0.009485721 0.0780824 -0.09405488 -0.102641046 -0.0065950477 -0.012425079
0.046737246 -0.0019668597 -0.12288169 0.0987662 0.04905551 -0.14263226 0.03757852 0.08940579
0.07449507 0.015206459 0.024477767 0.09526753 -0.053426255 -0.09439634 -0.13090947 -0.16697095
-0.11640397 -0.105419874 0.077246495 0.111929506 0.07280447 0.12062436 0.09215021 -0.052065272
0.03919626 -0.05956337 -0.10992787 0.12911057 0.09687305 0.04902696 0.09897798 0.10388063
-0.019143026 0.064867154 -0.02856684 -0.023818292 -0.1266683 0.086036615 -0.008204997 0.039127294
-0.10883379 -0.12233993 0.10773178 -0.058194127 -0.08018341 -0.091805674 0.14433299 0.0066518183
-0.041903004 -0.081287935 -0.08792287 -0.03397817 0.09579728 0.024283309 -0.11492236 -0.1431876
-0.05653581 0.058302097 0.08075089 0.10629097 0.049918592 0.017617136 -0.06410786 0.14775938
0.086379945 0.11504525 -0.057934053 -0.02928944 0.03946114 -0.05066528 0.04855496 -0.12427771
-0.12560864 0.112922415 -0.0062477165 0.11244956 -0.08114148 0.08280215 -0.083480105 0.04463288
-0.035593033 -0.08139787 -0.14499669 -0.04109384 -0.098629974 0.0027499015 -0.06851537 -0.12961307
0.14732999 -0.11770343 -0.09257355 -0.076506875 -0.020865723 -0.03397387 0.04064003 0.03235014
0.046323612 0.012567877 -0.10961319 0.09743131 -0.123001724 0.08767109 -0.007987868 0.09219337
0.019648347 -0.15100475 0.06452599 0.010252143 -0.09737606 0.05718455 0.1259464 -0.09512326
-0.09504376 0.13148117 0.1435177 0.17835584 -0.079431996 0.002315696 -0.06581351 -0.066697575
0.049224913 -0.14785409 0.088149235 -0.091018155 -0.07042242 0.00981674 -0.03398466 -0.018760856
0.11172047 -0.04916019 0.07047318 0.021099478 0.04324864 0.11315547 0.081599474 0.0363461
0.049835164 -0.024640968 -0.004051351 0.0014111553 0.005121616 -0.10988139 -0.08991363 0.013100023
-0.13396649 0.13204552 -0.1291551 -0.02221474 0.10975746 -0.06650967 0.004579081 0.12206152
-0.05868701 -0.112257175 -0.026210662 0.057186972 -0.14419541 -0.1350451 0.04505667 -0.14604717

residual_block.layer1.bias f4 [10]
00000000: 636a 53bd 6d45 ce3d 4cd3 fc3d b568 3f3e
00000010: 1931 1cbe 3509 c9bd b97b f7bc ef50 023e
00000020: 982b 48bc 54cf 103e
-0.05161513 0.10071836 0.12344989 0.18692286 -0.15253104 -0.09816209 -0.030210363 0.12726186
-0.012217425 0.1414159

residual_block.batch_norm_layer1.weight f4 [10]
00000000: a2d0 743f 0150 843f fa00 843f 865a 7f3f
00000010: 7018 813f db4a 7f3f 42be 803f ad61 803f
00000020: 8eac 823f 7147 803f
0.9563085 1.0336915 1.0312798 0.997475 1.0085583 0.99723595 1.0058062 1.0029808
1.020891 1.0021802

residual_block.batch_norm_layer1.bias f4 [10]
00000000: f17d 39bd 2caf a23a 174d f23b d9c2 1fbd
00000010: 65a2 6a3c 3eb4 f03a 7216 51bd b364 17bc
00000020: 1c90 f93b b595 083c
-0.045286123 0.0012411824 0.0073944437 -0.03900418 0.014320944 0.0018364263 -0.051046796 -0.009240317
0.007616056 0.008336474

residual_block.batch_norm_layer1.running_mean f4 [10]
00000000: ea25 b03e 24ce df3d ea0c ff3d fc3f 653a
00000010: 95d7 26be e8b4 28bf 6942 253e dbe6 063e
00000020: ea43 65be 03fa b93d
0.34403926 0.1092799 0.12453635 0.0008745191 -0.16293176 -0.6590104 0.16138615 0.13174002
-0.22389188 0.09080889

residual_block.batch_norm_layer1.running_var f4 [10]
00000000: af4c 673e 94e2 f03d 0906 7d3e e1e3 a73d
00000010: 711b e23d 56b3 713e 1124 d53d 290b 593e
00000020: 902a cf3d 022b 083e
0.22587846 0.11761966 0.24709333 0.08197761 0.1104039 0.23603567 0.1040727 0.21195664
0.1011554 0.13297656

residual_block.layer2.weight f4 [10, 10, 5]
00000000: f434 fdbd 8a11 6abc 6339 213d 1aca 01bd
00000010: 0aa3 66bd b4a8 f13a 17ff 6abd c0e4 d83d
00000020: 5300 10be 1cf6 16bd 09ab 323d 5bf4 f0bd
00000030: a35b 16bc 34e8 de3d 7f8b ee3d eabf b5bd
00000040: 2bb5 5e3c e383 983d cf6a 21be 6ff1 8fbd
00000050: dba5 dbbd b230 883d e5b8 b43d 14b2 033e
00000060: 3646 c8bd baea 64be 72f0 87bd 5663 453c
00000070: e5d0 fcbd a25c 003e 9c0d acbd ac25 c23c
00000080: 771f b83d 1ab7 d43d 7af3 d33d 77f5 23be
00000090: d791 fb3d dd9b 56bd 2a0f eabd 4824 abbd
000000a0: f2b4 963d 04f8 afbd f402 1fbd 8993 7e3d
000000b0: f48d 79bb c1cb 913d dd6e bdbd 379a 053d
000000c0: 499d 1abe 825a 6ebb 7c2d 583d 4e54 c6bd
000000d0: a2af 84bd 539e d9bd 2473 d13d 1290 2f3e
000000e0: 5521 923d 8410 d6bb cf65 1b3e 42cf 16bd
000000f0: 9f6a 243d 5c89 92bd 4ca2 003e 584e 8d3d
00000100: 4224 1f3e 3d56 433d 4675 f7bd 2485 083d
00000110: dc8f 4b3b 01be 67bd 80cf d73c 5fa0 d13d
00000120: 57f3 153d c596 423d 868f 613d b744 8bbc
00000130: f1fa 8b3d d89a ffbb 3a02 4dbd 6c60 00be
00000140: e190 2d3d 4402 933d fbab 50bd a81c 0cbe
00000150: 150a 89bd 98ed f53d 9f5d 8fbc 4607 94bd
00000160: 5474 0a3d 0162 30bd 00b2 a23d ca23 803c
00000170: 8c16 923c c51e b7bb 3057 1dbe c16f fe3d
00000180: a18e 8e3d a363 44bd 0f7b 7f3d 44db 1f3e
00000190: 1de0 0abc 344c 853d 8a2e b53d ac62 b7bd
000001a0: ed60 e4bb 9c24 3e3c 12e9 a13d 9bc8 ec3c
000001b0: f51c 213d b630 03bd 1cca c1bd 5d78 ce3d
000001c0: e3be e43d adc1 35bd 485a 39bd 5170 123e
000001d0: acaf e73d a976 2b3e f8b5 643c be0c 243e
000001e0: 7c0e bebd 1383 a73c 72c1 c3bd a144 913d
000001f0: e845 d7bd fa29 e6b9 658e 083e 3171 f03d
00000200: b246 dcbb 3227 1abc 940b e43b 34e1 993c
00000210: f8a3 b5bd 1204 b83d 6d7f be3d 9dcb f43d
00000220: 3e08 c2bd e9dc 33bd fd6f 92bd 5849 ea3d
00000230: 2288 8a3c e0ba a8b9 8807 993d caba e4bd
00000240: 2aa1 4abc ee46 0f3c cba4 8a3d e9cb b13d
00000250: 080a 0a3e 9a0c e83c 6e2e bcbd 1b62 f13b
00000260: fefa 29bd 3430 13be 3471 8cbd c38c 83bd
00000270: 6a6e fdbd 231b c5bd d33d 473d 60b5 693d
00000280: 4902 bc3d 4ad4 15bc ae93 bf3d a71b 083d
00000290: 4f76 243d 6721 a23b 3d31 dd3d 2bd3 bdbb
000002a0: e4f7 e33d b1c4 9abd 7b34 113a 908b 99bc
000002b0: 4f99 c53d b82a b4bd 0b8c 14be 65ea a9bd
000002c0: 1d62 0cbd 7fca 1d3d 2f34 d23d e09a b93d
000002d0: 2f45 d8bd 7e7c 87bd 7cba f5bd fd10 f4bc
000002e0: 9dbf c2bd 5b6b 6e3d 4c91 483e 797e 99bd
000002f0: 20dd 09bd 08e1 92bd 25f5 d83d adb8 93bd
00000300: 30c2 d8bd 5cd3 92bd d38d 1bbd 7b58 223c
00000310: 8659 ee3c 90e2 3a3d 4949 d8bd d798 3ebe
00000320: 6315 a1bd ebbc 173d 93a4 993d 7dca bdbd
00000330: 7af4 a3bd 91ae 10be d319 ec3c 475a adbd
00000340: cc99 0b3d e6df 003d 4c7f 783d 3900 1cbe
00000350: 4628 a3bd fc45 fe3c 924c 4e3d 7a71 0d3d
00000360: 2c0b 02be 3b9b 8fbd 234f 15be 2e01 1c3d
00000370: 0a1b 393e 9e93 1fbd 1a9f 0a3e f83a 0b3e
00000380: 808c 253d 7454 913d ce8f eabc 3225 da3d
00000390: 6517 863d 43fd 05be 7354 563b 4830 5b3c
000003a0: 4b9d 30bd 2813 a6bd 59ca f9bb a730 bbbd
000003b0: dc08 933b 04de 8fbb b702 853d c21f 0a3d
000003c0: 15ef eabd 9b44 0dbd 6544 a3bd 95ef 183e
000003d0: 753f d93d 6bc6 c73d 9b68 e1bc a1b1 213d
000003e0: 9f6d 823d 24b5 233d 7d6b 0dbe 0582 01bc
000003f0: 0aa3 9fbb 5804 fb3c d8c4 18bc 2e41 c83d
-0.12363616 -0.014286408 0.03936137 -0.03168688 -0.05630783 0.0018437118 -0.05737218 0.105905056
-0.14062624 -0.036855802 0.043620143 -0.11765357 -0.009177121 0.10884133 0.116477005 -0.08874495
0.0135929985 0.074470304 -0.157634 -0.07028472 -0.10724994 0.06649913 0.08824328 0.128609
-0.09779017 -0.22355166 -0.06637658 0.012047609 -0.12344531 0.12535337 -0.08401033 0.023699604
0.089903764 0.10386486 0.10349174 -0.16011606 0.12283676 -0.052394737 -0.114286736 -0.083565295
0.07358731 -0.08592227 -0.038821176 0.06215242 -0.0038078995 0.07118941 -0.09249661 0.032617774
-0.15099062 -0.0036369865 0.052777752 -0.096840486 -0.06478812 -0.10625901 0.102270395 0.17144802
0.07135264 -0.0065327305 0.15175556 -0.03681875 0.040140744 -0.071551055 0.12561911 0.068997085
0.15541175 0.047689665 -0.12082915 0.033330098 0.0031061089 -0.056577686 0.02634406 0.102356665
0.03660902 0.047507066 0.055068515 -0.01700054 0.06834973 -0.0078004412 -0.05005095 -0.12536782
0.042374495 0.071781665 -0.050945263 -0.13682806 -0.06691376 0.12008208 -0.017500697 -0.0722795
0.033802345 -0.043062214 0.07944107 0.015642066 0.017833017 -0.005588385 -0.1536529 0.12423659
0.06960798 -0.047946583 0.062373217 0.15610987 -0.008476284 0.06508675 0.08846767 -0.08954367
-0.0069695623 0.011605408 0.07905783 0.02890425 0.039334256 -0.032028876 -0.094623774 0.10081551
0.11169221 -0.044374157 -0.045252115 0.14300658 0.113128036 0.16744484 0.0139594 0.16020486
-0.092801064 0.020448243 -0.09558381 0.07093168 -0.105113804 -0.00043900294 0.13335569 0.117403395
-0.0067222947 -0.009408759 0.006959388 0.018784143 -0.08869165 0.08985151 0.09301648 0.11952899
-0.09474228 -0.04391185 -0.07150266 0.114397705 0.016910616 -0.0003218269 0.074721396 -0.1116844
-0.012367526 0.008744938 0.06769713 0.08681471 0.13480389 0.028326321 -0.09188543 0.0073664314
-0.04149913 -0.14373857 -0.06857529 -0.064233325 -0.123745754 -0.096243165 0.048642945 0.05705774
0.09180123 -0.009144852 0.093543395 0.033229496 0.04015189 0.0049478295 0.10800407 -0.0057929954
0.11131266 -0.07557047 0.0005539131 -0.018743306 0.09648382 -0.087972105 -0.14506547 -0.0829666
-0.034273256 0.038523193 0.102638595 0.09062743 -0.10560071 -0.06615542 -0.1199846 -0.029793257
-0.095092036 0.05820785 0.19586676 -0.07494826 -0.033658147 -0.071718276 0.105936326 -0.072129585
-0.10583913 -0.0716922 -0.03797705 0.009908791 0.029095422 0.045626223 -0.10560853 -0.18612991
-0.07865407 0.0370454 0.07502093 -0.09267137 -0.080056146 -0.14129092 0.028820908 -0.08464485
0.03408222 0.031463526 0.060668275 -0.1523446 -0.07966666 0.03103923 0.050365992 0.034532048
-0.12699574 -0.0701203 -0.1458097 0.038087063 0.18076721 -0.038959138 0.13537255 0.13596714
0.040417194 0.07096186 -0.028633025 0.10651626 0.06547431 -0.13084893 0.0032704144 0.01337821
-0.043118756 -0.081091225 -0.0076229987 -0.09140139 0.00448714 -0.00439048 0.064946584 0.033721693
-0.114713825 -0.034489255 -0.079720296 0.14935143 0.106078066 0.09754642 -0.0275157 0.03947604
0.06368565 0.03996767 -0.13810535 -0.007904534 -0.0048717307 0.03064172 -0.009324275 0.09778057

residual_block.layer2.bias f4 [10]
00000000: 7a32 7ebc 64a0 5c3d 1881 bbbd 678c 973d
00000010: 1d45 f5bd 629a 32bc 47f5 693d b3d1 93bd
00000020: c6ce debd 0d14 09be
-0.015514964 0.053863898 -0.09155482 0.073998265 -0.11976073 -0.010901066 0.05711868 -0.07217731
-0.10879283 -0.13386555

residual_block.batch_norm_layer2.weight f4 [10]
00000000: 8545 803f aac2 813f 55e3 7f3f 146c 793f
00000010: 50a8 853f 3a1e 803f a813 863f fe36 7d3f
00000020: e147 813f 5059 893f
1.0021216 1.0137532 0.99956256 0.9743054 1.044199 1.0009224 1.0474749 0.98912036
1.0100061 1.0730381

residual_block.batch_norm_layer2.bias f4 [10]
00000000: 1cdb 38bc 110f d83c c7a9 0bbc 920f 5b3c
00000010: 7044 953b 124c b0bc fce7 5c3c 8047 60bb
00000020: e714 58bd 67c6 d4bc
-0.0112827085 0.026374372 -0.008524365 0.0133704115 0.0045552775 -0.021520648 0.013483044 -0.0034222305
-0.05275431 -0.025973512

residual_block.batch_norm_layer2.running_mean f4 [10]
00000000: 50f0 9fbe cb93 bd3e b1a3 c83e 65ec 62be
00000010: e8e0 b5bd 18ec b93d 21a6 1d3e ec6a 0cbf
00000020: deaa e03e d796 f1bd
-0.3123803 0.3702682 0.39187387 -0.2216049 -0.08880788 0.090782344 0.15395404 -0.5485065
0.4388036 -0.117963485

residual_block.batch_norm_layer2.running_var f4 [10]
00000000: 8073 483e 17c6 243e 4e8b 583e 9f71 b83e
00000010: 07f8 d63d 4407 ca3d 3828 963e 6f54 a03e
00000020: bddc 1a3e 1b0d a33d
0.1957531 0.1609119 0.2114689 0.36024186 0.10496526 0.09864667 0.2932756 0.31314418
0.15123267 0.07961484

layer2.weight f4 [10, 10, 5]
00000000: bf84 9d3d eaa9 e5bd 7091 1fbb 3fa1 97bd
00000010: 3e07 063e db99 e13d 3dc4 c0bd ac35 b3bd
00000020: 44bd 88bd c738 fdbd 3909 8cbd 3e9b c93d
00000030: 423e bdbd 4183 c5bd 0282 373d 1f39 c4bc
00000040: de22 eebd a740 ba3d 3011 353d b9b9 8c3d
00000050: 25ce 243d 5b55 05bc 475d 9abd 58ac 9bbd
00000060: a3bc cfbd 54e6 25bd 598f 353d d1de 6abd
00000070: f7a0 663d 9b0d 4f3d 8c78 4a3e 0131 dc3d
00000080: de5a cf3c 35d9 a53d bed6 bb3d c9c8 fc3d
00000090: 8266 7d39 5d8c c1bd bb95 4f3d 62bf eebc
000000a0: 0aea 043e b5d1 123d 98d9 8bbd cd80 b9bc
000000b0: 4788 02be 9fba ecbd 4f47 a2bd 592b 693d
000000c0: 7c60 e6bd a82f 513d 9123 3abe 3e62 473d
000000d0: 1891 65bc 447b 633c f69e 8cbd 65b1 243e
000000e0: dcdd b23d 83ce e63d a641 1a3e 91b6 f1bc
000000f0: 7ed7 94b9 8fbe 3c3d a277 78bd f790 76bd
00000100: b05e b73d 5b94 053e 45a9 54bd 8ac4 5c3c
00000110: 2c48 f3bc 054f f2bd 12f3 d5bd 625b d43b
00000120: c1c0 fb3c 7361 983d b25c 533d 7d17 183e
00000130: d216 873d 969c 15bd 9256 203d 060a 67bd
00000140: 252b 26bd a3ec 1bbd f194 2abd fe10 033e
00000150: 2276 f2bd 1225 b13d 2baa d8bc 3bf0 b7bd
00000160: 088a c23d d96b 8d3d 61e5 7cbc b552 acbc
00000170: 31ed 923d 2481 8cbb 8e19 33bb 3241 8abd
00000180: 4451 b2bd 102d 02be d8be 76bd 593a 04bd
00000190: 8a12 a33c c439 5c3d 76ae 94bd 93f9 ebbd
000001a0: afde dfbd 6f3b 293c 6e20 cfbd 0d4d abbd
000001b0: 106f e1bd 32ae 413c 2194 16bc 22a7 cd3d
000001c0: 42cc 77bd 90b9 cb3d 4eb3 e33d b413 91bd
000001d0: 5dac 55bd 7039 bdbd ad58 d73d dda9 a9bd
000001e0: b2e9 04be f102 b9bc 00f1 563d 2553 24bd
000001f0: 70e5 f23d f8b1 89bd be0c 61bd b9bf 8ebd
00000200: 2688 42bc b89a 54bc db0b 7bbd 1f08 f5bd
00000210: 82b5 1aba 5c69 07bd 4f63 913d f0c6 03be
00000220: bcc5 d33d 74a3 a5bd f8fe 01bd fa99 cdbd
00000230: 90c1 973d f6df 083e 8419 f63d dd68 d73a
00000240: 263d 563d 5f70 73bd f2d5 debc f803 b83b
00000250: 6a64 013e 982e 92bd 6925 863d aa24 fd3d
00000260: fd09 b4bd d535 b5bd efb4 b53b 7706 113d
00000270: 9cc7 993c 2474 b7bc cf43 ef3d c289 dd3d
00000280: 198f 99bd f292 833d 9d59 a83d 8338 053e
00000290: 6a82 e2bb ffa4 21be 1865 8abd 950d 86bd
000002a0: cffe f03c 613e 053c a65d a43d d44c e93d
000002b0: 82b9 cbbd 859e c63d ed84 20bd 09c5 083e
000002c0: 426c e83d 2bdb 953d 5324 69bd daec 05bd
000002d0: 05ae 3bbd de58 e73d 20ee f8bd d8f1 d33d
000002e0: 7781 92bd ea18 adbd bde5 a23d 3363 d43c
000002f0: 6d8f 7cbd d684 9f3d 2410 1f3d a0bc 01be
00000300: 7d4f 7bbd 872f a63c 459e 403d 55b0 fd3d
00000310: 5580 ffbb 7501 693c edad d53d 04a7 f1bd
00000320: cee4 c23d cc51 143e 6a13 e13d bbc8 003d
00000330: 19d2 563c d12b 2ebd 76a4 f8bc 1cfc f6bd
00000340: 2458 17bd 79fb 6ebd bd3e a9bd 8c5f 933d
00000350: a863 523d 5d60 5f3c b0ac 90bd 76de 38bd
00000360: df69 61bd 11c8 3bbd 576b 0dbe 0f4f 9fbc
00000370: 3c0b 213e 8a69 443b 18f3 0f3e afc1 093d
00000380: 902c ed3d e587 873d fcf0 893a 5560 533d
00000390: f5bc c13d 94f4 033d 8684 0fbe 4c32 4a3c
000003a0: b826 3a3d 8087 1e3d 03f7 053d 1244 87bd
000003b0: 4818 953c 4d52 2e3e bfb0 98bd 780d f4bc
000003c0: f36d 00be d970 d1bc 76a1 093c f83f 4b3d
000003d0: 16de 07be 2ee6 0a3e 7705 c2bd d594 9f3c
000003e0: e7d7 b93d 90be a33d e72b bbbd 59ec 84bd
000003f0: 6305 91bd 3656 abbd cc62 7fbd 20a8 e4bd
0.07691335 -0.11214049 -0.0024348162 -0.07403802 0.130887 0.11015674 -0.094124295 -0.087504715
-0.066767246 -0.12364345 -0.068376966 0.09844063 -0.0924039 -0.09644175 0.04480172 -0.023953019
-0.11627744 0.09094363 0.044205844 0.06871361 0.040235657 -0.008138026 -0.075373225 -0.07601231
-0.101434015 -0.04050286 0.04432616 -0.0573414 0.05630585 0.050550085 0.19772547 0.10751534
0.025311884 0.080980696 0.09171818 0.12342984 0.00024166147 -0.094506 0.050679903 -0.029143993
0.12979904 0.035844523 -0.06828612 -0.022644425 -0.12747298 -0.11559033 -0.07923757 0.056926105
-0.11248872 0.05107084 -0.1817763 0.048677675 -0.014011644 0.013884369 -0.06866257 0.16083296
0.087337226 0.11269858 0.15064105 -0.029506 -0.00028389314 0.04608017 -0.060660966 -0.060196843
0.08953607 0.13044874 -0.05191924 0.013474593 -0.0296975 -0.11831478 -0.104467526 0.0064806202
0.03073156 0.07440462 0.051602073 0.1485271 0.065961495 -0.036526285 0.03914506 -0.056406043
-0.04056849 -0.03806747 -0.041645948 0.12799451 -0.11838938 0.08649649 -0.02644833 -0.08981367
0.094989836 0.06905336 -0.015435548 -0.021035532 0.07174147 -0.0042878557 -0.0027328464 -0.06750716
-0.087069064 -0.12712502 -0.060240597 -0.032282207 0.019906301 0.053766027 -0.07259838 -0.11522212
-0.109311454 0.0103291115 -0.10113607 -0.08364306 -0.110075116 0.011821317 -0.00919059 0.10041644
-0.06049753 0.099475026 0.11118184 -0.07083836 -0.05216633 -0.09239471 0.105149604 -0.08284352
-0.12979773 -0.02258441 0.05247593 -0.040118355 0.11860168 -0.06723398 -0.054943793 -0.06970162
-0.011873281 -0.012976341 -0.061290603 -0.119644396 -0.00059016806 -0.033059463 0.0709902 -0.12868857
0.10340449 -0.08087817 -0.031737298 -0.10039134 0.07409966 0.13366684 0.120165855 0.001643445
0.05230441 -0.059433337 -0.027201626 0.0056157075 0.12635961 -0.07137793 0.06550104 0.12360509
-0.087909676 -0.08848158 0.0055452506 0.035406556 0.018771939 -0.022394247 0.11682855 0.10817291
-0.07497997 0.06424512 0.082202174 0.13009839 -0.006912519 -0.15785597 -0.06757563 -0.06545559
0.029418377 0.008132548 0.080256745 0.11391607 -0.09947492 0.09698204 -0.039189268 0.13356413
0.113487735 0.073171936 -0.056919407 -0.032696582 -0.045820255 0.11296247 -0.12154794 0.103488624
-0.071536 -0.084520176 0.07953975 0.025926208 -0.06166022 0.07789008 0.038833752 -0.12669611
-0.061355103 0.020286335 0.047025938 0.12387148 -0.007797281 0.014221539 0.10433564 -0.11799434
0.09516297 0.14484328 0.10990031 0.03144143 0.013111615 -0.042522255 -0.030351859 -0.12059805
-0.03694929 -0.05834529 -0.082639195 0.071959585 0.05136457 0.013633815 -0.070641875 -0.04513403
-0.055032607 -0.045845095 -0.13810478 -0.019446878 0.15726942 0.0029970133 0.14057577 0.033631977
0.11580765 0.06617717 0.001052409 0.05160554 0.09459869 0.03221567 -0.14015397 0.012341093
0.04544708 0.03870344 0.03270627 -0.0660478 0.018200055 0.17023583 -0.07455587 -0.029791579
-0.12541942 -0.025566505 0.008400312 0.049621552 -0.13268313 0.13564369 -0.094736986 0.019480148
0.09074383 0.07995331 -0.09139233 -0.06490392 -0.070811056 -0.08366053 -0.06235008 -0.1116488

layer2.bias f4 [10]
00000000: 72c6 9dbd cda0 cf3d 1de2 a03b 0755 8c3d
00000010: ea01 6dbd 7978 89bd db0a 28bd 8a2b cbbd
00000020: d426 613d f228 063e
-0.07703866 0.10138092 0.0049097673 0.06852155 -0.057863154 -0.067124315 -0.041025978 -0.09920414
0.05496867 0.13101557

batch_norm_layer2.weight f4 [10]
00000000: a4d8 863f a614 843f 1f4c 7c3f 8bc1 7a3f
00000010: a737 843f 0e35 893f 0f55 7f3f e27a 843f
00000020: ff93 7d3f 71c4 863f
1.0534863 1.0318801 0.9855365 0.97951573 1.0329484 1.0719316 0.99739164 1.0350001
0.9905395 1.0528699

batch_norm_layer2.bias f4 [10]
00000000: 0eae 573d 8e8b 16bc d603 22bc 763b 9dbc
00000010: ac3f b1b9 0d42 6a3d 89b1 d8bc d04b 7a3c
00000020: d9d5 c9bb 0e05 e13c
0.052656226 -0.009188546 -0.00988861 -0.019193392 -0.0003380751 0.057191897 -0.026451843 0.015276864
-0.006159526 0.02746823

batch_norm_layer2.running_mean f4 [10]
00000000: 8010 00be 6cc5 253e 78b3 02bf 324c 033f
00000010: 3542 903e 43c7 2fbf cefc febd 58c7 483e
00000020: 0b0e 993e 1f60 983e
-0.12506294 0.16188592 -0.510551 0.5128814 0.28175512 -0.68663424 -0.124505624 0.19607294
0.29893526 0.29760835

batch_norm_layer2.running_var f4 [10]
00000000: 472f b43e 8976 a43e 8d64 c53e 99a1 fc3e
00000010: 6e7b a83e 7f85 a83e 332b 903e 56af 843e
00000020: 93bd d03e d492 db3e
0.3519232 0.32121685 0.38553277 0.4934204 0.3290667 0.3291435 0.28157958 0.2591502
0.40769634 0.42885458

mlp.weight f4 [6, 1200]
00000000: bf63 9abc 00f7 cebc eccb 78bd f3ee 8bbd
00000010: 7302 bebd ec4c acbd a4be 0dbd 732d 6ebd
00000020: 8e5c 37bd 425f 68bd b3c8 98bd 5ec4 b4bd
00000030: bfb4 06bd 38cd 3dbd d7d8 29bd 9d73 ebbc
00000040: 0954 8cbd a515 3fbd b8c4 f3bc 7f63 ccbc
00000050: 86fe 81bd b4c3 16bd 9ad9 49bd 803a eebc
00000060: 8521 10bd 64ef a3bd af9f 7ebd d089 9abd
00000070: 84e6 2fbd 5389 86bc bc65 21bd 8de3 0ebc
00000080: d401 e7bb a520 5abd 712f 0fbd cc23 0bbd
00000090: 7cf8 af3b cafd 3abd d1d0 413c d32c 763c
000000a0: 495f 88bc 744c edbc f9f5 7bbd 4595 11bd
000000b0: 5118 d1bc 6f5f 19bd c48f 2dbd 19f0 e6bc
000000c0: 9b06 6dbd e01b 0fbd 855e 73bd e997 d3bc
000000d0: 8e6c 4fbd ab44 1cbd 77f3 29bd e400 fabc
000000e0: d5c3 8abd be59 5cbd 5511 56bd ba2e 1ebd
000000f0: 3294 a4bc a1ae a7bc 6e43 3bbd dbda 2fbd
00000100: ae8d 1bbd 47eb a0bd a431 66bd f0d1 48bd
00000110: b5fd cdbc 4d28 d5bc 973c bbbd 7fd9 eebc
00000120: 4102 a4bd dbd5 23bd 5f50 4bbd 7f3b 74bd
00000130: c1f2 1ebd bd8d 7cbd 6650 90bd 2b14 93bd
00000140: e5a9 8cbd 24aa 82bd 3465 44bd db40 abbc
00000150: 06a0 59bd a73d e9bc e32e 95bd 66c9 9ebd
00000160: a68c 98bd cc2f 97bd e0f8 cbbc 2eb2 9bbd
00000170: 4162 03bd 691e 12bd 1e70 b3bd 0874 46bd
00000180: 5126 82bd 9afe 34bd 2e02 0ebd 7486 25bd
00000190: 41f3 d6bc 2631 72bc 0afa 04bd b2bb 003c
000001a0: 9a6a 48bd 1311 34bc 93c9 fcbc bce7 b0bd
000001b0: 272e adbc 12ae 80bd 481c 04bd 392e 01bd
000001c0: a7c2 8abd 6102 5dbd 0f7f 16bd 58f2 14bd
000001d0: 61a0 88bd 04a1 d0bc e602 f5bb 24c4 48ba
000001e0: e70e b53c 08f8 0ebb 68e6 b4bc d3f8 a9bc
000001f0: f997 2bbd 0ae8 15bd a4e6 86bc c58e e7bc
00000200: 6651 fdbc f989 22bd b86a 55bd ed2d 13bd
00000210: 0413 11bd 643a 51bd da88 00bd 773c 82bd
00000220: e8ee b1bc 1194 06bd 07d6 edbc 2075 c6bc
00000230: 7d8e 23bd 0b25 c6bb 6112 80bd f277 39bd
00000240: 59ca f3bc 7e02 29bd 5bab 26bd 457e 2bbc
00000250: c1b8 fcbc 1817 1ebd 1b7a a5bc 3ae1 18bd
00000260: 1013 36bd e6e2 35bd 72eb 63bd ca2b 76bd
00000270: 950c 62bc b07c 67bc 087e bbbc 7d01 9fbc
00000280: 6556 96bd e1fd 59bd 6c6b edbc fa3c 1bbd
00000290: b4ba 92bd 4122 d9bc 9678 b3bc 2929 5bbc
000002a0: e791 93bb 4c24 6cbd eb8c 61bd c07e 79bc
000002b0: 743b b4bc 0171 89bd 9970 cbbc 09b0 16bd
000002c0: e412 d2bc f580 2cbc 6e88 1abd f5a8 16bd
000002d0: a635 8fbc 2545 83bd 5bf5 1cbd cf9b dabc
000002e0: 8f69 1ebd 8219 a6bc d395 78bd c230 51bd
000002f0: c608 7dbc 996d 92bc 5824 07bd 7396 14bd
00000300: c37b 55bd 8003 06bd 3e53 aabc 812b cbbc
00000310: f6c6 5dbd f270 6dbc 5b85 14bc 92ce 0bbd
00000320: bf35 f4bb cd01 29bd 0e8b 43bd 47d0 f0bc
00000330: 0b2a 36bd cf36 69bd 6873 84bd bac9 9ebc
00000340: e412 0bbd 6e80 65bd d6f3 5dbd 6bbc 64bd
00000350: 13d7 44bc 46b5 7dbc e5a9 dfbc 7285 00bd
00000360: 49b0 3ebc 13db 39bd 6d79 67bd 9af7 7abd
00000370: f7de 3fbd 85ba 54bd 4b8c e1bc 313a 94bc
00000380: eaeb 4bbd 0373 00bd d26a cabc c088 49bd
00000390: bb0b 48bd 60b6 1cbd dc41 cdbc 493d 1cbd
000003a0: 9f62 36bd 65ce 48bd cd4e 5cbd 435b 97bc
000003b0: 4855 26bd 68f0 22bd 26fe 69bd 64a9 49bc
000003c0: 7abe 203b 8c85 323c 3e17 25bd cf9c db3b
000003d0: fa5d e43b 7aca 87bc de38 133d 8de7 b43c
000003e0: 7cab 923c 3f1a 4dbc 74aa f63c ee19 e93c
000003f0: d3d5 02bc cddc 03bb 753e 983c bd3f 003d
-0.01884639 -0.025264263 -0.06074135 -0.06832685 -0.09277811 -0.08413109 -0.034605637 -0.058148813
-0.044766 -0.05673147 -0.07460155 -0.088265166 -0.032887217 -0.04633829 -0.04146656 -0.028741652
-0.06851966 -0.0466515 -0.029756889 -0.024949787 -0.063473746 -0.03680773 -0.049279787 -0.02908063
-0.035188217 -0.080046445 -0.062164005 -0.07545817 -0.042944446 -0.016422903 -0.039403662 -0.0087212445
-0.0070497785 -0.05325379 -0.034957353 -0.033969685 0.005370198 -0.04565219 0.011829571 0.015025335
-0.016646998 -0.02896712 -0.061513875 -0.035542745 -0.02552429 -0.03744453 -0.042373434 -0.02819066
-0.057867628 -0.034938693 -0.059416313 -0.025829272 -0.050640635 -0.038151424 -0.04149195 -0.030518003
-0.06775633 -0.053796522 -0.052262623 -0.03861878 -0.020090196 -0.020469012 -0.045718603 -0.042933326
-0.037976913 -0.078573756 -0.056199685 -0.049028337 -0.025145391 -0.026020193 -0.09142416 -0.029156445
-0.080082424 -0.03999887 -0.049637195 -0.059627052 -0.038805727 -0.06165861 -0.07046585 -0.07181581
-0.06868342 -0.06380108 -0.047948077 -0.020904949 -0.053131126 -0.028471781 -0.072843336 -0.077532575
-0.074487016 -0.073821634 -0.024898946 -0.076023445 -0.032076124 -0.035673533 -0.08761619 -0.0484505
-0.063549645 -0.04418812 -0.034670047 -0.040411428 -0.02623904 -0.014782226 -0.03246502 0.00785725
-0.04892979 -0.010990399 -0.030857837 -0.0863795 -0.021140171 -0.06283201 -0.032253534 -0.031538222
-0.06775408 -0.053957347 -0.036742266 -0.03636393 -0.06671215 -0.025467403 -0.007477152 -0.0007658622
0.022101833 -0.0021815319 -0.022082523 -0.020748531 -0.04189298 -0.036598243 -0.0164674 -0.02826632
-0.030922603 -0.039682362 -0.052103728 -0.03593247 -0.035418525 -0.051081076 -0.03138051 -0.06359189
-0.021720365 -0.03285605 -0.02903272 -0.024225771 -0.03993081 -0.0060468963 -0.062535055 -0.045280404
-0.029759573 -0.041262142 -0.04069076 -0.010467117 -0.030849816 -0.038596243 -0.020199826 -0.037324168
-0.044451773 -0.04440584 -0.05564446 -0.060100354 -0.013796945 -0.014128849 -0.022887245 -0.01940989
-0.07340697 -0.053220633 -0.028981887 -0.03789995 -0.07164517 -0.026505591 -0.021908086 -0.013376513
-0.004503477 -0.057651803 -0.05506603 -0.015227973 -0.022001006 -0.06711007 -0.024833964 -0.036788974
-0.025643773 -0.010528793 -0.037727766 -0.036782224 -0.017481636 -0.06409673 -0.038319927 -0.026685623
-0.038674887 -0.020275835 -0.06068976 -0.05107189 -0.015443986 -0.017874526 -0.032993644 -0.036276292
-0.05211998 -0.03271818 -0.020791646 -0.024801018 -0.054144822 -0.01449226 -0.009064998 -0.034132548
-0.007452696 -0.041261483 -0.047740035 -0.02939619 -0.04447369 -0.056937035 -0.064673245 -0.0193833
-0.033953562 -0.056030683 -0.05418762 -0.055843752 -0.012014168 -0.0154851135 -0.027302692 -0.031377263
-0.011638709 -0.04537494 -0.056512285 -0.061271288 -0.046843495 -0.05193569 -0.027532717 -0.018094154
-0.049785532 -0.031359684 -0.024709139 -0.04920268 -0.048839312 -0.038259864 -0.025055818 -0.038144384
-0.044527646 -0.04902496 -0.053786088 -0.018476134 -0.040608674 -0.03978005 -0.05712714 -0.012308452
0.0024527595 0.010896098 -0.04030537 0.0067020427 0.0069692107 -0.01657604 0.035942905 0.022083068
0.017904036 -0.012518465 0.030110575 0.028454747 -0.00798555 -0.0020120621 0.01858447 0.031310786

mlp.bias f4 [6]
00000000: e407 cebc e302 1a3d fa4c 43bd 9ee1 f93b
00000010: 2830 4a3d 69d5 753c
-0.025150247 0.03760041 -0.047680832 0.0076257726 0.04936233 0.015004494
