models/ConvModel/UCIHAR_1D_Model_02.pt (torch, 36361 bytes, 10 tensors)

layer1.weight f4 [10, 9, 5]
00000000: 8a8d 993d 4ae7 a13e fd1e 883d 1238 693e
00000010: 0080 523e 84e9 ecbe b79a 21be f6f6 8fbe
00000020: 031f 2abe 6dd7 4dbe ba5d 49bb ccab 72bd
00000030: ec5e 4ebd 38b4 b53d 4ac4 873d b147 2abd
00000040: d550 84bd 1954 12be bb72 1b3b feeb 41be
00000050: c6be 97bd 5ac3 dfbb 4f4a b2bd cd22 1cbb
00000060: 0a28 e8bd 3793 4f3e e1b7 2f3e fff4 3a3d
00000070: f73f 063e fd55 a33d e48e 34b9 bbe4 05bd
00000080: 3f4c a63d d172 bf3d 1b72 d2bd a2ed 68bb
00000090: 6bf0 2abe 5411 c53d ec55 b03d ec7f eb3d
000000a0: ab2b 8e3c 292b d6bd 674e d5bd 38ec 75bc
000000b0: e1c3 76bd 93b8 40be c2c5 26be bc21 01be
000000c0: b07d cdbe 5d49 b6be 40fb e83d 8b08 033d
000000d0: 3b46 533e 1ae6 a73d 5e7f 773e d0bd d33c
000000e0: 20d2 a13d d906 93bd ad04 0a3e 399e 3e3e
000000f0: 14f0 923b 7e8b e53d ed6a e9bc e0e4 7c3d
00000100: 00c7 b63b 16f6 7a3d 3e06 263e 4105 273e
00000110: 7bcf 873e bb57 1abe 7bdc 26bd 0106 3e3e
00000120: c479 fb3d c96e 843e 64f4 783d 4b83 383e
00000130: bee2 dc3d c4ef fbbc 8b40 be3d 5cc0 e63d
00000140: 2784 753d 0668 7dbd 510b d9bc 563f 013e
00000150: 374a bf3d 6024 0c3e 3bf7 d9bd 294a 0fbe
00000160: a453 d4bb a20b 0f3d 53d6 5f3e a3df 8d3d
00000170: f450 293d 867c 83be a1dc 9abe 0519 dcbd
00000180: ab84 45be ddbd 24bd 745f e8bd f7bd ddbe
00000190: cf64 b63d 9fc6 20be 4c63 8bbe e333 95be
000001a0: 4706 89be 3446 2b3e 13a6 7abc 8770 8f3d
000001b0: e5a4 48be 5330 bebe 0ead 4ebc 42ba 653d
000001c0: 89f0 313e 2d48 37bd 020d 3fbe 40ea a33d
000001d0: 5cb9 eebb 43fc af3c ff93 30be 56a0 7fbe
000001e0: cc90 123e fe1e e73d 4dc1 8e3c b072 a939
000001f0: 442e 22be d3f7 8bbe 5d5c e2bd f089 4bbd
00000200: 6bf8 86be 340a 47be f324 dd3d c91a cb3b
00000210: db9c 873c 1530 f5bb 3238 5cbe c5e7 b03e
00000220: 9a7d 933e 855d a43e 8e95 733e 2152 c63e
00000230: 12f9 9cbe d6f3 51be 9da0 c8bd acf8 efbd
00000240: b4ed 08be e119 ed3c f060 60be 6a44 5bbe
00000250: a605 08be 7fa0 5a3e 320e fabd 9a48 ed3d
00000260: f67d 2e3e d34f 54bd 4e9d 383e 1c3d 58bd
00000270: 4483 9dbd 5551 053d e163 47bd a2fc f03d
00000280: 0983 17be d38f 213e 6489 0dbd 99a0 9b3d
00000290: 7593 3c3d 9253 593c f404 2b3e 7f84 df3d
000002a0: 9e08 90bb 2950 fbbd f052 b03c b3de 14bd
000002b0: 052b 63bd 6e84 33bc a074 28be 01ee 84bc
000002c0: ba52 23be ae29 54bd 4fe3 013e 4f91 19bd
000002d0: 71a0 debe 6d64 bfbe 2614 4fbe c70a 9dbe
000002e0: 6aa0 5fbe 1d40 163e 7e22 193d 6192 29bd
000002f0: 16ea 8e3d 4718 ddbc d55d d23d d77b 1a3e
00000300: d62d 093e 0611 02bd 8a78 20be 9b0c cbbd
00000310: 037d 32be 3579 2b3d 5712 803c 2222 98bd
00000320: d37a c93b 7e1a 94bd c6ab 6cbd 72fe f73d
00000330: bfdd ce3c 09a8 123e 2616 54be 465b 14be
00000340: 654b 24bd e402 1fbe 5682 903c 4e73 89bd
00000350: e7cd 80bd aec3 bd3d dc4b 03be 26f5 48bd
00000360: a0ee 3b3c 784c fdbd 33bc 03be 638e 0dbd
00000370: ca5c 3c3e 4482 403d 230f 4cbd aaae a1bd
00000380: 9eb2 913d b2fd 98be f962 bbbe 6a93 59be
00000390: ab5b 5cbe daf2 33be 3cd9 5d3d 8b7b 983d
000003a0: 1332 5f3e f35a 71bd 2959 ecbd bbb0 073d
000003b0: dd36 d13d 9899 383d a3d5 d63d 2ac6 333e
000003c0: 9b4c bdbd 29da 5b3d e6bc 61bd 03c6 15be
000003d0: 8bee 8bbd f725 bb3d 4de7 283c b721 b03d
000003e0: 2872 4bbd 1696 f4bc ef1d c93d 6fea 6c3e
000003f0: 669c 593e 3c5a b0bd 3d47 f8bd 9142 adbc
0.074976996 0.31621772 0.066465355 0.22775295 0.2055664 -0.46271908 -0.15781675 -0.28118104
-0.16613393 -0.2010171 -0.0030726031 -0.05924587 -0.050383493 0.088722646 0.06629236 -0.041572277
-0.0646073 -0.14289893 0.0023719508 -0.1893768 -0.07409434 -0.0068287076 -0.087055795 -0.0023824454
-0.11335762 0.20271002 0.17159988 0.045643803 0.13110338 0.07975385 -0.00017219369 -0.032688837
0.081200115 0.09348071 -0.1027567 -0.003554203 -0.16693275 0.09622446 0.08610138 0.114990085
0.017354807 -0.10457451 -0.10415345 -0.015009932 -0.0602454 -0.1882041 -0.16286376 -0.12610525
-0.40134954 -0.35602847 0.11376047 0.03199057 0.2063226 0.08198185 0.2416968 0.025847346
0.07901406 -0.071790405 0.13478346 0.18615045 0.004484186 0.11208247 -0.028493369 0.06174171
0.005577922 0.061269842 0.16213319 0.16310598 0.26525483 -0.15072529 -0.04073761 0.18556978
0.12279084 0.25865772 0.060779944 0.18018834 0.10785435 -0.030753978 0.09289654 0.112671584
0.059940483 -0.061866783 -0.026494654 0.12621817 0.09340327 0.13685751 -0.106428586 -0.13993134
-0.0064796973 0.034923203 0.21859102 0.06927421 0.04133697 -0.2568094 -0.30246451 -0.107469596
-0.1928889 -0.04022013 -0.11346331 -0.43308994 0.089059465 -0.15700768 -0.27224195 -0.2914115
-0.26762602 0.16725999 -0.015298384 0.07003885 -0.19594152 -0.37146243 -0.012614502 0.056085832
0.17376913 -0.044746567 -0.18657306 0.08003664 -0.00728528 0.021482592 -0.17243956 -0.24963507
0.14313048 0.11285208 0.017426157 0.0003231964 -0.15837961 -0.27337512 -0.11052773 -0.049692094
-0.26361403 -0.19437486 0.10798063 0.0061982614 0.016554287 -0.0074825385 -0.21505812 0.34551826
0.28806764 0.321026 0.2378752 0.38734534 -0.30658776 -0.20503172 -0.097962596 -0.11717352
-0.13371927 0.028943004 -0.21911979 -0.21412817 -0.13283405 0.21350287 -0.12209739 0.11586113
0.17040238 -0.05183394 0.18028757 -0.052792653 -0.076910526 0.032548267 -0.048679236 0.11766936
-0.1479608 0.15777521 -0.034554854 0.07598991 0.046039063 0.013264554 0.16701108 0.109139435
-0.0043955585 -0.12271149 0.021523923 -0.036345195 -0.05546095 -0.010956867 -0.16450739 -0.01622677
-0.15949526 -0.05179756 0.12684368 -0.037492093 -0.43481782 -0.37381306 -0.2022253 -0.30672285
-0.21838537 0.14672895 0.03738641 -0.041399363 0.06978242 -0.026989115 0.10271803 0.15086304
0.13396391 -0.031754516 -0.15670982 -0.09914514 -0.174305 0.04186364 0.015633745 -0.07428385
0.006148675 -0.072316155 -0.057781003 0.121090785 0.025252221 0.14321913 -0.20711574 -0.14487943
-0.040110964 -0.15528446 0.017640274 -0.06711446 -0.06289273 0.092658386 -0.12821907 -0.049061917
0.011470467 -0.12368101 -0.12864761 -0.03455962 0.18394771 0.04699923 -0.049819123 -0.07894643
0.07114147 -0.29881054 -0.36598948 -0.2124764 -0.21519344 -0.1757311 0.05416225 0.07445439
0.21796446 -0.058924627 -0.115404435 0.033127528 0.102155425 0.045068353 0.10489967 0.17556062
-0.09243127 0.05367485 -0.05511179 -0.14626317 -0.06832608 0.091381006 0.010309053 0.086001806
-0.049669415 -0.029856723 0.098201625 0.23136304 0.21251068 -0.08610961 -0.121229626 -0.021149905

layer1.bias f4 [10]
00000000: 2911 cdbd 3441 093d 77f5 b53d c0bc c83b
00000010: 5ac1 083e b106 8bbc 2721 1ebe 1208 30bd
00000020: 8bda 113b 2d64 5c3d
-0.10013039 0.03350945 0.08884709 0.0061260164 0.13355008 -0.016970964 -0.15442334 -0.042976446
0.0022255506 0.053806473

layer2.weight f4 [10, 10, 5]
00000000: 66d7 583c 1429 4d3e fc8c 5dbd fdea 103d
00000010: 361e d23d 05a6 59be cb97 f9bd 75ef 1fbe
00000020: 865a bbbd 54bb 6dbe 4438 133e 04af c9bb
00000030: a5ff 963d a36a f23d e3ff f63c fc6c 853d
00000040: 4277 5e3d 81c2 1c3e 7944 04be fe98 703d
00000050: 26c2 b1bd eb58 a13c 6f92 143e ea99 d13d
00000060: 07ed 6f3d 80bf 543d 76b4 c7bd 604f 4a3d
00000070: 8cad 69bd 7af4 59bd 34ec e8bc f37a 07bd
00000080: a6eb 01be 5a2c 543d 2968 5e3c fc8e dc3d
00000090: 2420 1f3d 8531 cb3c 19f5 183e 36be 9d3d
000000a0: 4859 c5bd b012 c83d 418f e63d c8bb 193e
000000b0: aa03 c63d e861 6dbc 58e8 d3bd a913 a33d
000000c0: d41d f4bd bc4e 10bd bce8 763d 6998 b03c
000000d0: 3414 53bd 6a3f 81bd a3a9 163e 2f78 913d
000000e0: 0022 a9bd 39b3 9bbd 4e99 b33d 8b7f e0bd
000000f0: cb3b d63d 6f4e 0b3e c558 4d3d cd81 613d
00000100: 4050 0bbd 8557 0dbe aac1 203d 7145 103c
00000110: 650e 51bd 0715 443e c828 51bc 950c 233e
00000120: dcb9 ec3d 2284 e83d 67e7 833d 481b 403e
00000130: cde9 2bbd 50ec b03d 6893 093e 63a9 8b3d
00000140: 61ce 093d ffb0 89bb febb 78bd ce0d 65bd
00000150: 4c94 87bd 7d0a 08be f083 36be 5923 14be
00000160: 31d2 15be ca36 0ebe 6f5c d2bc 6c91 3bbb
00000170: 79df 6c3d 130c 183e 4df2 303d 904d 08be
00000180: e936 9bbb f709 1bbd cc90 aebc 424e 16be
00000190: 699b cabd 5377 d6bc c511 b5bc a2fc 123e
000001a0: 6265 ff3d 6c89 d6bc 00b4 023e d1c2 c6bd
000001b0: 0c96 ae3d 75cc 7d3c 1cc9 d0bd 92d4 3cbb
000001c0: 3104 c73d 9e23 2dbe 7477 07be fe3a 513d
000001d0: 0126 423d 42df bb3d e0b4 8d3d 9fdd 5b3e
000001e0: 58a2 623e 44d8 163e 4699 f13d 9c54 1c3e
000001f0: 99a1 d7bd 2bb6 423e fd5a 593e e735 3f3e
00000200: a714 85bc a017 2ebd 20c3 083e 427a 1f3e
00000210: d9cc bb3d bac1 733e 38d0 bebc 017c 91be
00000220: 025f 83be 8022 d0bd 2a98 81be 31a2 68be
00000230: fc1c d3bd fb64 23be 278c 983d a3e2 8a3d
00000240: 069f be3d 0cab cdbc 80fd fa3d c2fd fcbb
00000250: bd0c 32bd cb64 58bd 7e40 08bd b23c c5bd
00000260: bee6 9dbd a2f2 b2bd 3e02 a9bd c8da 143d
00000270: dc7c 333d 3ac4 40bd e8dd 3bbd 18ed 9a3d
00000280: 5cea b73d c8c4 c33d 203b da3d e92f a63d
00000290: e0d5 db3d c108 a33d b6cc 053e 98a8 123c
000002a0: 163f 143e daa2 213e bc5a 4fbe 7421 50be
000002b0: d5d1 3fbd 4b1e a53d 6961 163d 087b 4cbe
000002c0: 6162 52bd b7fa 163e 8b9e 993d cdc3 613d
000002d0: 9480 a63d 335f 363e 7933 943d 5f4b 993c
000002e0: 9d94 a239 3b3e 06bd f94d b33c c32b 873d
000002f0: 53f9 183d 4217 1fbe 02a5 543d f7f7 47bb
00000300: 72fa 1d3e ca68 08bd f553 e9bd 88a6 333d
00000310: e2c9 ccbd 9f5c 69be 0778 11be 1954 82bd
00000320: 87be c23c 8940 a83d ae32 5e3d 193f ea3d
00000330: d0e5 89bd 6c4f 3fbd 86ab fabd ef9e 30bd
00000340: 68cf 0dbe 2388 31bd 98fd 3ebd 7f5e cb3d
00000350: 2fbb 123e 06bc a43c 88ec f13d a3b1 89bc
00000360: bbf4 393d e7be a83d 9c80 793d e87f 2abd
00000370: c9b8 d7ba 6677 38bd 8ae9 aabc 6a0b 253d
00000380: 8311 db3d d5c9 04be b7e6 f73c 1a15 703d
00000390: 26a1 38bd 22d3 43bc b178 3ebe 06ec 41be
000003a0: 8e39 e73c 67e6 0c3d 97e1 70be 37b6 5e3e
000003b0: d7a2 273e 29da 7a3b 67e5 043e 69b1 763d
000003c0: f620 393e 7234 3c3b 1ae4 f7bc 8f71 00bd
000003d0: 22dc 273e 5195 5a3e 0833 273d 4ac8 703d
000003e0: 85e5 27bd cb4f 233d d701 3bbe 6789 fabd
000003f0: e958 ef3c 94f1 923d 8ec8 edbd 5b42 4e3d
0.013234949 0.20035201 -0.05408953 0.035380352 0.102596685 -0.21254738 -0.12187155 -0.1561869
-0.09148125 -0.23215991 0.14376932 -0.0061548967 0.07372979 0.118367456 0.030151313 0.06514928
0.054312952 0.15308572 -0.12916745 0.058739655 -0.08679609 0.01969572 0.14508985 0.10234435
0.058575656 0.05194044 -0.09751217 0.049392104 -0.057050273 -0.053211667 -0.028432943 -0.033076238
-0.12687549 0.05180011 0.013574638 0.107694596 0.03884901 0.024803886 0.14937247 0.077022955
-0.0963617 0.09769189 0.11257792 0.15013039 0.096686676 -0.014488675 -0.103470504 0.07962734
-0.11919752 -0.035231337 0.060280547 0.02155705 -0.05153294 -0.063109234 0.14713149 0.07103001
-0.08258438 -0.076025434 0.08769475 -0.10961827 0.10460623 0.13604139 0.050133485 0.05505543
-0.03401208 -0.13802917 0.039247192 0.008805619 -0.05103912 0.19148646 -0.012766071 0.15922768
0.11558887 0.11353327 0.06440621 0.18760407 -0.041971017 0.08638823 0.13435137 0.06819417
0.033644084 -0.004202008 -0.06072616 -0.05592137 -0.06620082 -0.13285251 -0.17823768 -0.14466609
-0.14630963 -0.13888088 -0.025678841 -0.0028620614 0.057830308 0.14848356 0.043199826 -0.13310838
-0.0047367704 -0.0378513 -0.021309279 -0.1467829 -0.098929234 -0.026179945 -0.0221032 0.14354184
0.12470509 -0.026188575 0.12763977 -0.09705127 0.08524713 0.015490641 -0.101946086 -0.0028813225
0.09717596 -0.16908118 -0.13229162 0.05108165 0.047399525 0.091734424 0.06919265 0.2147126
0.22132242 0.14730936 0.11796813 0.15266651 -0.10528869 0.19014804 0.21226116 0.18672906
-0.0162452 -0.042503 0.13355684 0.15573981 0.09169931 0.2380437 -0.023292646 -0.2841492
-0.25658423 -0.1016283 -0.25311404 -0.22718121 -0.10308263 -0.1595649 0.07448607 0.06781509
0.09307675 -0.025105976 0.122553825 -0.00772068 -0.04346918 -0.0528305 -0.03326463 -0.09630717
-0.07710026 -0.08737685 -0.08252381 0.03634146 0.043820247 -0.047062136 -0.045865923 0.07564753
0.089802474 0.095590174 0.106558084 0.08114607 0.10734153 0.07960654 0.13066372 0.008951329
0.1447719 0.15784779 -0.20249456 -0.20325261 -0.04683097 0.080624186 0.03671399 -0.19968808
-0.051363353 0.14744078 0.07500943 0.05511837 0.08129993 0.17809753 0.0723638 0.018712698
0.00031009773 -0.03277419 0.021887766 0.06600144 0.03734715 -0.15536216 0.051915176 -0.0030512789
0.15427569 -0.03330306 -0.11392967 0.04385999 -0.099994436 -0.22789238 -0.14205943 -0.063636966
0.023772491 0.08215434 0.05424755 0.11437816 -0.067332864 -0.046706602 -0.12239747 -0.04312032
-0.1384865 -0.04334272 -0.046628565 0.09930133 0.14329217 0.020109188 0.11812693 -0.016808337
0.04539941 0.08239537 0.060913667 -0.041625887 -0.0016458269 -0.045035742 -0.020863313 0.04029409
0.106966995 -0.12967618 0.03026138 0.058613874 -0.045075558 -0.011952193 -0.18600728 -0.18937692
0.028225686 0.034399416 -0.23523556 0.21749197 0.16370712 0.0038277006 0.12978135 0.060227785
0.1807898 0.0028717783 -0.030260134 -0.031358298 0.16392568 0.21346022 0.04082015 0.05878476
-0.04099037 0.03987102 -0.1826242 -0.12233239 0.0292172 0.071749836 -0.116105184 0.05035625

layer2.bias f4 [10]
00000000: 5778 e03d 7db0 bdbd 0894 8ebd 298e e13c
00000010: de93 fdbc 74f3 2abc eb42 aaba 06dc 883d
00000020: dcc1 813d 3431 e63d
0.10960453 -0.09262178 -0.069618285 0.027533608 -0.030954298 -0.01043402 -0.0012989914 0.06682591
0.06335804 0.112398535

layer3.weight f4 [10, 10, 5]
00000000: 434a 423e ac87 923d e5b0 d03d 64c4 983d
00000010: b334 2dbe 8cd0 cdbc 9607 a6bd 793c 52bd
00000020: e67b 3dbe 99bc 2abd b8bc b53d f9a1 1e3e
00000030: 0a77 b13d e88e 46bd ad82 cf3d 9e21 133e
00000040: b866 c6bd a645 de3d 094d fc3d 687a 0cbc
00000050: 9798 35be 038f 2abe 916c 2f3b 98e4 f3bd
00000060: 170b 91be e0d1 213c 9c5e e7bc d445 44be
00000070: 671a 60be ad97 31be 31ac b33d 6f9c b2bd
00000080: 5fe1 983d 8884 a5bc 18ef 1abe d104 a5bd
00000090: 6707 56bd 6574 b3bd 456f efbd 325c 3ebd
000000a0: e1a8 b13d b59e fa3c 93df 8c3d d33c 92bc
000000b0: d194 47bc f777 1b3e ea20 093e 379a 933d
000000c0: 3d29 b33d 36f7 64bd 259a 103e fd5a 813e
000000d0: af17 af3d c5af 8f3d 2807 653e cfe3 febd
000000e0: 9c57 853d ebe9 25be 2691 403b 3a13 fcbd
000000f0: 3ed8 e5bd cd6f 4fbe 1e30 56be 37e2 54be
00000100: 4d65 58bc f9c3 bb3d 8915 973d c2ed 6bbd
00000110: f2e2 7dbd 45fc 94bd 2826 3d3e 8a17 2e3e
00000120: 89d8 493e 7c5a 783e 4c80 863e 4f0b 073e
00000130: 51c4 7f3d cc4a c9bc 2383 363d 931a a6bc
00000140: 731e 0b3d 332d b6bd ae68 823d 2743 13be
00000150: b46a f9bd 3822 053e 00f0 dd3d 2698 8ebd
00000160: 9427 2c3e 4c29 b23d 5e90 0f3e 6857 b83b
00000170: 5b0f b93d 2fbf 6cbc f844 7abc 06f6 1abe
00000180: 5b6c 6a3d ace4 ad3c 553f 10be b7dd 7b3d
00000190: 4541 a83d 4901 173e 9d40 fc3b bf40 41be
000001a0: 9f1b 53be 1b12 28bd 0bc7 8e3d e77a e3bd
000001b0: b1a1 d83d 3ca8 323e f2ea 18bd cbb9 15bd
000001c0: d97e 193e 31f4 ab3d 9dd8 863d d461 a33d
000001d0: 905e 17be 570a 943d a467 14bc 3231 693d
000001e0: 9885 9c3c 6220 35bd fd2d 0bbe 8fc8 d7bd
000001f0: c750 57be 32ab f7bb 4717 a2bd 4178 1bbd
00000200: 8c61 adbd 93a3 c23d 7ef9 2fbd b3a6 7abc
00000210: fd91 fe3d dbf4 5cbc 8d86 34bd a3ef 7b3d
00000220: f3f8 8fbd f796 653d 6a9f 553d 2405 e3bc
00000230: 77fe 093e a86f 033e 09da 91bc eaaa 7b3c
00000240: 9620 b3bd 7d3a 053e 8eab 843d 4c44 f83d
00000250: 273b e03c 4eee afbd 639e 3e3d e6c9 24be
00000260: 6dec f93b dce1 b53d a264 4e3d 83d5 07be
00000270: eaf1 33bc ed50 c0bd 3252 1c3d b602 5ebd
00000280: acdf ccbd efbe d2bd b500 09bd f533 1d3d
00000290: 9847 0cbe 90ea 9d3d 1c23 fc3b d2a4 d23b
000002a0: 28db 0d3e 5ddf 71bd 1abf 82bd e15d ecbd
000002b0: b64f 6cbd c0de c0bd 74f4 e63c 91ba 113e
000002c0: 07a9 103e a4a0 923d 52bd ac3d 7cbb 643e
000002d0: ab10 d23d 89c9 5f3d e49f 83bd 8658 e23d
000002e0: 8816 093d 5d8e 193e 88ec f43d 58b4 d4bd
000002f0: e8f7 6dbd 1454 7bbd 0705 b73d d2c7 4fbd
00000300: dd92 39bd 6e60 4ebe 4abf cabd 13b1 f93b
00000310: 0eb1 ee3d 2c3b 0b3d e063 c13d 7f88 1a3e
00000320: 96f9 f63d ae36 9dbd e586 c73d e2fc e63d
00000330: 6fcb 203e 444b 4a3c ea4d b63c 53e3 4a3e
00000340: 24c5 323e f51d 393c 4631 873d 97a5 803e
00000350: 0f63 003d 36fc 2a3e f177 db3d 4b58 c73d
00000360: 04eb 2dbd d497 58bd aa92 d43d 0603 183e
00000370: 347c f1bc 53d5 50bd c5df 503d 783a 1c3d
00000380: e44d d33c e93b 813d 0696 f6bd ee92 4abd
00000390: f24a 14be 3d74 81bd e90e 71bd b729 00bc
000003a0: a42a 49bd 5eeb 493d 5c25 9dbd 47f1 afbc
000003b0: 64bd 033e 7f05 063e fe0d 4a3e f450 223e
000003c0: bb16 c83c e83e e23d d0d6 06b9 1247 57bd
000003d0: 8fa1 233e d94d d43d 8510 503d fe79 233e
000003e0: 1433 023e 7eb2 653d 9558 0fbe 0c0c f33d
000003f0: 3a9a 08be 5f67 15be f738 c8bc 7016 473e
0.18973641 0.071547836 0.1018999 0.074593335 -0.16914634 -0.025123857 -0.08106916 -0.051327202
-0.18504295 -0.041683767 0.08873886 0.15491475 0.08665283 -0.04847613 0.10132346 0.14368293
-0.09687561 0.10853128 0.12319381 -0.008574106 -0.1773399 -0.16656117 0.0026767591 -0.11908835
-0.28328773 0.009876698 -0.028243355 -0.19167262 -0.21885072 -0.17343016 0.08773077 -0.087212436
0.07464861 -0.020204797 -0.1513027 -0.08057559 -0.052253153 -0.08762435 -0.11691145 -0.046474643
0.08674789 0.030593256 0.06878581 -0.017851269 -0.012181477 0.15182482 0.13391462 0.072071485
0.087481 -0.05589982 0.14121301 0.2526473 0.08549439 0.07015947 0.22366011 -0.12445795
0.06510851 -0.16202514 0.002938339 -0.12308355 -0.112228855 -0.20257492 -0.20916793 -0.20789419
-0.013207746 0.09168238 0.073771544 -0.05759979 -0.06198401 -0.07274679 0.18471587 0.17001167
0.19711508 0.24253267 0.26269758 0.13187908 0.06244308 -0.024571799 0.044558655 -0.020276343
0.033964586 -0.0889534 0.06367622 -0.14381085 -0.12178555 0.13001335 0.10836792 -0.06962614
0.16811973 0.08699283 0.14019915 0.005625654 0.09036132 -0.014449879 -0.0152752325 -0.15132913
0.057232242 0.021227203 -0.14086659 0.06149074 0.08215574 0.14746584 0.007698132 -0.18872355
-0.20616005 -0.04103289 0.06971558 -0.11107426 0.10577715 0.17446989 -0.037333436 -0.03655414
0.14989795 0.08396185 0.065842845 0.079776436 -0.14782166 0.07228535 -0.009057913 0.056931682
0.019106671 -0.044220336 -0.13591762 -0.105363004 -0.21026908 -0.00755825 -0.07914596 -0.03795648
-0.08465871 0.095038556 -0.042962544 -0.015298533 0.12430189 -0.0134861125 -0.04407363 0.061507832
-0.07029905 0.056052174 0.052153982 -0.027712412 0.13475977 0.12835562 -0.017804163 0.015360573
-0.0874645 0.13010593 0.06478034 0.121224016 0.027371956 -0.08590375 0.046537768 -0.16092643
0.007627061 0.0888097 0.05038894 -0.13265042 -0.01098297 -0.09390435 0.038164325 -0.054201804
-0.100035995 -0.10290324 -0.03344794 0.03837963 -0.13699186 0.07710755 0.007694615 0.0064283395
0.13853133 -0.059050906 -0.06384106 -0.115413435 -0.057693206 -0.09417486 0.028192736 0.14231326
0.14126979 0.07159546 0.084345475 0.22337145 0.102570854 0.05463556 -0.06426981 0.11052041
0.033468753 0.14995714 0.11959177 -0.1038596 -0.05809775 -0.06135948 0.08936506 -0.050727673
-0.045306075 -0.20153973 -0.09899767 0.007619986 0.11654864 0.033991978 0.09442878 0.15091132
0.120593235 -0.07676445 0.09742526 0.11278702 0.15702604 0.012347046 0.02225395 0.1981328
0.17458016 0.011298646 0.06601195 0.25126335 0.03134447 0.16697773 0.107162364 0.097336374
-0.042460456 -0.05287917 0.103795364 0.14844903 -0.02947817 -0.05098469 0.050994653 0.038141698
0.025793977 0.06310255 -0.120403334 -0.04945653 -0.14481714 -0.06320999 -0.05885211 -0.007822446
-0.04911293 0.04929673 -0.07673141 -0.021477355 0.12865216 0.13088034 0.197319 0.15851194
0.024424901 0.11047155 -0.0001285926 -0.052558012 0.15979598 0.10366411 0.050797004 0.15964505
0.12714797 0.056078427 -0.13998635 0.11867532 -0.13340083 -0.14590214 -0.024441225 0.19442153

layer3.bias f4 [10]
00000000: dc89 bfbd 9d76 263e 9587 c7bd a6ed 363e
00000010: 63ed f9bd 4cdb 84bd f6ab 5b3b 4afe 84bc
00000020: 7b29 743c f8cd a63c
-0.093524665 0.16256185 -0.09742657 0.17864093 -0.12203481 -0.0648714 0.0033519245 -0.016234536
0.014902468 0.020361885

layer4.weight f4 [10, 10, 5]
00000000: 4ea0 6dbe 8e1c 46be f038 11be 2839 25be
00000010: 6979 50be 0b41 653d 98c2 13bd 87f2 b83d
00000020: ae29 b1bd 7872 f03d ced2 2d3e 44b4 753d
00000030: b85f 463e 7eef 363d 8ae7 0fbd 94c9 393b
00000040: a143 ea3d c5b2 2abd b8ac 0a3e 5857 ddbc
00000050: ea5b 7abd 29c8 66bd acf3 253d 2981 f6bd
00000060: 1889 0d3b f878 e8bb c379 273e df00 2f3d
00000070: 082b 0d3e 2084 133e 8e36 003e 1a3c ac3d
00000080: 395a 793e 5ad1 c53d ca16 313e ae3e 383b
00000090: 2504 adbd 72b9 853d 02c3 33be d25b a43d
000000a0: d3a9 8d3d cec1 363e 3935 053e 1964 a13d
000000b0: 7cc2 3c3e cfb0 86bd ed5b c8bd 4348 c1bd
000000c0: 782b c53d 27cf 163e ef73 c03e 572b c03e
000000d0: 7fef 5a3e 0eb4 af3e 8a16 533e 3050 86bd
000000e0: 0c1d d43d 567a 4ebd 133c 3c3e 8706 403e
000000f0: 454b 79bb 46aa d93d 3619 ba3d fdbd ca3d
00000100: 1024 b83d d298 c6bd 05ff 34bd 5cf6 9b3d
00000110: 5cb9 b6bd 3263 093e ce78 e13d a3f9 363d
00000120: 688a 443e 2a41 203d 7d34 ab3d 8673 1dbd
00000130: 96fd c9bd 3ae3 a3bd 4bc8 213d 17f2 97bc
00000140: 4f3a 46be df65 c9bd ec02 92bd 3d6f 24be
00000150: 4283 1ebe 1e83 1abd 5d12 293c 4f07 603d
00000160: d453 313e 846d 13bd c2b4 383d 7261 a4bd
00000170: 12f9 053e b710 8dbb 57de 64bc 888e 87bd
00000180: d76d 59bd 726e a73c d314 5c3e 5ce6 e83d
00000190: cad5 bb3e 9ab7 9f3e fb00 753e 896a 893e
000001a0: 97c7 8c3e 4ac8 3abe 46cf c7bd f00b 22be
000001b0: ffa7 b93c 2089 843d 002b 5d3d d1b5 af3d
000001c0: 0a31 443e 5e02 3c3e 6212 df3c bfd4 973d
000001d0: fc1d 56bd 344c 13be 56c6 07be ccc6 dcbd
000001e0: f1c9 263d 8d0c c13d 17c0 403e 3c2f 7d3d
000001f0: 30c7 b13b c96e 5c3c a211 2a3e d28b a63d
00000200: 433f 083d b016 893d 5e83 3d3d 94d1 ccbd
00000210: a173 eabd c88c a33d 0449 f53c 0444 0b3e
00000220: af27 1d3e 4b8b 093e 740c fb3d 0020 0c3e
00000230: e509 273d 9b3c ecbd 22e6 06be 48e0 573c
00000240: f66c 033e 0a4a ef3c 3301 493e 48a8 8d3d
00000250: 26a2 a1bd 9771 3f3e 75bb e5bd 7e40 89be
00000260: a34c e3bd 02ff 3bbd d066 bcbd e6a8 8fbd
00000270: 43c9 603d 14ec d7bc 0817 d1bc 4d6f 93bd
00000280: 95ad 093d 8b04 26bd 5684 97bd 31f9 08bd
00000290: 5f9d 9bbc 9296 033e d71d b43d 626a 6a3e
000002a0: a86a 003e 7685 473e b2ec eabd 1771 e2bd
000002b0: 4b74 f93d f0df 3cbd 5faf 8ebd 02b5 703d
000002c0: 8e40 89bc 10f3 b0bc 08ad 9b3d 5a27 3b3e
000002d0: 6f5a 893e 0b2f 9e3d fba1 623e 1812 223e
000002e0: 39e5 793e 5b17 6e3c c9b4 5d3c cfcf 50be
000002f0: 6da8 3abe ae18 35bd a91e 5f3c 421b 8d3d
00000300: 553d 583e 7ec9 443e e64d b93d 8f98 053c
00000310: 83aa 90bd c6d3 d93d a9d4 c5bd 5cc7 8b3d
00000320: cd53 653d e887 6739 35e1 3ebe b495 40be
00000330: 0bd3 73be 48f1 1b3e 2f5a 1b3e c346 6d3e
00000340: c980 ac3d a818 143e c107 3bbe f7db a7be
00000350: a6b0 99be 98b5 b8be f4e3 18be 97cd e43d
00000360: 9ac8 9c3d 9e73 4fbc 7f60 9dbd 18d7 283d
00000370: f2da 11be fc96 033d 9f26 e0bd 2d8a 383b
00000380: 2114 1fbe fb56 a7bc c785 3b3d 47ba b7bd
00000390: 8233 0dbe 5df2 40bc 7cd9 f2bd c5bc d43d
000003a0: 97c0 92bc 6b5a 0e3d 4d5b 45bd dd47 20bd
000003b0: 06d0 a93d f2a5 7abb 1324 0dbe 5ded 0dbe
000003c0: 0d72 8dbd e8e6 5d3d 61a6 17be a712 05be
000003d0: c280 f7bd ed9b 253e dd06 603e effb d13d
000003e0: 0c09 babc 198a 713d 77f8 c03c 7f70 66bd
000003f0: db18 d1ba cbf8 a0bd bb48 d3bc f976 933d
-0.23205683 -0.1934683 -0.14181876 -0.16135085 -0.20358814 0.055970233 -0.03607425 0.090306334
-0.08650528 0.11740583 0.16974947 0.059986368 0.19372451 0.04466199 -0.035132922 0.002834891
0.114386804 -0.041674394 0.1354245 -0.027019188 -0.061122812 -0.05634323 0.040515587 -0.12036354
0.0021596607 -0.0070944987 0.16355042 0.04272544 0.13785946 0.1440587 0.12520811 0.08409901
0.24350823 0.09659071 0.1729385 0.0028113532 -0.08448056 0.065295115 -0.17554858 0.08025326
0.06917157 0.17847368 0.13008584 0.0788042 0.18433565 -0.06576692 -0.097831585 -0.09437611
0.09627432 0.1472746 0.3758845 0.37533066 0.21380423 0.34317058 0.20614067 -0.06558263
0.10357103 -0.050409637 0.18382291 0.1875249 -0.003803925 0.1062818 0.0908684 0.09899519
0.089912534 -0.09697117 -0.044188518 0.07615349 -0.08922073 0.13416746 0.1100937 0.044671666
0.19193423 0.039124645 0.08359621 -0.03844025 -0.09862821 -0.080023244 0.039497655 -0.018548055
-0.1935818 -0.098338835 -0.071294636 -0.16058059 -0.15479758 -0.0377227 0.01031932 0.05469447
0.17317134 -0.035993114 0.04509426 -0.08026399 0.13083294 -0.004304971 -0.013969026 -0.066189826
-0.053083267 0.020438407 0.21492319 0.113720626 0.36686546 0.31194764 0.23926155 0.26839092
0.27496025 -0.18240467 -0.09756331 -0.15824866 0.022663115 0.06471467 0.053996086 0.085796006
0.19159332 0.18360278 0.027230445 0.07413625 -0.05227469 -0.14384538 -0.13259253 -0.10780105
0.04071993 0.09426222 0.18823276 0.061812624 0.0054253563 0.013454148 0.16608289 0.08132137
0.033263456 0.066937804 0.04626786 -0.10000911 -0.11447836 0.07985836 0.029942043 0.13600165
0.1534717 0.13432042 0.122582346 0.13684082 0.04078092 -0.11534997 -0.13173726 0.013176031
0.12834534 0.02921011 0.19629364 0.06916863 -0.078922555 0.18695675 -0.11217395 -0.26807016
-0.11098602 -0.04589749 -0.091992974 -0.07014637 0.054879438 -0.026357688 -0.025523677 -0.07198963
0.033612806 -0.040531676 -0.07398288 -0.033440772 -0.018995939 0.12850407 0.08794754 0.22892144
0.12540686 0.19484505 -0.11470927 -0.110567264 0.12180384 -0.046112 -0.06967043 0.058766373
-0.016754415 -0.021600276 0.076013625 0.1827673 0.26826808 0.077238165 0.22132103 0.15827215
0.24403848 0.014531936 0.013531872 -0.20391773 -0.18228312 -0.04421299 0.01361815 0.06889965
0.21117146 0.19217488 0.09048061 0.008154049 -0.070637725 0.10636096 -0.09659702 0.06825134
0.05598812 0.00022080506 -0.18640597 -0.18807107 -0.23810975 0.1522876 0.15171121 0.23171525
0.08423001 0.1446253 -0.18264677 -0.32785007 -0.30017585 -0.36076045 -0.14930707 0.11172026
0.07655449 -0.012661843 -0.07684421 0.041220754 -0.14243677 0.03212641 -0.109448664 0.002815853
-0.15535022 -0.020427218 0.045781877 -0.089710765 -0.1378918 -0.011776534 -0.11857888 0.103875674
-0.0179141 0.034754198 -0.048182774 -0.039131034 0.082916304 -0.0038245884 -0.13783292 -0.13860078
-0.06906519 0.054175287 -0.14809562 -0.12995397 -0.120851055 0.16172762 0.21877618 0.10253131
-0.022709392 0.05896959 0.023555977 -0.05625963 -0.0015952842 -0.078599535 -0.025791517 0.072004266

layer4.bias f4 [10]
00000000: 84ed 50bd de69 9c3c 96f1 82bc 327f 143e
00000010: 21b6 f33d 6605 593e e3fd 5c3d 5798 bcbd
00000020: 16a1 6bbd 43a2 c2ba
-0.051007763 0.01909345 -0.015984338 0.14501646 0.11899973 0.21193466 0.053953063 -0.09208744
-0.05752667 -0.0014849383

mlp.weight f4 [6, 1040]
00000000: a2b3 f33c 82f2 a03c a23b 173d 5d86 553d
00000010: dd2d 473d 41bd 4d3d f031 ea3c 3ead 8d3d
00000020: 35ba 773d 2091 5c3d e714 b83c c0e2 773d
00000030: cd25 223d 737f b83d 90bc b43d cf9c 963d
00000040: 8e76 1c3d 66b0 a03d 446e 7a3d 3de3 8e3d
00000050: c263 a83d e110 013d 7bdd b83d 9b83 513d
00000060: a460 d93d 213c ce3d e686 533d 4010 ab3d
00000070: 6bb4 803d a249 223d 27e5 873d 1135 673d
00000080: e509 133d 4c6b 4e3d 96e6 093d 8306 ab3d
00000090: 5640 a13d e452 933d 564d 623d ab2e 213d
000000a0: 5d64 ac3d ba8b a23d 8600 2b3d 8efc ae3d
000000b0: 1ef6 b53d 9913 833d 399a 943d 2ddf c23d
000000c0: 48a3 c93d fa2d c33d 8037 d43d 850d 913d
000000d0: 3b3b bb3d ea2a b93d 74b6 823d a21f a83d
000000e0: 1f93 b83d a4ed 983d aea5 8c3d af90 493d
000000f0: 721e 5a3d 40e5 353d 60eb 923d 21aa b03d
00000100: 67c5 683d 032f 7c3d fd1e a63c 72fe 563d
00000110: 34ec e33c 0474 963d 3560 973d d380 ce3d
00000120: c601 c33d ba86 a13d cab2 673d 85e2 b93d
00000130: ff39 8e3d b5a3 5e3d 6cc3 383d 24de 1d3d
00000140: b61e be3d a370 1c3d c26d bf3d a343 ce3d
00000150: 6870 723d ec4c b83d 30c7 9b3d e161 a53d
00000160: 8acf 773d 677e df3d 123e b03d e2a5 5d3d
00000170: 43f3 cd3d fae6 993d 8760 893d ec84 783d
00000180: cd21 a53d fcd0 b93d c2de 953d 6739 bf3d
00000190: 8926 673d 95c4 923d 8f89 9d3d cb91 d23d
000001a0: bcb6 18be 1fda a1bd 2c3f 92bd d72e 4dbd
000001b0: 00dc 5ebd 639b 88bd 85f2 cfbd a99b 9dbd
000001c0: f6bf bdbd 73ad 87bd 8d69 f9bd be09 01be
000001d0: fefd efbd 9a24 0ebe 90a2 edbd 703b dbbd
000001e0: 7654 aebd 3d4a c5bc d08b dbbc 1614 aebc
000001f0: 0f6c 77bc d81d 37bd 8bda 9cbd ba6a 74bd
00000200: 5053 52bd 5d3c debd 8f0f eabd ec2d ebbd
00000210: 3061 babd 7256 9fbd 2c8c 5abd 6eaa afbd
00000220: 8965 94bd 0f2d b8bd ebeb 9cbd 1f93 b2bd
00000230: e7c4 03be b765 edbd ee53 4dbd f9a6 8fbd
00000240: fb92 84bd 16a9 86bd 0ca2 61bd 1829 7dbd
00000250: 05bb 77bd 74ee debd 8a5f 8dbd 7138 d6bd
00000260: 6916 c2bd 4c96 c4bd ed20 ccbd 8a43 b9bd
00000270: 7afa efbd e049 a2bd 188e 0abe 83e1 8fbd
00000280: 114a acbd c236 82bd d850 b3bd 4335 e6bd
00000290: cbb9 c1bd 621e c2bd 6ffc 7fbd 316a dbbd
000002a0: f007 f0bd 4c85 ddbd 6950 78bd aa8f d4bd
000002b0: 0feb b9bd 9d3f a4bd 8f49 ebbd 5cb7 06be
000002c0: 2026 d1bd 9d7f afbd 6f4b d7bd b6b0 03be
000002d0: 4b64 b1bd d40f cbbd bc12 96bd 1b01 5fbd
000002e0: 7a9f 8abd d56e 1cbd 017d eeba 540e 28bd
000002f0: 6d49 c2bc 74fe 7abd db27 88bd bdd6 72bd
00000300: 52f6 a9bd 0734 66bd b64a a6bd 9882 3abd
00000310: dfa3 66bd 6b02 54bd c99d 7abd bddc 7dbd
00000320: e445 0cbd 6ad6 59bd ae3e 3dbd ffe9 d8bd
00000330: ae94 54bd 0b32 94bd d774 c7bd 8ce0 cebd
00000340: 00ac a43c 70bf 5abb 1aa8 3a3d c6a4 253d
00000350: 264b f23c b743 47bb c4da 77bb 923e d33c
00000360: 40d6 43bc 22ac 3a3c 2928 d43b 9cf1 01bd
00000370: ecf5 383c b49b ae3b f6cb fcbc 72cf dfbc
00000380: 99a5 90bc 389a 14bc 549a be3c e40b c2bc
00000390: d100 4bbc 6552 1d3d 4818 0d3d 7c7e c4bc
000003a0: c44b c0bb 11e3 aabc 98d4 15bc 9562 52bc
000003b0: 7915 53ba ecae 2dbc ea7f 7c3c 2892 cb3c
000003c0: df65 343c 6f54 2f3d 1eaa 1b3c 0fb8 173d
000003d0: 9792 0c3d e6ff 273d 8e74 8b3c 6c33 6fbb
000003e0: 63f0 b7bb 2d70 3cbc 716c f83c bb01 2abc
000003f0: 6fa6 0c3c f37a c83b 9ecb fb3c 7135 24bc
0.029748742 0.019646887 0.036922105 0.052130092 0.048627723 0.050229315 0.028588265 0.06917809
0.060480315 0.05384934 0.022470905 0.06051898 0.03958683 0.09008684 0.08825028 0.073541276
0.038199 0.07846145 0.061140314 0.06976936 0.08222152 0.031510238 0.09026619 0.0511509
0.10614136 0.100700624 0.05164232 0.08352709 0.06284412 0.039621003 0.06635504 0.056447092
0.035898108 0.050395295 0.03366717 0.083508514 0.07873599 0.071935445 0.055249535 0.039351147
0.0841758 0.07936807 0.041748546 0.08544265 0.08884834 0.06400222 0.07255978 0.09515224
0.098455966 0.09530254 0.10362148 0.07082657 0.09142157 0.09041388 0.063824564 0.082091585
0.09012436 0.07467201 0.068675384 0.049210247 0.05325169 0.044408083 0.071738005 0.086261995
0.056828883 0.06156827 0.020278448 0.05248875 0.027822591 0.07346347 0.07391397 0.10083165
0.09521823 0.07887025 0.05656699 0.09076408 0.069446556 0.054355342 0.045108244 0.038541928
0.092832014 0.038193356 0.093471065 0.100714944 0.05918923 0.08999047 0.076063514 0.080753095
0.06050066 0.10912781 0.08605589 0.054113276 0.10056164 0.075147584 0.06707864 0.06067364
0.080630876 0.09073064 0.07317878 0.093371205 0.056433234 0.07166401 0.07692253 0.10281714
-0.14913458 -0.079029314 -0.07140955 -0.050093498 -0.054409027 -0.06670263 -0.10153679 -0.076957054
-0.09265129 -0.0662488 -0.12178335 -0.12601373 -0.11718367 -0.1388115 -0.11603272 -0.10704696
-0.085122034 -0.024083251 -0.026800066 -0.021249812 -0.015101447 -0.044706196 -0.07658871 -0.059672095
-0.051348984 -0.10851357 -0.11428749 -0.11483368 -0.09100568 -0.0778016 -0.053356335 -0.08577429
-0.07245929 -0.08992969 -0.07662185 -0.08719467 -0.12868081 -0.11591666 -0.05012887 -0.070142694
-0.06473347 -0.06575219 -0.05508618 -0.06180677 -0.06048109 -0.10885325 -0.06902988 -0.10459984
-0.09476931 -0.09598979 -0.099672176 -0.09046085 -0.117176965 -0.07924247 -0.13530767 -0.07025435
-0.084125645 -0.063581005 -0.08755654 -0.112406276 -0.09459265 -0.09478451 -0.0624966 -0.10713614
-0.11720264 -0.1081644 -0.06062356 -0.10378964 -0.09078037 -0.08019946 -0.114886396 -0.13155884
-0.1021235 -0.08569262 -0.10512435 -0.12860379 -0.086617075 -0.09915128 -0.07327792 -0.054444414
-0.06768699 -0.038191635 -0.0018195213 -0.04102929 -0.023716653 -0.06127782 -0.06648227 -0.05928682
-0.08298935 -0.05620196 -0.08119719 -0.0455347 -0.056308623 -0.05176012 -0.061185632 -0.06197809
-0.03424634 -0.053182997 -0.046202354 -0.10591506 -0.051899604 -0.072361074 -0.09739082 -0.10101423
0.020101547 -0.0033378266 0.04557047 0.040440343 0.02957685 -0.0030405351 -0.0037819603 0.025786672
-0.011952937 0.011393579 0.006474514 -0.031724557 0.011289101 0.00532862 -0.030858975 -0.027320597
-0.017657088 -0.009069972 0.023266949 -0.02368731 -0.012390331 0.038408656 0.034446985 -0.023986094
-0.005868407 -0.020860227 -0.009144925 -0.012840887 -0.0008052211 -0.010600787 0.015411356 0.024849966
0.011010616 0.04280513 0.009501008 0.037040766 0.034319486 0.04101553 0.017023351 -0.0036499156
-0.005613373 -0.011501354 0.030325146 -0.010376389 0.008584603 0.0061181723 0.03073674 -0.010022507

mlp.bias f4 [6]
00000000: b35e 9cbd 4967 b8bc 5058 74bd 623b d53c
00000010: c2b0 a53c 6e86 acbb
-0.0763525 -0.022510188 -0.059654534 0.026029292 0.020225886 -0.0052650487
