models/ResModel/UCIHAR_1D_Residual_Model.pt (torch, 46909 bytes, 26 tensors)

layer1.weight f4 [10, 9, 5]
000000 80 e9 fe bd 10 0b 16 be 1b b7 1c bc 73 1c b0 bc
       -0.1244688 -0.14652658 -0.00956514 -0.02149794
000010 29 8d a1 bb dc 12 ea bd 78 1c a4 3d 1d 32 0e bd
       -0.0049301577 -0.114293784 0.080132425 -0.03471576
000020 35 41 2b 3d 3c 5d 2a 3d 6a 97 0b 3d c5 a5 87 3d
       0.041810233 0.04159282 0.034079947 0.06623415
000030 17 a5 29 3d 40 b5 62 3d c7 77 90 bd 60 f2 99 bc
       0.041417208 0.055348635 -0.07054096 -0.018792331
000040 be 64 f5 bb 3a f2 54 bd fe aa 8d 3d f4 ab 16 3e
       -0.007488816 -0.051988818 0.0691738 0.14714032
000050 b9 6e d1 bb a0 83 e6 bd 83 6b 9b bd 4d 6b 29 3a
       -0.006391373 -0.11255574 -0.075888656 0.00064628274
000060 92 ab 57 3e f5 45 01 3d 49 d3 e5 3d 24 b9 a5 3d
       0.21061543 0.031560857 0.1122194 0.080919534
000070 ea 11 51 3d c2 81 db bd 94 b6 ea bd 92 2e 27 be
       0.051042475 -0.10718109 -0.11460605 -0.16326359
000080 56 6f f9 bd 3c d3 db bd bd be ac 3d 37 98 0f be
       -0.12179439 -0.10733649 0.08434818 -0.14022909
000090 1f 56 c4 3d 10 67 00 bb 0a 48 b4 3d 56 77 bf bd
       0.09586739 -0.001959268 0.08802803 -0.093489334
0000a0 f1 cb 0b 3c 90 9a 35 3c f3 9a e0 3d 3d 5b 51 3c
       0.00853251 0.011084214 0.10967054 0.012778101
0000b0 75 8e 95 bd e5 ee 27 3e 7b 04 9d 3d de 87 a6 3d
       -0.07302562 0.16399725 0.0766687 0.08131383
0000c0 36 88 06 bd 8a 91 80 3b 0b fb 57 bd 9a 14 e5 bc
       -0.032844745 0.0039235996 -0.052729648 -0.027963925
0000d0 d5 3f f6 ba 27 3d 5c bd 19 e0 1a 3d 75 7b 55 bd
       -0.0018787334 -0.053769257 0.037811372 -0.05211969
0000e0 7b 9d 22 3e ef 2c cf 3c 36 f4 57 bd 4f 40 00 3e
       0.15880387 0.02528998 -0.052723132 0.12524532
0000f0 45 d3 a2 bb 00 04 ad 3d 55 c5 9f 3d e8 a8 b4 bd
       -0.004969033 0.084480286 0.0780131 -0.08821279
000100 ea 98 19 3e dd 34 d0 3c 20 32 1e 3e be a1 f4 bd
       0.14999738 0.025415832 0.15448809 -0.119449124
000110 20 33 7e bd 5f ea 0a 3e c4 8d 39 3d e7 b8 97 3d
       -0.062060475 0.13565968 0.045301214 0.07408314
000120 5f 48 a6 bd 23 2e 34 3a 70 fa 76 bc 11 5c d1 bc
       -0.081192724 0.000687333 -0.015074357 -0.025556596
000130 a8 80 cb 3d 64 79 e6 3d 4d eb bf 3d 35 09 fb bd
       0.099366486 0.11253622 0.09371052 -0.122576155
000140 04 86 3d be bd a1 5a bd 7f 07 3c be 96 39 89 bd
       -0.18508154 -0.053376902 -0.18362235 -0.06700437
000150 10 2d 46 3d 54 25 94 bb f8 9e ed 3d 1a 89 9d bb
       0.04838282 -0.0045210514 0.116025865 -0.0048076035
000160 85 29 39 bd 0e de 15 3d 18 ba 12 be 79 e9 b7 3d
       -0.04520561 0.03658872 -0.14328802 0.08980078
000170 8f 50 12 bd 8d 59 a0 3d 01 29 c5 bc b6 2b d2 3d
       -0.035721358 0.078295805 -0.024067404 0.102622434
000180 d9 38 05 3e d2 28 aa 3c 1b c8 07 3c bc bf 20 3c
       0.13009967 0.020771418 0.008287455 0.009811338
000190 d8 ca 4a 3d 0f 50 16 3e 46 db 5e bb 1b c9 31 3e
       0.049509853 0.14678977 -0.003400521 0.17361872
0001a0 57 09 e0 3d dc 81 0b bc 55 24 17 3d 5e 26 12 3d
       0.109392814 -0.008514848 0.036899883 0.03568112
0001b0 aa c1 b6 bd 88 2d 99 3b ab 25 47 3d 76 ce 5e 3d
       -0.08923657 0.004674617 0.048619907 0.054396115
0001c0 4b 7a 13 3d a9 8d 78 3d 9b 36 5d 3c ca 98 86 3d
       0.0360053 0.060681973 0.0135017885 0.06572111
0001d0 70 e3 b7 3d b1 11 86 3d 4c b1 08 3e eb 88 37 3d
       0.08978927 0.06546343 0.13348883 0.04480831
0001e0 00 9f 04 be 9a 02 0e be 32 ad ac 3d df e4 25 3e
       -0.12951279 -0.1386818 0.08431472 0.16200589
0001f0 32 7f 20 3e 32 9c 4d bd 79 71 b1 bd 88 45 03 3d
       0.15673521 -0.050197788 -0.08664221 0.032048732
000200 fa 0c 11 3e f7 0f c4 bd b3 39 4a 3b e0 04 1a 3e
       0.14165106 -0.095733576 0.0030857145 0.15040922
000210 42 29 85 bd 10 e3 fb 3d 48 cf d2 3d 52 56 f1 bd
       -0.0650201 0.12299168 0.10293442 -0.117840424
000220 6e 90 70 bd 70 c2 ae 3c 89 67 d2 bd 77 f0 e6 bd
       -0.05873149 0.02133295 -0.10273654 -0.11276334
000230 a4 60 d0 bc 71 10 b2 bc e3 da 9a 3d cb bb 23 be
       -0.025436707 -0.021736355 0.075612806 -0.15989606
000240 f8 0d b7 3c 54 8a 47 bd 3b 46 0b bd 00 55 7f bd
       0.022345528 -0.048715904 -0.034002524 -0.06233692
000250 71 8a 92 bd 23 58 48 be a7 9d ff bd f8 17 3e bd
       -0.07155312 -0.19564871 -0.12481242 -0.046409577
000260 36 d1 7d 3d 63 1e 84 bd 4d 61 c7 bd ba 97 4d bd
       0.061967097 -0.06451108 -0.097353555 -0.050193526
000270 05 2d c0 bc 91 69 9e bd ac 05 d2 bb c0 1c df bc
       -0.023458967 -0.07734979 -0.0064093675 -0.027235389
000280 e3 7e af 3d 70 a0 6b 3d 27 5c c0 3d a1 c8 e9 bc
       0.085691236 0.057526052 0.09392577 -0.02853805
000290 1d f6 8a bd 1d 60 de bc 29 94 fe 3b c2 b9 70 bd
       -0.06785224 -0.02714544 0.007769127 -0.058770902
0002a0 3e 55 6b 3d b6 e2 bb 3d a6 fd 06 3d ff 9b 66 bd
       0.05745434 0.09174101 0.03295674 -0.056301113
0002b0 bb fb 4e bc 72 b1 37 be 80 62 c5 bb 86 57 06 3e
       -0.012633259 -0.17938784 -0.006023705 0.13119325
0002c0 67 a6 aa bc 4f d2 7d bd 28 ff 81 3c 8b 2d ac 3d
       -0.0208313 -0.061968144 0.015868738 0.08407124
0002d0 dd f5 b4 bc c6 e7 02 be ac 61 5c 3d 76 f9 31 be
       -0.022089893 -0.12783727 0.053804085 -0.17380318
0002e0 56 70 c1 bd c6 39 c2 3c 2f 92 df bd be d4 d5 3d
       -0.094452545 0.02370919 -0.10916554 0.10440968
0002f0 90 bf 7e 3d 34 bc 4a be 0d ff 1f 3d 0b 0d c6 bd
       0.062194407 -0.19798356 0.039061595 -0.096704565
000300 b3 55 6c bd 77 c4 f1 bc c1 4c ed bc aa 73 5d 3d
       -0.057698917 -0.029512627 -0.028967263 0.054065384
000310 cb 4a 08 be 01 25 02 be bc c7 e2 3d a7 f2 8a 3d
       -0.13309781 -0.12709428 0.110732526 0.067845635
000320 fd 26 31 3c 97 30 ae 3d 2a 3e bb 3c b4 5e df bd
       0.010812518 0.085053615 0.02285679 -0.10906735
000330 3a 89 e6 bc 82 e3 15 3e 14 4b 09 3e 67 31 4e bc
       -0.028141607 0.14637569 0.13407546 -0.012585021
000340 f4 b2 43 be c5 cc 1e be 5b 35 a0 3d 9f 72 81 bd
       -0.19111234 -0.15507801 0.07822677 -0.0632069
000350 12 71 5d 3d 30 3d 84 3d 70 5b 46 3d 9a ae 06 3e
       0.05406291 0.06456983 0.048427045 0.13152543
000360 3b 37 dd 3d 8f ff 3d 3b df a5 e3 bd 5a be 6e bc
       0.1080155 0.0028991436 -0.11115622 -0.014571751
000370 04 c4 27 3e a9 0c 1f 3d 3c b9 d3 bd b6 e9 f1 3c
       0.16383368 0.038830433 -0.10338065 0.029530387
000380 04 8c 81 bb e6 fb b1 3d 46 94 1e 3e f8 5f 5f 3e
       -0.0039534587 0.08690624 0.1548625 0.21813953
000390 be 80 70 bd ef 43 17 3d c2 26 98 3c 29 2d 8d bd
       -0.058716528 0.03693002 0.018573169 -0.06893379
0003a0 64 84 96 bd 6e 16 0b 3e 8c 9c 8b 3d ef 29 7d bd
       -0.0734947 0.13582775 0.06816968 -0.06180757
0003b0 29 12 88 bd 54 bc d8 3d 8b 77 20 3e a3 5d 69 3d
       -0.06644089 0.10582796 0.15670602 0.056974065
0003c0 cf f3 1b bd 19 d1 f8 3d 02 29 9f bd 85 9e 03 3e
       -0.03807431 0.12149257 -0.077714935 0.12853439
0003d0 85 32 bc bd ad 08 39 3c 56 4b 4d bd f5 90 b2 3d
       -0.09189323 0.011293572 -0.050120674 0.087190546
0003e0 fa 40 91 bd 46 7b 80 bd 60 54 fd 3c e4 d6 92 bd
       -0.070924714 -0.062735125 0.030924022 -0.071698934
0003f0 7d 42 79 3d 7b bf 0c be ee 0f c3 3d ff 4e 17 3e
       0.060854424 -0.13744919 0.09524523 0.14776228

layer1.bias f4 [10]
000000 01 9c cc bc b8 cb fe 3d af b7 4a bd 89 05 6f bb
       -0.024976732 0.124412 -0.04949158 -0.0036471805
000010 6f 18 ab 3d 1d cb 12 3e 1b 31 ae 3d c7 ba 34 3d
       0.0835427 0.14335294 0.0850546 0.044123437
000020 50 94 2d bd 54 4c 2e be
       -0.04237777 -0.17021304

batch_norm_layer1.weight f4 [10]
000000 77 a5 7d 3f 3a a1 7d 3f 51 98 7e 3f 23 66 72 3f
       0.99080604 0.9907414 0.99451166 0.946871
000010 35 73 84 3f db 61 83 3f 49 6c 82 3f 3e a4 84 3f
       1.0347658 1.0264238 1.0189296 1.0362623
000020 70 fb 75 3f 1d 48 7c 3f
       0.9608679 0.98547536

batch_norm_layer1.bias f4 [10]
000000 01 59 28 3c bb b7 de 3c a7 e8 25 bd d4 0a a9 3c
       0.010275126 0.027187219 -0.040505078 0.020635046
000010 38 b6 83 bb af 39 ff 3c 2f c1 be 3d 75 d9 92 bd
       -0.004019525 0.031155435 0.093141906 -0.07170383
000020 b0 3a 58 3c e4 1b a3 bc
       0.013197586 -0.01991076

batch_norm_layer1.running_mean f4 [10]
000000 04 21 b9 be c2 cd 7a 3e bd 7b ad 3d a9 b7 7d 3d
       -0.36158 0.24492553 0.08470867 0.06194273
000010 bd b2 7a 3e bf 87 d2 3e fc b9 8e 3e bc d6 a6 bd
       0.24482246 0.4111919 0.2787627 -0.08146426
000020 7e 28 51 bd 4f 6e bb be
       -0.051064007 -0.36607596

batch_norm_layer1.running_var f4 [10]
000000 30 9f 66 3d 0e 96 6d 3d 3b 80 04 3d e1 d5 c1 3c
       0.056304157 0.05800443 0.032348853 0.023661556
000010 f0 33 5e 3c f7 fe 96 3d b9 a6 00 3d 2e 80 b8 3c
       0.013562188 0.073728494 0.031409 0.022522058
000020 4b 3c 46 3d b2 e2 2d 3d
       0.048397344 0.04245252

residual_block.layer1.weight f4 [10, 10, 5]
000000 e5 dc 92 3d 9c b9 10 3e c9 0f e7 bc 80 b9 a9 bd
       0.071710385 0.14133304 -0.02820577 -0.082873344
000010 f6 56 a3 bc 03 76 1e 3d 2e d3 81 bd ce 66 0d be
       -0.019938927 0.038686763 -0.063391075 -0.13808748
000020 5a 70 f9 bd 06 fb 8c 3d 08 8f 54 bd 8c 89 fc bc
       -0.121796325 0.068838164 -0.051894218 -0.030827306
000030 db 16 91 3d 78 f3 e9 3d d9 be 03 be b5 2d 99 3d
       0.070844375 0.11423391 -0.12865771 0.07479421
000040 db 18 ac 3d 01 c3 0e be ae c4 2d bc f3 43 e5 3d
       0.08403178 -0.13941576 -0.010605974 0.11194601
000050 7a 6c 07 3d 17 02 d6 bd c3 5e b8 bd ce 06 6a 3d
       0.033062436 -0.10449617 -0.09002449 0.057135396
000060 0a 47 46 bd f4 25 88 3d ac d4 19 be c3 c5 8b 3c
       -0.048407592 0.06647864 -0.15022534 0.017062074
000070 53 3d 76 bc 1d 63 6f 3b b5 4a 1d be cd f3 34 be
       -0.015029269 0.0036527582 -0.1536053 -0.17671128
000080 e2 f1 20 be 89 c1 00 be 23 c8 06 be 02 93 28 3d
       -0.15717271 -0.12573828 -0.13162284 0.041155823
000090 31 80 09 3e e9 67 92 bd 99 6b 4f bd 68 66 2f 3d
       0.13427807 -0.071487255 -0.050639722 0.04282227
0000a0 e7 08 94 3b 0f 9f 15 bd c5 bf 77 3d 90 5d 4d 3d
       0.004517663 -0.036528643 0.06048562 0.050138056
0000b0 46 3b 02 3d c5 97 bc bc d8 97 cd bd fa d1 de bd
       0.03179481 -0.023021588 -0.100387275 -0.108798936
0000c0 1e f9 ad 3d 79 39 cb 3a ac 34 c6 3d 2e b2 58 3d
       0.08494781 0.0015504799 0.09678015 0.0529043
0000d0 a9 aa c7 bd 47 32 be bd 4c 2f d8 bd 8a 57 ab bd
       -0.09749348 -0.092869334 -0.10555896 -0.08366306
0000e0 dd c7 17 3c 5f 9d c2 bd 4f d8 02 be 9e 9c 83 3b
       0.00926396 -0.095026724 -0.12777828 0.004016473
0000f0 49 ca 20 3e 46 68 9b 3d ca e5 7d 3d d0 f7 41 bd
       0.15702166 0.07588248 0.061986722 -0.047355473
000100 93 da 02 bd 94 08 a4 3d 97 3f e9 bd aa e2 41 3d
       -0.03194673 0.08009449 -0.11389082 0.047335304
000110 dc db 9b ba 6f 68 ee bb 0a c2 65 3c ac 2e ac 3d
       -0.0011891085 -0.007275633 0.014023313 0.084073395
000120 7d f9 e1 3d a7 91 ab 3d ba 7a 54 bd c5 52 81 bd
       0.11033914 0.0837739 -0.051874854 -0.06314615
000130 82 4d 15 3e 15 23 a7 bd 7b c1 69 bd c0 25 14 3e
       0.14580348 -0.08160988 -0.057069283 0.14467525
000140 06 ff d2 bd 27 6b c1 3d 3b 38 d5 bb a2 71 c8 bc
       -0.10302548 0.09444266 -0.0065069473 -0.024468247
000150 19 cc 6c 3d 86 ac ad bc 78 73 13 be 15 ac 9e bd
       0.05781183 -0.02120043 -0.14399517 -0.07747666
000160 e1 e2 4f bd 6e 3a 0c 3e f8 bb 83 3d ca c8 06 be
       -0.050753478 0.13694164 0.064323366 -0.13162532
000170 35 b2 6e bd 3e dd 4f 3d 2b f1 a9 bd 5b 72 a7 bd
       -0.05827542 0.050748102 -0.08297952 -0.081761084
000180 08 19 1d bd 4b fd 50 3c ed 91 52 ba 6f 6b c7 3d
       -0.03835395 0.012755702 -0.0008032609 0.09737288
000190 2c f2 ab bd 09 aa eb ba b2 83 89 bd a0 2e ae bd
       -0.083958 -0.0017979752 -0.06714572 -0.08504987
0001a0 84 bc af bc 87 57 4c bc 0d 16 95 bd 2a 1b e2 bb
       -0.021452196 -0.01247204 -0.072795965 -0.006900211
0001b0 94 fd 2e 3e 4b 09 2a bd d5 54 ab 3d cd 5d 78 3c
       0.1708892 -0.04151277 0.0836579 0.015159083
0001c0 87 78 06 3e f4 75 f1 bd 56 d2 c0 bd ca b7 90 3d
       0.13131915 -0.11790076 -0.094151184 0.07066305
0001d0 98 53 cb 3b 2c c5 ff 3d 45 48 b2 bb a7 16 d8 bb
       0.0062050335 0.124887794 -0.005440744 -0.0065944972
0001e0 75 51 5f bd 4b 63 20 be 04 64 aa 3d b0 e3 20 bd
       -0.054521043 -0.15662877 0.08319858 -0.03927964
0001f0 26 61 ee 3b 66 80 b1 bc 6c 62 c9 bc 30 3e 31 bc
       0.0072747646 -0.02166767 -0.024583064 -0.010818049
000200 2f 6d 97 3d 1e be 05 bd a3 89 4a bc 45 bc 0a be
       0.07393872 -0.032652013 -0.012361917 -0.13548382
000210 41 5f e5 3b e2 c7 d8 3d f4 6f 05 be ef 0a 14 3d
       0.0069998805 0.105849996 -0.13030988 0.03614324
000220 92 25 fc bd f9 b0 68 bd be 58 e9 3b d6 60 99 bd
       -0.123118535 -0.0568094 0.0071211746 -0.07489173
000230 b6 51 1f be 5a 58 65 bd fc 21 09 3e 4b 94 ef 3d
       -0.15558514 -0.05599246 0.1339187 0.116982065
000240 f0 39 3b 3d 45 3b 02 3e e1 4a 2d bc 21 e0 ed 3d
       0.04570955 0.12717922 -0.010576935 0.11615015
000250 74 d0 89 bd 34 b8 f0 3d da 47 d1 bd 31 10 4f 3d
       -0.067292124 0.11753884 -0.10218783 0.05055255
000260 60 b8 bc 3d df 42 fe bd c0 83 e6 bd 88 fa 51 bc
       0.09214854 -0.124150984 -0.11255598 -0.012816079
000270 f3 26 dc 3d f5 fb 90 3d 24 e5 74 3c c4 35 b5 bc
       0.107496165 0.07079307 0.0149472095 -0.022120364
000280 b0 67 4d 3d 78 d7 21 3d ae 26 88 3d d2 82 79 3d
       0.050147712 0.039512128 0.066480026 0.060915776
000290 f4 24 95 3c b6 79 1f bc d9 1c 05 3e 9c fb 60 3c
       0.018206097 -0.009733608 0.12999286 0.013731863
0002a0 06 2b 02 be ad a3 47 3d e0 9b 69 3d 25 41 a2 3d
       -0.12711725 0.048740078 0.05703342 0.079225816
0002b0 2d c2 1a 3e e4 3c 35 bd b2 fb 3d 3e cc e5 02 3e
       0.15113135 -0.044247523 0.18553045 0.12782973
0002c0 4c ec 30 3d 7c a9 2c 3e 7e 96 d9 3d 02 19 fc 3d
       0.0431941 0.16861528 0.10624407 0.12309457
0002d0 66 83 0b 3e bf d3 5f 3c 27 58 bb 3d 7b 52 95 bd
       0.13624343 0.013661324 0.09147673 -0.072911225
0002e0 b3 b2 9f bb e9 fd 85 3d 5c 00 fa b9 a6 b3 cb bd
       -0.0048735975 0.0654257 -0.00047683984 -0.099463746
0002f0 b6 e7 41 3d 8a 4d e4 3d 53 90 e6 bd a4 70 90 bd
       0.047340117 0.11147602 -0.112579964 -0.070527345
000300 4c 12 0d be 87 b1 7f bc c5 d4 df bb 11 2e 62 bd
       -0.13776511 -0.015606291 -0.006830784 -0.055219714
000310 1d ee 60 bd ef d4 99 bd fb 47 7a bc 75 1e 00 3e
       -0.054914583 -0.07511317 -0.015275951 0.12511618
000320 c4 f0 10 3e 1f 37 1b bd 6a a6 9c 3d bb 90 c6 3d
       0.14154345 -0.037894364 0.076489285 0.09695574
000330 dc 8e 06 be 1d a6 1b bd 48 e3 4d 3e 69 ab 0e bd
       -0.13140434 -0.038000215 0.20106232 -0.03483144
000340 e9 85 91 3d 55 dd f5 bd ad 1e 91 3c 90 34 01 be
       0.071056195 -0.12005106 0.017714823 -0.12617707
000350 4b a6 fa bd 1e dd 23 3d 91 fe 8e bd aa 32 ba ba
       -0.12238749 0.040005796 -0.069821484 -0.0014205773
000360 71 ab aa 3d a4 ab 36 b9 62 7b d1 3d f8 1b c8 bd
       0.08333481 -0.00017420814 0.102286115 -0.097709596
000370 54 59 db bd 83 0c 04 3d dd 2f a2 bd 5e fe a7 3d
       -0.10710397 0.032238495 -0.079192854 0.082028136
000380 c2 51 f2 3c fe ab 72 3d 66 fd b1 3d 76 1b 28 3d
       0.02958 0.059246056 0.0869091 0.041041814
000390 49 f8 8d bc 9c 7c 95 bc b8 91 21 3d 78 2f 0b 3e
       -0.017330306 -0.018247895 0.03944561 0.13592327
0003a0 cd ef 8b 3d 78 63 0b 3e 63 84 a1 bd 32 6c a8 3c
       0.06832848 0.13612163 -0.07886579 0.020559404
0003b0 2a df cf 3c 1c 7e 0b bd 48 27 0f be e4 c6 06 be
       0.025374968 -0.034055814 -0.13979828 -0.13161808
0003c0 67 a6 02 be af 49 7c bc fc e3 3b 3d 81 01 dd 3c
       -0.1275879 -0.015398427 0.04587172 0.026978256
0003d0 c3 d7 a2 bd 71 e9 1d bd 43 f9 92 3d b3 dc 02 3d
       -0.079513095 -0.038552705 0.07176449 0.031948756
0003e0 f0 44 44 3d f1 d4 31 bd af d6 11 be b7 f9 9f bd
       0.047917306 -0.043415967 -0.14242052 -0.07811301
0003f0 a1 3e 49 3d 79 6c ae bd 0b 09 cb 3d 9a 02 55 3d
       0.049131993 -0.08516783 0.09913834 0.052004434

residual_block.layer1.bias f4 [10]
000000 fe ec 4b 3d 8a 86 e0 3d 63 09 f9 3c 8b d8 45 bd
       0.04978656 0.10963161 0.030399984 -0.048302215
000010 cf 4f b6 bd c7 c9 fd bc 9c dd c7 bd f0 b2 cf bd
       -0.08901941 -0.030980004 -0.097590655 -0.101415515
000020 18 1c 3e bd 55 23 93 3c
       -0.04641351 0.017961184

residual_block.batch_norm_layer1.weight f4 [10]
000000 b1 6c 7c 3f b4 82 83 3f c8 09 83 3f e4 9e 83 3f
       0.9860335 1.0274262 1.023736 1.0282865
000010 61 d0 7d 3f 91 c5 7b 3f 4b 6e 76 3f 0e 9c 83 3f
       0.99146086 0.9834834 0.96262044 1.0281999
000020 b7 05 7b 3f aa 8b 82 3f
       0.98055595 1.0198872

residual_block.batch_norm_layer1.bias f4 [10]
000000 8b 47 7f 3b 72 a3 17 3d 82 9c 51 bc 77 31 36 3c
       0.0038952555 0.037021108 -0.012793662 0.011120192
000010 e0 38 77 bd c9 9f de bc 23 e9 0e 3c 23 3a e6 3c
       -0.060356975 -0.0271758 0.008722576 0.028103894
000020 a3 10 d9 bb 30 80 62 3c
       -0.0066242977 0.013824508

residual_block.batch_norm_layer1.running_mean f4 [10]
000000 82 ee b1 be 95 28 8c 3c 31 c8 87 bd 58 1a c2 3e
       -0.3475228 0.017109195 -0.0662998 0.37910724
000010 1f 96 a7 ba 18 5f a2 be 92 b8 8f bd 16 05 91 b8
       -0.0012785828 -0.31713176 -0.07017626 -6.915086e-05
000020 ac 9d 43 be bc 4a 97 3e
       -0.19103116 0.29549205

residual_block.batch_norm_layer1.running_var f4 [10]
000000 2f 3c 31 3e 0a 83 c6 3d 6d c4 0c 3d 93 d2 c2 3e
       0.17308114 0.096929625 0.034367014 0.3805128
000010 ac 59 80 3d 92 c0 52 3e 22 fc 02 3e 84 05 15 3e
       0.062671036 0.20581272 0.12791494 0.14552885
000020 80 40 4d 3e 8b 14 52 3e
       0.20044136 0.20515649

residual_block.layer2.weight f4 [10, 10, 5]
000000 75 1a e7 3c 25 c6 ae 3d 02 c8 b7 3d 2a 19 0f bd
       0.028210858 0.08533887 0.08973695 -0.034936108
000010 ae ac 18 3c 42 ff 09 3e f0 a4 ad bb 05 64 ba bd
       0.009318514 0.1347628 -0.005299203 -0.091011085
000020 52 e4 0a bd 0c 28 95 bd f3 26 e7 bc 91 ad 94 3d
       -0.03390915 -0.07283029 -0.028216815 0.07259668
000030 11 99 2e 3d 7e ad 91 3d 2e f4 30 3d 14 b1 13 be
       0.042626444 0.07113169 0.043201618 -0.14423019
000040 22 c6 2f bd c4 01 3e bc 22 63 60 3c 3b f3 f6 bd
       -0.042913564 -0.011597101 0.01369551 -0.12058111
000050 ce 20 8c 3d ff 65 9b 3d 50 d6 95 3d 17 f8 8b 3d
       0.068421945 0.075878136 0.073162675 0.06834429
000060 75 7c 8a bd a0 21 c6 3d 59 50 64 bd 73 45 47 be
       -0.067620195 0.09674382 -0.055740688 -0.19460087
000070 74 6a 65 bd 15 6a 13 3d 4e 20 04 3e 20 04 dc bc
       -0.056009725 0.03598984 0.12902948 -0.026857436
000080 3c ca a3 3c b9 0a 2e 3c 44 5d 8f 39 a1 3f 82 bd
       0.019993894 0.010622674 0.00027344574 -0.063597925
000090 e1 c4 81 3b 45 5e 0f 3e 5d 3d 23 3c 9e 2b fd 3d
       0.0039602374 0.14000805 0.009963361 0.12361835
0000a0 66 f3 eb 3c 33 2e 01 bd 44 ef a1 3d b7 73 00 3e
       0.028802585 -0.0315382 0.079069644 0.12544142
0000b0 b9 fb a0 3c 28 e7 eb bc 03 d4 9e 3d 50 36 23 bd
       0.01965128 -0.028796747 0.07755282 -0.03984672
0000c0 e2 f8 83 bd 6a bb e6 3d 0a 2c 65 3c 61 be 1e be
       -0.06443955 0.11266215 0.0139875505 -0.15502311
0000d0 dd ab bb 3c df 93 c3 bd 03 51 00 bc 6a 8b 2a be
       0.0229091 -0.095496885 -0.007831815 -0.16654745
0000e0 69 f4 58 3c 92 19 88 3d 9a 2d 36 be 10 fe 08 be
       0.013241866 0.06645502 -0.17790833 -0.13378167
0000f0 67 3e d8 bd fa c0 8c 3d bb 93 c7 bd 2c dd a0 bd
       -0.10558777 0.06872745 -0.09744974 -0.07854685
000100 5d 98 d9 3c 0d 1f 06 be 47 be 2c 3d 87 c3 b1 3c
       0.02656191 -0.13097782 0.04217365 0.02169968
000110 d6 e6 19 3d 1b 5e fb bd de 53 9e 3d 15 6a cb bd
       0.037573658 -0.122738086 0.0773084 -0.09932343
000120 b4 bb c0 3d 75 cf c0 3c 26 d7 01 be 0b fd 16 3e
       0.094108015 0.023536423 -0.12679729 0.14744966
000130 65 27 55 3d de 63 43 bd cd 31 9f bd 01 3b 20 bd
       0.052039523 -0.047702663 -0.077731706 -0.03911877
000140 52 dd ca bd 43 b1 37 bd 94 c1 ac 3c 0e bf 48 bd
       -0.09905495 -0.044846784 0.021088399 -0.04901033
000150 50 54 f8 3c 9a 41 b4 3d 31 bb f8 bc c3 0c 00 be
       0.03031364 0.08801575 -0.030362697 -0.12504868
000160 23 53 f6 bc f7 bb c2 3c b3 e4 8f bd 61 75 b9 bd
       -0.03006894 0.02377127 -0.07026043 -0.090555914
000170 6c b2 ef bd a1 73 e8 3d 69 90 d3 bd 33 06 7a 3d
       -0.11703953 0.113501795 -0.103302784 0.06104107
000180 7c 35 d3 bb e3 8b be 3c 35 e6 be 3c a8 2b 1d 3e
       -0.006445585 0.023260063 0.02330313 0.15348685
000190 52 01 6e 3d 38 5d 06 3e 16 e0 4d 3d 35 2e 96 bc
       0.058106728 0.13121498 0.050262533 -0.01833258
0001a0 ee 16 56 3d d7 c4 af 3d 25 3a 22 3b 14 9a b7 bd
       0.05226796 0.08582466 0.0024753895 -0.08964935
0001b0 06 d2 03 bd a2 62 9e 3d 6d 6d 46 3c 4d d7 f7 3d
       -0.032182716 0.077336565 0.01211105 0.12101612
0001c0 2e e4 fc 3d 12 73 ef bd 5c 9c 1e 3d c2 4d bc 3d
       0.12348209 -0.1169187 0.038723335 0.091945186
0001d0 07 bd 05 be 71 68 b3 bd 38 b5 b2 bd a2 42 0f 3d
       -0.1306039 -0.08760155 -0.08725971 0.034975655
0001e0 23 60 16 bd 57 47 fd bd 99 91 a2 bd cd d2 97 3b
       -0.036712777 -0.123671226 -0.07937927 0.0046332837
0001f0 a3 51 04 bc b7 7c c6 3d c2 25 f1 bc 35 b8 c9 3d
       -0.008076104 0.09691756 -0.02943695 0.09849588
000200 3c 0f 0b bd 24 84 13 bd ef cf c5 3d 61 90 e8 3c
       -0.033950076 -0.03601469 0.09658801 0.028389158
000210 e3 6a f7 bc 93 9c 2b bd 5d 61 1c 3c 61 c3 15 bb
       -0.030202335 -0.041897368 0.009544698 -0.002285205
000220 b6 2c de 3c fc 66 8a bb 6d 17 05 be 03 20 9e bd
       0.02712093 -0.0042237025 -0.12997217 -0.077209495
000230 b7 12 43 bd fb 33 31 3e 04 b8 12 bd e2 6c 94 3d
       -0.04762527 0.17304985 -0.035820022 0.0724733
000240 d5 88 fc 3d 7a c3 2d 3d fe 64 a9 bb 9f 9f b6 bc
       0.12330786 0.04242275 -0.00516951 -0.02229291
000250 6e 87 d0 3d 19 e3 e2 bd 7d d7 4a 3d 03 31 ed 3d
       0.10182081 -0.11078472 0.049521912 0.11581614
000260 fd d1 ec 3d 4a 33 c2 3c 70 bd f4 b7 bf 66 c9 bb
       0.115634896 0.023706097 -2.917528e-05 -0.0061462815
000270 40 c0 14 3e 55 42 ef bb ce 40 43 3d 7b 69 ae 3d
       0.14526463 -0.0073016086 0.047669224 0.085162126
000280 fd 06 18 3d a7 de 72 3d fa 94 93 3c e7 72 aa 3c
       0.03711604 0.05929437 0.018015373 0.020806743
000290 5a 86 a3 bd 5a e7 ab 3d ba b8 0c 3e 52 fe f0 bd
       -0.0798461 0.08393736 0.13742343 -0.11767258
0002a0 a7 7e 24 bd 3e 60 cd b8 50 cd d1 bd 36 d5 cf 3d
       -0.040159848 -9.793088e-05 -0.102442384 0.10148089
0002b0 2f 93 e3 3d a7 6b ab bc 15 58 0c bd 07 b3 c7 3d
       0.111120574 -0.020925356 -0.03426369 0.09750944
0002c0 d0 08 88 bd de 40 f7 3c 00 f6 a7 bd 3a 72 f3 bd
       -0.06642306 0.030182298 -0.08201218 -0.11887021
0002d0 f9 72 74 bd 01 38 cb 3d 32 7e ae bd 44 b7 70 3a
       -0.05967996 0.09922791 -0.085201636 0.0009182582
0002e0 90 9f 27 3e 75 e1 33 3d 0a 06 a2 bd b0 54 48 3d
       0.16369462 0.043916184 -0.07911308 0.04890889
0002f0 56 aa 77 bd 59 a6 0b be b1 6a 5d 3b 44 b6 04 bd
       -0.06046518 -0.13637675 0.0033785517 -0.032400385
000300 9f af ce bd 7a 5f 03 3c 9c 1b 70 bd cf cc ff 3d
       -0.10092091 0.008018369 -0.05862008 0.12490236
000310 ff 4d 8a 3d ee b7 ee 39 b5 a4 c3 bd b4 93 f7 3d
       0.06753158 0.00045531936 -0.095529 0.12088719
000320 36 2f 67 bd 60 20 5a 3b 4f 0e e5 bd 64 a8 a3 bd
       -0.05644151 0.0033283457 -0.1118437 -0.07991102
000330 b6 e6 82 3d 95 0e 77 3c e7 90 b1 3d f9 aa 10 3e
       0.06391661 0.01507916 0.08670216 0.14127721
000340 2c 5b ae 3d 4b 5a a7 bd 33 9f 11 bc 63 a4 0c 3e
       0.085134834 -0.08171519 -0.008888054 0.13734584
000350 43 db 1a bd 30 30 fe bd c2 c4 6b 3d 48 28 16 3e
       -0.03780676 -0.12411535 0.05756069 0.14663804
000360 93 ee 10 b7 ad 14 bd 3c 96 f4 58 3d ba cc 89 bd
       -8.638616e-06 0.023081148 0.05296763 -0.067285016
000370 68 eb 97 bd b4 e0 bc 3d 46 37 97 bd 4a e0 7c bd
       -0.07417947 0.09222546 -0.073835894 -0.061737336
000380 5f d5 0c 3e 68 5a 87 bd 97 fa 48 3d 45 38 13 be
       0.1375327 -0.066090405 0.049067106 -0.14376934
000390 98 2b 13 3e 2b 57 e4 3d 47 56 81 3d 5c 6b a7 bd
       0.14372098 0.111494385 0.06315284 -0.08174774
0003a0 77 c2 c2 3d 0b 7d ea 3d 69 e0 16 bd 7c 93 10 be
       0.095097475 0.11449631 -0.036835108 -0.14118761
0003b0 3c 6f b7 bd d7 da 89 bc cd e1 18 3a bc 93 d8 bd
       -0.08956763 -0.016827984 0.0005831987 -0.10575053
0003c0 94 63 57 3d 94 18 e9 3d a5 0a 03 3e 8c 14 33 3d
       0.0525852 0.11381641 0.1279703 0.043720767
0003d0 70 5f d9 bd 02 83 3a bd 36 52 24 be 5e 49 cc bc
       -0.106139064 -0.045535095 -0.16046986 -0.024937328
0003e0 85 bf 2c bd 67 55 ba 3d 02 b9 82 bd 3c d9 eb bd
       -0.042174835 0.090983205 -0.06382944 -0.115160435
0003f0 c3 e8 46 3b a9 c2 c4 bd 42 3f f9 3d 30 7b fd 3c
       0.003035114 -0.09607441 0.121702686 0.03094253

residual_block.layer2.bias f4 [10]
000000 f6 7d 59 3d 44 ce 0c bd ec 37 df 3d 96 ce ae 3d
       0.05309864 -0.034376398 0.10899338 0.08535497
000010 07 4c 93 bc 9f 22 07 3d f8 f5 b0 bd c5 ec 87 3d
       -0.017980589 0.032992 -0.08640665 0.06636957
000020 68 18 2f 3e e6 83 c7 bd
       0.17099154 -0.097419545

residual_block.batch_norm_layer2.weight f4 [10]
000000 00 c9 6e 3f dc 61 85 3f 2b 7b 77 3f 14 72 7d 3f
       0.9327545 1.0420489 0.96672314 0.99002194
000010 c7 2d 81 3f 37 e9 79 3f 9b e3 89 3f de 64 7c 3f
       1.0092095 0.9762148 1.0772585 0.9859141
000020 bf 06 86 3f d6 a2 89 3f
       1.0470809 1.0752819

residual_block.batch_norm_layer2.bias f4 [10]
000000 ea 80 fc bc 68 39 0f 3b eb a9 86 bd 7f 52 da bc
       -0.03082319 0.0021854285 -0.06575378 -0.026650665
000010 dc 5b 06 3c ab ca e8 3c 23 5b 85 3d ae 82 d3 bc
       0.008200612 0.028416952 0.065115236 -0.025819149
000020 63 ea 64 3d 08 97 1e 3d
       0.05588759 0.038718253

residual_block.batch_norm_layer2.running_mean f4 [10]
000000 76 00 8d 3e 25 60 f5 be 24 d9 7a 3e fc e4 98 3e
       0.27539414 -0.47924915 0.24496895 0.298622
000010 9c 7c 6a 3d ce 2b 70 be 74 e9 1b bf 77 4b d1 3e
       0.057247743 -0.2345421 -0.60903096 0.40877888
000020 90 ee cf 3d ee ab 90 be
       0.10152924 -0.28256172

residual_block.batch_norm_layer2.running_var f4 [10]
000000 5f 8d 20 3e 28 3e 1c 3e eb cd 00 3e cb 9c 68 3d
       0.15678929 0.15258086 0.12578551 0.056790154
000010 ff 72 19 3e 80 c5 f2 3d e8 57 ae 3e 4e 2b 63 3e
       0.14985274 0.118540764 0.34051442 0.22184488
000020 9d 2f 3a 3e 80 7f fb 3d
       0.18182226 0.12280178

layer2.weight f4 [10, 10, 5]
000000 e0 e2 75 3d ff 0a 65 3d 72 b2 c0 bd a4 5d 17 3e
       0.060030818 0.05591869 -0.09409036 0.14781815
000010 85 4a 98 3c 63 f2 93 b9 9a 17 16 be 42 8f 1d bd
       0.018590221 -0.00028218617 -0.14657441 -0.0384667
000020 db c0 20 bd 40 78 a8 3d d9 6b a6 3d ff 83 00 3c
       -0.03924642 0.08226061 0.08126039 0.00784397
000030 98 3f 6a bc d7 a1 c8 bd 17 75 7a bd 54 7e 2d bd
       -0.0142973885 -0.097964935 -0.06114682 -0.042356804
000040 52 4d 22 3e 0a db f4 3d ed 82 11 be ea 6b 04 3d
       0.15849808 0.11955841 -0.142101 0.032329477
000050 ad 57 c5 3d db d3 a6 bd 3d fc a0 3d 55 39 c1 bd
       0.096358635 -0.08145877 0.07860611 -0.09434763
000060 b4 5f 25 bc 5f fd 32 be 97 4e 2e bd ae 81 f8 3d
       -0.010093618 -0.17479466 -0.042555418 0.121341094
000070 8a ff c3 3c e1 19 a4 3d 23 82 81 bd 71 92 ee bd
       0.023925561 0.080127485 -0.0632365 -0.11649025
000080 53 95 99 3c 5a 08 83 bd 85 e3 b0 3d e8 7e 64 3d
       0.018747961 -0.06398077 0.08637146 0.05578509
000090 1d aa a1 bd 57 3f 23 be d3 70 30 bd bd de b4 3c
       -0.07893775 -0.15942131 -0.043076348 0.022078866
0000a0 91 b7 4a 3d e3 20 58 3d 27 48 7d 3d 0e 60 9f bd
       0.04949147 0.05276574 0.061836388 -0.07781993
0000b0 3a 74 6f bd aa 25 73 bd 0f 1c 09 3d e3 6c 6b 3d
       -0.05846045 -0.05936209 0.033474024 0.05747689
0000c0 e4 15 c0 bd 79 24 c3 bd 2e 4b 91 3b 16 09 78 bc
       -0.09379175 -0.09528441 0.004434011 -0.015138885
0000d0 05 62 b6 3d 13 2f e5 bd e2 c0 aa bd e2 34 8c 3d
       0.089054145 -0.11190619 -0.08337571 0.06846024
0000e0 c7 5f 13 be ee 70 bd 3d 1a 50 a2 bd 9b 75 07 bc
       -0.14392005 0.09250055 -0.079254344 -0.008267785
0000f0 13 e4 a5 3d 75 0e df bc 6c 0a 34 bd 29 9e db 3b
       0.08100142 -0.027228573 -0.04395525 0.006702204
000100 60 86 ed bd 35 a2 da bc fd 4a 11 be 2f d1 8f 3d
       -0.115978956 -0.026688674 -0.14188762 0.070223205
000110 5e ba 06 be bf 4a 6c bd 25 7b 11 be ca 56 d0 3d
       -0.13157031 -0.05768847 -0.14207132 0.10172804
000120 81 6e 03 be be 04 dc 3d 3a 0d 4b bd bf 4e ac bb
       -0.12835123 0.10743092 -0.04957316 -0.0052584107
000130 73 fc d6 3d fc b1 60 3b 21 92 90 3d 89 9a 07 3c
       0.104973696 0.0034285774 0.07059122 0.00827659
000140 0e 08 f2 3d 83 18 c1 3d 9a 59 c5 3c e1 29 e6 3d
       0.118179426 0.09428503 0.024090577 0.112384565
000150 f4 9f 72 3d a5 4c 4d 3b 46 08 8a bd 7a be 74 bc
       0.059234574 0.0031326201 -0.06739859 -0.014937991
000160 46 bd 64 ba 74 2d d3 bd 0e 90 38 bd f7 cb a5 bd
       -0.00087257137 -0.10311404 -0.045059256 -0.08095544
000170 e9 9a 14 be a5 f3 f6 bd 35 1a c7 bd 42 7e 18 3d
       -0.14512219 -0.1205819 -0.097217955 0.037229784
000180 6f 6a 28 bd bf 10 d2 3d 6a 6d 49 bd b3 fc 94 3d
       -0.041117128 0.102571 -0.04917661 0.07274761
000190 85 29 86 bd 7b 0a c5 3d 3d 89 33 bd 5c 53 51 3d
       -0.06550888 0.096211396 -0.043832052 0.05110489
0001a0 f4 12 f0 3d a6 4e d3 bd 19 7a 88 3d 94 1c 23 bd
       0.11722365 -0.103177354 0.06663913 -0.039822176
0001b0 49 1f 47 3c 4a 24 93 3d 1e 24 d7 bd fe be f8 bd
       0.012153455 0.07184656 -0.10504936 -0.12145804
0001c0 6a ed a0 3d 16 fc e3 bd 18 e6 f1 3c 4e 4e 05 be
       0.07857783 -0.11132066 0.029528663 -0.13018152
0001d0 28 4f a9 bc 62 f6 b9 bc 78 58 d8 3d b4 67 f4 3d
       -0.020667627 -0.022700492 0.10563749 0.11933842
0001e0 76 95 1a be da 90 44 36 0d 3a 10 be 56 d2 f5 3d
       -0.15096077 2.929059e-06 -0.14084645 0.12003009
0001f0 0d 98 18 3e 00 c3 43 bb 6e db 42 bd 22 8f a5 bc
       0.14901753 -0.0029870868 -0.047572546 -0.020209853
000200 ac 4b e2 bd 3e 80 fd bd e8 f3 82 3c a2 1d 86 3d
       -0.110495895 -0.12377976 0.015985444 0.06548621
000210 fe f3 d9 3d 9b 45 a7 bc 07 1d 80 bd 3c 3c df 3d
       0.10642241 -0.020418933 -0.062555365 0.10900161
000220 17 ee c9 bd e8 4e 72 3d e7 1d 58 3d 96 0f 96 bd
       -0.09859865 0.059157282 0.052762892 -0.073271915
000230 5e 52 cd 3c 0c eb 92 bd 31 1d 0f be ba d0 7f 3d
       0.02506369 -0.07173738 -0.1397598 0.062454917
000240 2a 69 69 bd 29 c0 0c bd 0b 3a f7 bc 92 3d 36 3d
       -0.056985058 -0.034362946 -0.030179044 0.04449231
000250 71 b2 c5 3d ea 0a 2d bd 08 91 f6 bb 4d 2a 63 bc
       0.096531756 -0.042246737 -0.0075246133 -0.013865066
000260 81 dc 0a be 61 5c 2f 3d c3 37 ba 3d ee 5b e4 bc
       -0.13560678 0.04281271 0.09092667 -0.027875867
000270 f5 8a 7a 3d 82 1c 40 bb 8e 45 e1 3d e1 9c 67 3d
       0.061167676 -0.0029313867 0.10999595 0.056546096
000280 d2 ac 58 3d 69 97 45 3d 16 cf 55 bc f3 13 3a bd
       0.05289919 0.0482401 -0.013049861 -0.04542918
000290 8b 00 f1 bd 0c 52 bf 3c 8e 55 1b 3d b9 98 a1 3b
       -0.11767682 0.023354553 0.03792339 0.004931536
0002a0 dd 22 a9 3d 1a dc b5 3c b4 0c 59 3d af b6 56 bd
       0.08258603 0.02219968 0.05299063 -0.052420314
0002b0 cb 7e 3b 39 a7 c4 60 3c 3e fb aa 3d ae 3e db 3d
       0.00017880944 0.013718761 0.08348702 0.107053146
0002c0 cf ee 91 3d 3b 88 df bd c1 3d 48 3d e5 e6 01 3e
       0.07125627 -0.10914656 0.048887018 0.12685736
0002d0 31 c4 9b bd 53 7b 0d be 2d 40 07 be 1a 1e 2e 3d
       -0.0760578 -0.13816576 -0.13208075 0.042509176
0002e0 db b2 b6 bd 04 d0 1b 3d f4 a6 81 3d e3 90 89 bd
       -0.08920833 0.038040176 0.06330672 -0.06717088
0002f0 bc 79 68 bd d8 9a 1c 3d 9a 0d 20 3d 10 72 cc 3d
       -0.05675672 0.038233608 0.03907547 0.09982693
000300 47 3b cc 3d 07 cb 6d 3d ef b4 59 3d 07 f8 41 bd
       0.09972244 0.05805495 0.053151067 -0.047355678
000310 a8 1a 01 be e6 34 9d bd 70 ca a1 bd 99 e4 da bd
       -0.12607825 -0.07676105 -0.0789994 -0.10688133
000320 72 ee f8 bd 4c 82 b3 3d e0 85 47 bd 77 bf 99 3d
       -0.12154855 0.087650865 -0.048711658 0.07507222
000330 46 d9 eb b8 86 50 5a 3d 44 bc c5 bd 1c b2 b5 3d
       -0.000112461435 0.05329945 -0.096550494 0.08871862
000340 47 d5 8b bd a5 26 cb 3c ef 14 9c 3b b2 1d af 3d
       -0.06827789 0.0247987 0.0047632377 0.08550586
000350 d9 6a c1 bd a5 74 88 3d e5 60 f6 37 01 fc 2a bd
       -0.09444208 0.06662873 2.9370605e-05 -0.041744236
000360 7c db b4 bd 29 2a 9c 3d ea 05 9a bd 8d 56 23 3d
       -0.08830926 0.07625229 -0.07520659 0.039877463
000370 71 e4 ef 3c 3b a0 9f bd 27 4c 26 3b 32 d5 62 3d
       0.029283734 -0.077942334 0.002537498 0.0553791
000380 27 e0 3a 3e 3a 51 13 3e 40 da 30 bd d2 e9 7f bd
       0.1824957 0.14386454 -0.04317689 -0.062478848
000390 4f e7 1d 3e 7c a7 ac bd 11 84 e2 3d f6 29 c3 bd
       0.15420268 -0.084303826 0.11060346 -0.09529488
0003a0 7b 6a 45 3d f9 ed 27 be 6d 4f 09 be 5b 15 9a bd
       0.04819725 -0.16399373 -0.13409205 -0.075236045
0003b0 b0 30 16 3d 0d 7c 33 bd 72 74 2b bd c9 db 86 3d
       0.036667526 -0.043819476 -0.041859098 0.065848894
0003c0 20 e3 13 bd e0 91 d1 ba 03 04 a2 bd 66 11 09 be
       -0.036105275 -0.0015988909 -0.079109214 -0.13385543
0003d0 59 fd 72 bd e6 ff 06 3e df ce b2 3d 18 2c 78 bd
       -0.059323642 0.13183555 0.08730864 -0.060588926
0003e0 68 c1 08 3e ca 42 ca bd 94 a9 2a 3d 58 bb f8 bd
       0.13355029 -0.0987602 0.04166563 -0.12145108
0003f0 55 fc 63 3d 5a 07 0d be a4 3a 97 3d 1d cd 4d 3d
       0.055660564 -0.13772336 0.07384232 0.05024444

layer2.bias f4 [10]
000000 61 5d 56 3d da 7f a1 3d 8b 71 27 3d a3 41 10 3e
       0.052335147 0.07885714 0.040879767 0.14087538
000010 29 53 45 3d fb df e4 3d 8f 99 f6 3d 08 97 9a 3b
       0.04817501 0.111755334 0.12041008 0.0047177114
000020 a0 f2 0b 3e 8f ac 0d 3e
       0.13666773 0.13835357

batch_norm_layer2.weight f4 [10]
000000 f6 9a 81 3f e3 67 8c 3f 26 66 8b 3f 6e 66 86 3f
       1.0125415 1.0969204 1.0890548 1.0500009
000010 50 88 88 3f 20 54 84 3f 7e 18 7e 3f 75 3a 88 3f
       1.0666599 1.0338173 0.9925612 1.064284
000020 f3 61 93 3f 26 ed 7a 3f
       1.1514267 0.9801811

batch_norm_layer2.bias f4 [10]
000000 da a5 85 bc 55 9f 90 3d 27 6d b0 3a 57 46 c6 3c
       -0.016314436 0.0706164 0.0013460264 0.024203463
000010 89 36 11 3c df 8d 59 bc 70 1c 2f bd 4e 5e 16 3c
       0.0088631 -0.013278454 -0.04275173 0.009177757
000020 0c 6f b5 3d 38 da d9 bc
       0.08859071 -0.026593313

batch_norm_layer2.running_mean f4 [10]
000000 f6 15 79 be 70 8d 8a be aa 2d 3d be 5d 4e 41 3e
       -0.24324784 -0.27061033 -0.1847445 0.1887755
000010 da 7d aa bd b4 12 d4 bd 27 e8 f7 3d 4a f2 07 3e
       -0.083247855 -0.1035513 0.121048264 0.1327602
000020 e7 f4 62 3e 0e 11 87 3e
       0.22163735 0.263802

batch_norm_layer2.running_var f4 [10]
000000 1d d3 10 3e 14 c4 10 3f f4 53 fc 3d 4c 5c 27 3e
       0.14143033 0.5654919 0.123207 0.16343802
000010 0a db 18 3e 70 ef 1d 3e 48 c1 b9 3e 26 4d 65 3e
       0.14927307 0.1542337 0.36280274 0.22392711
000020 26 fa 49 3f c6 9c f8 3e
       0.7889732 0.4855711

mlp.weight f4 [6, 1200]
000000 3e 43 b0 3b 88 9d 30 bc 9a 13 14 bb 25 76 3c 3c
       0.0053791096 -0.010779746 -0.0022594691 0.011502777
000010 0d 39 86 bb b6 26 49 b9 84 e7 3d 3c 83 56 44 bc
       -0.0040961565 -0.00019183275 0.011590842 -0.011983517
000020 41 00 9b bc f8 0f 59 bc 22 a5 6a 3b a2 5c 0d bd
       -0.01892102 -0.013248436 0.0035803993 -0.03451217
000030 ef a4 c2 bc 71 80 c5 ba cc ce a5 3c f8 73 66 bc
       -0.023760287 -0.0015068186 0.02024021 -0.014065735
000040 f8 2b 0d bd 9b 68 f6 bb 6a fb fe ba d8 72 e1 3b
       -0.03446576 -0.007519794 -0.0019453589 0.0068801455
000050 40 ca c5 3b 18 49 43 bc 7f 19 d1 bc 95 f6 74 3c
       0.006036073 -0.011919282 -0.025524853 0.014951368
000060 6d f8 3d 3c 85 70 8e 3b c7 8a 2c bc 85 cf 26 3c
       0.011594874 0.0043469095 -0.010531134 0.010181312
000070 44 bd 2f bd 50 f0 09 bd 62 7b de bb fe 48 2d 3b
       -0.042905107 -0.033676445 -0.0067896107 0.0026441212
000080 61 20 8e bc 25 92 03 3c d7 3b f2 ba ad 7e 23 bd
       -0.017349424 0.008030449 -0.0018480968 -0.03991573
000090 be 16 62 bb d5 d7 2d b9 8d 2a c2 bc 48 40 6e 3c
       -0.0034498419 -0.0001657897 -0.02370193 0.014541693
0000a0 90 7a 18 3b d3 45 b8 bc fe 7b 5e bc f5 a9 c5 bc
       0.0023266412 -0.022494232 -0.013579367 -0.024128893
0000b0 5c b9 62 ba 2f 14 a0 ba e7 2b 23 bc fb 6a 18 3d
       -0.00086488365 -0.0012213046 -0.009959198 0.0372114
0000c0 d6 c7 91 3c 74 4d 1e 3a 08 7e e8 bc 17 49 b3 3c
       0.017795485 0.0006038763 -0.028380409 0.021885438
0000d0 cd bc 1a bd ec c3 38 3c 7e ac 87 ba f5 bf 70 bb
       -0.03777771 0.01127718 -0.0010351089 -0.003673551
0000e0 41 c3 04 bd 17 58 a1 3c 87 e3 d9 3c 1f 39 be 3c
       -0.03241277 0.019695325 0.026597751 0.023220597
0000f0 2c 86 9e bb 9e e8 86 bc 45 fd 67 bc c0 24 8c ba
       -0.004837772 -0.016468342 -0.014159505 -0.0010692105
000100 4a 6f c7 b9 43 51 ca bc d6 d6 12 bb 59 a6 b3 bc
       -0.00038039155 -0.024696952 -0.0022405884 -0.021929907
000110 26 68 6e bc 6b ec 3a 3c 98 fd 69 3c 81 f5 65 3b
       -0.014551198 0.0114089055 0.014281653 0.0035088959
000120 75 a8 ad 3c 1a 68 8b 3c 3d 8c 46 3b c1 09 2e 3a
       0.02119849 0.017017413 0.003029599 0.00066390267
000130 e2 63 72 3b 63 62 cb bb 7c 6c 05 3c c2 1d cf bc
       0.0036985804 -0.006206797 0.0081435405 -0.025282744
000140 70 ce 7f bc bf a8 9c bc e3 87 55 3c 2d 0e 30 3a
       -0.015613183 -0.019123433 0.013032886 0.00067159795
000150 41 f9 37 3c b5 89 3d 3b 5e 22 1c 3c 8d 74 e0 3c
       0.01122886 0.002892119 0.009529678 0.027399326
000160 6e 94 5d bc 05 2d 4c bb 00 48 a2 bc e6 47 4b bd
       -0.013524158 -0.0031154763 -0.019809723 -0.049629115
000170 fb 7b 13 bc 0d b5 0a bd d1 17 d3 bb 99 0c d3 bc
       -0.009001727 -0.03386407 -0.006442048 -0.025762843
000180 e6 64 2a bb b7 7a c3 3c f1 7c 9c bb ad c7 e9 bc
       -0.0026000082 0.023862226 -0.0047756364 -0.028537596
000190 85 66 1d 3c db c6 18 bd 49 15 15 bc 71 c5 37 bc
       0.009606962 -0.03729902 -0.009099313 -0.011216507
0001a0 b1 6d b1 3c be 24 b2 39 a6 7b e3 bc 06 8f be 3c
       0.02165875 0.0003397818 -0.027768921 0.023261558
0001b0 61 9f 03 bc b5 e4 22 bc bd 66 15 bc 17 09 3b bb
       -0.008033604 -0.009942223 -0.009118733 -0.0028539354
0001c0 d0 d9 4f 3b a2 9a 09 bc 94 08 d3 3c a7 04 f9 3c
       0.003171552 -0.008398684 0.025760926 0.030397726
0001d0 c4 af 45 bc 4a 6c 26 3c da dd f0 bb 15 b3 cc 3c
       -0.012065832 0.010157654 -0.0073506655 0.024987737
0001e0 ce 18 1c bd 68 f2 2e bd 60 71 2f bd 92 ba 42 bd
       -0.038109593 -0.042711645 -0.042832732 -0.04754121
0001f0 f0 c9 55 bc cc 6e 4f bd 5f 01 bf bc 09 26 d4 bc
       -0.013048634 -0.050642774 -0.023316083 -0.025897043
000200 1d 94 1f bd b3 cb 5b 3c b9 57 9b b9 a7 61 fc 3b
       -0.03895961 0.013415265 -0.00029629262 0.0077020708
000210 aa c8 d9 bb fc c4 05 bd 17 36 02 bd 26 62 60 bd
       -0.0066462355 -0.032658562 -0.031789865 -0.0547811
000220 39 64 71 bc 5c 50 67 bc 19 c5 a7 bc aa f6 b0 b9
       -0.014733368 -0.01411828 -0.020479726 -0.00033753115
000230 06 b2 47 bd 78 c7 7a bc 5a b9 3b bd dc 77 ed bc
       -0.04875376 -0.015306346 -0.045831062 -0.028987817
000240 e1 ed 4b bd b2 20 6c bc 0a 78 29 bd 27 0f d5 bc
       -0.049787406 -0.014412092 -0.041374244 -0.026008202
000250 d6 a5 16 3b df d9 66 bd 7b 1a b8 bc 9e e9 96 bd
       0.002298703 -0.05636012 -0.022473564 -0.07368778
000260 bf 65 25 bd b9 f9 fe bc 4e 3f 88 bd ef 0e 57 bd
       -0.040380236 -0.031124936 -0.066526994 -0.052504476
000270 49 61 ca bc 07 ff 37 bd 60 c9 83 bd 45 16 1d bd
       -0.024704592 -0.044920947 -0.064348936 -0.038351316
000280 66 53 83 bb e0 32 ee bc b2 88 dd bb f3 22 2e bc
       -0.0040077446 -0.029076993 -0.00676068 -0.01062845
000290 7a 23 48 bd c4 24 a5 bc df 76 24 bd a2 24 21 bc
       -0.048861958 -0.020159133 -0.040152427 -0.009835394
0002a0 39 e8 5b bd 1b 57 63 bd dc 92 a5 bc b2 b7 b9 bc
       -0.05368826 -0.055502992 -0.02021163 -0.0226706
0002b0 91 6e 09 bd a9 4a da bc a3 ba 4e bd c2 fc 0d bd
       -0.03355271 -0.026646929 -0.05047096 -0.034664877
0002c0 08 79 27 bd 97 d6 d2 bb e8 15 51 bd e3 7a 2d bd
       -0.04088691 -0.0064342725 -0.051046282 -0.042353522
0002d0 4f 00 06 bd a4 a3 31 bd e6 10 9d bd 1d c4 87 bd
       -0.032715138 -0.04336895 -0.07669239 -0.066292025
0002e0 32 99 02 bd c0 aa b5 bd 5d 57 2f bd 7c c5 8f bd
       -0.03188438 -0.088704586 -0.042807925 -0.07020089
0002f0 d0 dd a2 bd 5c 8e 33 bd 2a 0b 6b bd a6 23 85 bd
       -0.079524636 -0.043836936 -0.057383694 -0.0650094
000300 c6 ab 9f bd 59 d3 1f bd 86 87 03 bd 62 28 2f bd
       -0.07796435 -0.039019916 -0.032111667 -0.04276312
000310 c3 2f ca bd f8 d9 14 bd 1c 57 4c bd 6f 52 73 bd
       -0.09872391 -0.036340684 -0.04988776 -0.059404787
000320 5a 58 95 bd 93 5c 16 bd 1c a7 45 bd ec 48 73 bd
       -0.07292242 -0.03670938 -0.04825507 -0.059395716
000330 15 7d 9a bc 51 98 f9 bc 71 06 49 bd 59 0f 48 bd
       -0.018858472 -0.030468138 -0.04907841 -0.04884276
000340 5e b0 1a bd 86 b2 f1 bc d0 b2 0f bd b1 c5 46 bc
       -0.037765853 -0.029504072 -0.03508264 -0.012132094
000350 48 07 04 bd ed 8a 97 bd 65 44 72 bd af 87 84 bd
       -0.032233506 -0.07399545 -0.059147257 -0.06471192
000360 0c 6d 71 bd c4 f7 87 bd 4b 12 64 bd bb d5 b7 bc
       -0.058941886 -0.066390544 -0.055681508 -0.022440782
000370 d3 e3 aa bc 55 ef 76 bd ed 29 3a bd 3f 4a ea bc
       -0.020860588 -0.06028684 -0.04545014 -0.028599856
000380 e2 38 72 bd d5 45 3e bd 6b 62 2f bd c7 98 4c bd
       -0.05913628 -0.046453316 -0.042818468 -0.049950387
000390 38 6e 90 bd c9 d2 93 bd ee 86 01 bd 52 95 98 bd
       -0.070522726 -0.072179385 -0.03162282 -0.074503556
0003a0 47 c0 7f bd ba 21 2e bd c2 29 82 bd ed f5 98 bd
       -0.06243923 -0.042512633 -0.06355621 -0.074687816
0003b0 cc b4 63 bd 45 d7 a1 bd 2d ee 8d bd 6f a0 b0 bd
       -0.055592343 -0.079023875 -0.06930194 -0.0862435
0003c0 e0 06 58 3b 1b f5 0a 3c 88 4c aa 3b 64 34 bb 3c
       0.0032963082 0.008481289 0.0051971115 0.02285213
0003d0 a0 44 e0 3c 57 d6 60 3c 67 80 54 3c 8f b4 92 3c
       0.027376473 0.013722978 0.012970067 0.017908363
0003e0 ea f5 f1 3c ed 65 ff ba 51 9a 5c 3c d0 39 a4 3c
       0.029536206 -0.0019485332 0.013464526 0.020047098
0003f0 d7 a7 5f 3c 47 5b e6 3c e8 f0 68 3c aa 69 13 3d
       0.013650856 0.028119696 0.014217593 0.03598944

mlp.bias f4 [6]
000000 35 20 0a bd 29 0b c5 bc e5 27 1f bd ba 31 2b 3d
       -0.03372212 -0.024053173 -0.038856406 0.04179547
000010 71 5a fb 3c 2e 3a ef 3c
       0.030682774 0.029202547
