models/ResModel/UCIHAR_1D_Residual_Model_02.pt (torch, 47293 bytes, 26 tensors)

layer1.weight f4 [10, 9, 5]
000000 12 24 db bd 03 a7 26 be 9a 17 9e bd 7c e5 1e be
       -0.10700239 -0.16274647 -0.077193454 -0.15517229
000010 ad aa 97 bd 45 da 8b 3d a1 61 6b 3d 46 ba e1 3d
       -0.07405601 0.06828741 0.057466153 0.11021857
000020 35 6c 7d bd fe d6 f9 bd 93 cd 99 3e 87 1d 81 3e
       -0.061870772 -0.1219921 0.30039653 0.2521784
000030 fe 72 c5 bd d0 b0 79 bd eb a5 5f be 2a b0 9d 3c
       -0.09641074 -0.060959637 -0.21840636 0.01924904
000040 49 99 a8 bc fc f8 dd 3d 2b e8 81 3d b0 a5 8b 3d
       -0.020580905 0.108385056 0.06343111 0.06818712
000050 30 d3 72 3d 69 21 f6 bd 7d 1e d2 3d 41 e0 37 3c
       0.059283435 -0.12018091 0.102597214 0.0112229
000060 f1 74 a7 3d 4d c9 e0 3c 9c 44 a5 bd 7d 8b e1 bd
       0.08176602 0.027439738 -0.08069727 -0.110129334
000070 9e 39 c9 3d 7b ca 08 3d 92 aa cb 3d 37 55 fa bd
       0.09825443 0.033396225 0.09944643 -0.12223285
000080 9f 20 db 3d 0e ce 72 bc 1a d2 9f bd c0 ab cf bd
       0.10699581 -0.014819635 -0.078037456 -0.101401806
000090 4d 09 4a bd 66 d4 12 3e f2 17 ef bc 0b d2 ae 3b
       -0.049325276 0.14338836 -0.029186223 0.0053350977
0000a0 ac f9 a3 bd 49 de ae 3c 0f 27 bb bd d1 3d 04 bd
       -0.080066055 0.021346228 -0.09138309 -0.032285515
0000b0 1f ea 02 3e a7 f4 36 bc 2b 3f d6 bd 22 22 61 bc
       0.12784623 -0.011166728 -0.10461267 -0.013741048
0000c0 47 4e 6b bd 9c 9d 6d 3c 67 4c f5 3d 36 aa 1f bd
       -0.057447698 0.014502909 0.11977463 -0.038980685
0000d0 67 8a 58 3d ed f4 10 3e 1a ab bf bd 13 5d ed 3d
       0.052866366 0.14155932 -0.09358807 0.11590018
0000e0 81 ab 91 3d 79 14 f8 3a f0 88 9b bc 91 61 b5 3d
       0.0711279 0.0018927 -0.018986195 0.088565
0000f0 15 9d d1 bd ba 9d da bd 62 10 3f 3e b8 ef 99 bd
       -0.10235039 -0.10674615 0.18658593 -0.07516426
000100 4b fa 77 bd e6 3b 54 39 b4 3d 32 bd 6a 17 d6 3d
       -0.060541432 0.0002024021 -0.043515876 0.10453685
000110 8a b8 30 be 9a 59 15 be d4 dd 21 3e 7c f2 8a bd
       -0.17257896 -0.14584962 0.15807277 -0.067845315
000120 d2 d9 d9 bd df 10 a7 bd 8e 6d d9 3d 07 62 a8 ba
       -0.10637249 -0.08157515 0.10616599 -0.0012846597
000130 89 e2 f4 3c eb 74 2b be e8 1d 9e bd c5 3e 91 bd
       0.029893177 -0.1674382 -0.07720548 -0.070920505
000140 83 c5 08 3e ea a6 b8 3c 0a bb aa 3b 7f de e0 bd
       0.13356595 0.022540528 0.005210285 -0.10979938
000150 1a 28 ed 3d 9f 18 ab bc d2 76 b0 bc 02 03 b7 bd
       0.115799144 -0.020885764 -0.021541033 -0.089361206
000160 9b fe 18 be ca e9 b3 3d a8 32 10 be 95 ca 49 bd
       -0.14940874 0.08784826 -0.14081824 -0.049265463
000170 af 17 86 be 32 51 f8 bc 00 55 d7 bd 62 75 c9 3d
       -0.26189944 -0.030312154 -0.10514259 0.09836842
000180 0a be 81 3d 11 3f db 3c cb 64 f7 3d dc 39 bd bd
       0.06335075 0.02676347 0.120797716 -0.092395514
000190 90 c4 c6 bb e7 34 b1 bc 3a 35 ba bc 9e 34 65 be
       -0.0060659125 -0.021631671 -0.022730459 -0.22383353
0001a0 14 ce 68 be 2e 7f 51 bd 22 62 fa 3c 1b b4 fc bc
       -0.22734863 -0.05114668 0.030564371 -0.0308476
0001b0 1c 8d af bd b9 88 a5 bd 27 be db 3d b1 04 70 3d
       -0.08571836 -0.080827184 0.10729628 0.058598224
0001c0 5c 97 65 bd 9a af 44 3e 7f b0 c4 3b 0b 51 e6 3d
       -0.05605255 0.19207612 0.0060024853 0.112459265
0001d0 e8 e3 bf bd 4c c7 7e 3d 6b 95 d1 3d 01 8f 6f 3d
       -0.093696415 0.062201783 0.10233577 0.05848599
0001e0 13 c0 1a be ed 54 c4 bd dc b3 03 bd da 55 f4 bd
       -0.15112333 -0.09586511 -0.03215395 -0.119304374
0001f0 fc 30 60 bd 25 0f b3 bd aa 43 85 bd 04 c2 0c bd
       -0.054734215 -0.08743123 -0.065070465 -0.034364715
000200 8f 03 e1 bd d9 d0 da bd 2f 39 9c bc 1c 7d 34 bd
       -0.10987007 -0.10684366 -0.019070236 -0.044064626
000210 19 dc 3f 3d 77 6c 4b bd 4d d6 06 3e 62 a8 e9 bd
       0.04684076 -0.049663987 0.13167687 -0.114090696
000220 f1 d0 19 be aa f8 ea bd 3d 7a 44 3c 31 1e 0a be
       -0.15021111 -0.1147321 0.0119920345 -0.1348808
000230 8f 5b 08 be ca 44 6e bd 81 40 cc bd 10 45 50 bc
       -0.13316177 -0.05817107 -0.09973241 -0.012711778
000240 8e 77 d3 3c 37 e8 eb bd db f4 0d be de 1c fa bd
       0.025813844 -0.11518901 -0.13862936 -0.12212537
000250 07 49 fa 3a 5a ad 3d bd 95 0a 63 bc 8e 75 a5 3d
       0.001909525 -0.0463079 -0.013857503 0.080790624
000260 a6 7f 98 3c 72 3d 04 be 07 21 aa 3d d4 9e 6b 3c
       0.018615555 -0.12914065 0.08307081 0.014381129
000270 9f 2c a2 bd fc 31 12 bd 6e fd a9 3c 16 af a1 bd
       -0.07918667 -0.0356922 0.020750728 -0.07894723
000280 15 72 ce 3d 74 89 01 be 10 b1 e2 bd f6 31 04 be
       0.10080353 -0.1265009 -0.11068928 -0.12909684
000290 af 8e 78 bc cc 24 15 3e 77 75 4a bc 7f 6c 32 bc
       -0.015170737 0.14564818 -0.012357107 -0.010890125
0002a0 50 78 d1 bd 51 9d ab bc ba a9 e5 bc 4f ba f3 bb
       -0.10228026 -0.020949038 -0.028035033 -0.007437981
0002b0 a5 83 3b 3d ba 58 b2 3d 34 4d 30 bc 37 a6 8c bd
       0.045779843 0.087083295 -0.010760594 -0.068676405
0002c0 0a ec 02 3e 1a 56 f5 bd 3e d9 a5 bd 86 26 e8 bd
       0.12785354 -0.11979313 -0.08098076 -0.11335473
0002d0 9d 04 af 3d ff d3 08 3e f0 74 0e bd d7 5b ac 3d
       0.08545802 0.1336212 -0.03477949 0.084159546
0002e0 57 03 c2 bc 3f d6 e4 bd 83 8d 93 3d 49 a5 86 3d
       -0.023683233 -0.11173677 0.072047256 0.065744944
0002f0 52 3a 17 be 85 35 cc 3d 6d 4e 79 3d de 60 12 3e
       -0.14768341 0.099711455 0.06086581 0.14294764
000300 92 7d 5a bd 41 51 86 bd 7c 11 0c 3d e3 3b 8f bd
       -0.05334241 -0.06558467 0.034196362 -0.06993844
000310 50 40 f1 3b 21 08 7e bd 9c fd e1 bd 35 42 e4 bc
       0.007362403 -0.06201947 -0.110347 -0.027863601
000320 ad 24 c7 3d ee 6c cb 3d 98 3e f7 3b c2 e5 cb 3d
       0.09723792 0.09932886 0.0075453036 0.09955932
000330 f7 77 14 be f5 ab 1b be 8e d8 20 be 3b 93 b9 bd
       -0.14498888 -0.15202315 -0.15707609 -0.09061285
000340 6f 37 91 bd 2c 6b c8 bc 16 f8 5e bd 4b 1b 0b 3e
       -0.07090651 -0.024465166 -0.054435812 0.1358463
000350 7f 67 4a bc c3 ed 9f bb 11 22 96 3c a5 2f 54 3d
       -0.012353777 -0.0048806383 0.018326791 0.05180325
000360 fa 27 8d 3d e5 61 f7 3d 6f 64 4b 3d 44 9f 7b bd
       0.068923905 0.12079219 0.049656328 -0.061431184
000370 b9 0e 28 be 0c 1b 6c bd 16 7e 0f be e8 a9 ad bd
       -0.16411866 -0.05764298 -0.14012942 -0.08479673
000380 f5 82 f8 3c 9f af c6 3d 67 ad e5 bd b2 69 f0 bd
       0.030335883 0.09701466 -0.112147145 -0.1173891
000390 04 77 86 bd 94 44 e4 3d 8d f5 97 3d ea 9b 26 bd
       -0.06565669 0.11145893 0.07419882 -0.040676035
0003a0 7e d8 a9 3c 22 0e 8d bc a2 6a 39 3e e1 91 a6 3d
       0.020733114 -0.017218653 0.18107083 0.08133293
0003b0 56 85 18 3d d1 2d 05 be 08 2a c9 3d 42 4b 24 3d
       0.037236534 -0.13005759 0.0982247 0.040110834
0003c0 c8 01 e1 3d d0 ba e3 3d 24 17 8c bd 38 a8 d7 3c
       0.10986668 0.11119616 -0.06840351 0.02632533
0003d0 29 5d 4e bd f8 b2 b5 3c 71 25 d8 3d 66 cc 1b bc
       -0.050381813 0.022180066 0.105540164 -0.009509182
0003e0 78 25 f0 bc fb d4 c7 bd 62 45 f4 3d fb ed cd bd
       -0.029314741 -0.0975742 0.11927296 -0.10055157
0003f0 5d 28 8f bc d2 1e 95 3d 0d 81 9e bb 01 d5 73 3d
       -0.017475301 0.07281269 -0.0048371614 0.05952931

layer1.bias f4 [10]
000000 fb 3f 4e bd 75 45 0d 3d 35 45 3e 3d 95 84 05 3e
       -0.050353985 0.034490068 0.04645272 0.13038857
000010 70 50 8d bd 2e a0 83 bd 21 85 49 bd d1 48 03 bd
       -0.06900108 -0.06427036 -0.049199227 -0.032051865
000020 1c 91 97 bd c2 21 cd bc
       -0.07400724 -0.025040511

batch_norm_layer1.weight f4 [10]
000000 0a 7a 85 3f 97 11 7e 3f 9c 46 7b 3f dd 1c 81 3f
       1.0427868 0.9924559 0.98154616 1.0086933
000010 27 ae 76 3f 66 40 7b 3f 5c 97 77 3f d8 b3 78 3f
       0.96359485 0.9814514 0.9671533 0.9714942
000020 b8 9a 84 3f f9 41 80 3f
       1.0359716 1.0020133

batch_norm_layer1.bias f4 [10]
000000 5a ef 59 3c 06 b5 ef bc bc 22 0c bc 40 96 27 bd
       0.013301695 -0.029261123 -0.008553203 -0.040914774
000010 e3 2d c9 bd 1b 65 13 3b e4 c4 71 3d 7d 14 82 3c
       -0.09823205 0.0022490683 0.05902566 0.01587891
000020 36 f4 70 3b 28 13 88 bd
       0.0036766655 -0.06644279

batch_norm_layer1.running_mean f4 [10]
000000 03 3f 82 bd 61 61 55 be ab 0b a7 be 41 20 e9 3d
       -0.06359675 -0.20837928 -0.3262609 0.11383105
000010 d8 a1 cc bc 4b ff 74 3e 5e 84 fb 3c 69 c8 3f bd
       -0.024979517 0.23925512 0.030702766 -0.046821985
000020 33 3f 09 3e 42 3b 06 be
       0.13403015 -0.13108543

batch_norm_layer1.running_var f4 [10]
000000 36 99 97 3c 62 1f 1a 3d 15 a4 7f 3d 3c 32 ce 3c
       0.018505674 0.037627585 0.06241234 0.025170438
000010 4d 56 3a 3d be e8 8d 3c 92 88 1f 3d 64 a8 b5 3d
       0.04549246 0.017322894 0.038948603 0.088700086
000020 5c 2c 01 3d 76 a6 41 3d
       0.031536445 0.04727789

residual_block.layer1.weight f4 [10, 10, 5]
000000 7f ce a4 3b cb 13 e4 3d a4 e6 16 3e aa ef a5 bd
       0.005029499 0.11136588 0.1473642 -0.08102353
000010 d2 34 9f bd 36 47 fc 3c cf 4c c4 bd 1e a5 8a 3d
       -0.077737466 0.030795675 -0.095849626 0.06769775
000020 2c f3 e5 3c 20 84 65 3d 72 9a c7 bd a4 d4 09 be
       0.028070055 0.056034207 -0.09746255 -0.13460022
000030 02 53 96 bd f6 47 6d bd a1 c3 ae 3b d9 6d 46 3d
       -0.07340051 -0.057929955 0.0053333794 0.048444603
000040 c9 3e 2e 3d 6e 82 e7 bd 7a ce 66 3d 73 b7 3b bd
       0.042540345 -0.11304174 0.056349255 -0.045829248
000050 d9 4d 57 3d d5 2e f2 bd f8 73 44 be 33 bf f1 bd
       0.052564476 -0.11825339 -0.19184864 -0.118040465
000060 bf d9 49 3d 28 ab 52 3d 5a 19 fa bd 69 87 3a 3b
       0.049279924 0.05143276 -0.12211867 0.0028462058
000070 55 51 9a bd e2 cb 11 bd d5 5b 0d be 2a ed 98 bd
       -0.07535044 -0.03559483 -0.13804562 -0.074671105
000080 49 5c e6 bb 4c b1 f3 3d 4b ed 00 be a9 5d 8a 3d
       -0.007030044 0.11899051 -0.1259052 0.067561455
000090 e6 b6 c6 3c 37 ba f0 bd 17 16 ec 3d 55 9d 80 bd
       0.024257135 -0.11754268 0.11527651 -0.06280009
0000a0 a3 26 1d bd 87 8d 24 be ae fb b8 3d 8d 53 b8 bd
       -0.038366925 -0.16069613 0.09032379 -0.09000311
0000b0 45 24 b7 3d de f0 55 3d fa 1c f1 bd bd 4d aa 3d
       0.08942465 0.052231662 -0.11773105 0.08315609
0000c0 e0 48 8a bd e8 ff 1b be 7c 4a 6b 3d 1d f9 5e 3d
       -0.06752181 -0.15234339 0.05744408 0.05443679
0000d0 2c 45 b8 bb 03 60 70 3d 6a ee 35 bd 40 cb 08 be
       -0.0056234803 0.058685314 -0.044416822 -0.13358784
0000e0 ef 71 87 bd 28 75 9d bd fa 4d cc bd 12 8b bc bd
       -0.06613528 -0.076883614 -0.0997581 -0.09206213
0000f0 ca 4c ec 3d 0e bf 06 3e 67 27 91 3d 15 69 89 3d
       0.11538084 0.13158819 0.070875935 0.06709496
000100 98 0e 30 bd 63 3b f1 bd 3a 20 c0 bc 3c 01 1d be
       -0.042982668 -0.11778905 -0.023452867 -0.15332502
000110 a5 57 9d 3c 43 7f ce 3d 27 11 bd bc 97 f8 d3 3c
       0.019206831 0.10082867 -0.023079468 0.025875373
000120 4b 35 10 be b1 44 05 be 5c 38 77 bd cd 4c f8 3c
       -0.1408283 -0.13014485 -0.060356483 0.030310059
000130 60 fb fb bd 5f 09 d0 3d e3 aa df bd 86 dc bf 3d
       -0.12303805 0.101580374 -0.10921266 0.093682334
000140 d8 ee 66 3d 9d 1e b8 3d bc 59 21 be b1 7b 81 bc
       0.056380123 0.08990214 -0.15756887 -0.015806051
000150 20 e0 a0 3d d1 0d a4 3d d4 b2 90 bd 8a 90 95 3c
       0.078552485 0.08010448 -0.07065359 0.018257398
000160 4c bc 09 3e a1 18 0c be 6a 81 26 3e e2 09 f1 bd
       0.13450736 -0.1368127 0.16260305 -0.11769463
000170 d8 56 0d be 86 cb 22 bd a8 43 8b bd 88 34 0b be
       -0.1380266 -0.039744876 -0.06800014 -0.13594258
000180 c5 71 99 3c 7a d7 19 3d bb 97 f5 3c 80 99 00 3e
       0.018731007 0.03755901 0.029979577 0.12558556
000190 35 a4 11 3d b9 ab c3 3b 51 be 84 3d 02 17 f3 3d
       0.03555699 0.0059713987 0.064816125 0.11869623
0001a0 59 fe 54 3d a8 cc f9 bc 30 41 5c 3d c8 bb b6 3d
       0.052000377 -0.030493096 0.053773105 0.08922535
0001b0 b8 5f a8 3d 4d e5 17 3d 2f 59 c8 bd c6 d0 14 3d
       0.08221382 0.037083913 -0.097826354 0.036331914
0001c0 b0 50 61 bd 43 69 1f bd 7a 63 14 3e 7f 13 b4 3d
       -0.05500859 -0.038918745 0.14491072 0.08792781
0001d0 4c 0d 00 3e 62 7e d5 3d b5 42 78 bd 13 06 5c 3d
       0.12505072 0.10424496 -0.06061049 0.05371673
0001e0 d5 0f e4 bc fd a9 36 3d 6e 79 b3 3d eb 38 e8 b9
       -0.02783958 0.044595707 0.08763395 -0.00044292895
0001f0 3a fa 9b 3d 18 64 d0 3d e8 59 34 3d 5c 60 fc bb
       0.07616086 0.10175341 0.044031054 -0.0077019166
000200 b6 73 a8 bd 6e e2 90 bd 47 72 92 bd 56 98 55 bd
       -0.08225195 -0.07074438 -0.07150703 -0.052147232
000210 e4 ce eb bc 60 0e 0c 3d a0 61 01 3e 5a 5b 3b bd
       -0.028785177 0.034193397 0.12634897 -0.045741417
000220 ae 29 bb bd 50 f7 5a bc 0c 0b e3 3d 28 c8 0f 3e
       -0.09138809 -0.013364628 0.110860914 0.14041197
000230 13 ef d5 3b fb e5 2b be ae 75 03 bd 09 d2 27 bd
       0.006528744 -0.1678695 -0.03209465 -0.04097179
000240 9d 01 75 3d 7c 68 34 bd 0e 6e 4a 3d c6 db c4 bc
       0.05981599 -0.044044957 0.049421363 -0.024030577
000250 3e 16 b1 bc a7 d4 bb bd 2d 4d c7 bd a2 0e fb 3d
       -0.021617051 -0.091714196 -0.09731517 0.1225865
000260 a2 f1 06 be 88 ad 36 bd 12 83 c7 bd f7 9e dd bd
       -0.13178113 -0.044599086 -0.097417966 -0.10821336
000270 41 0d 14 bd 8f 71 e9 3d 93 63 c5 3d 18 63 b1 bd
       -0.036145452 0.11398613 0.09638133 -0.08661479
000280 3b 6b 08 3e 35 d3 c3 bd a0 a5 b2 bd e6 d1 a0 3d
       0.13322155 -0.09561769 -0.08722997 0.07852535
000290 b3 9e f0 3d 4b 56 aa bc 19 45 7b bd c1 f3 52 bd
       0.117490195 -0.0207931 -0.061345194 -0.051501993
0002a0 58 e9 fb bd 04 0f 84 bd c0 82 c4 3d c1 52 8d 3d
       -0.12300366 -0.064481765 0.09595251 0.0690055
0002b0 98 43 e7 bd e3 b1 d1 bd 46 24 95 3d ed 61 d0 3d
       -0.11292189 -0.10239007 0.07282309 0.10174928
0002c0 e3 5a d6 3d 34 15 59 bd 4f 79 28 bd 8b 59 2a 3e
       0.10466554 -0.052998737 -0.041131314 0.1663572
0002d0 c0 b7 09 be e2 88 bc bd 8d 85 47 3d 05 77 f1 bc
       -0.13449001 -0.09205796 0.04871135 -0.029475698
0002e0 13 59 78 3d b1 cf d0 bc 50 02 59 bd 9f a3 c9 3d
       0.060631823 -0.02548966 -0.05298072 0.09845661
0002f0 ad 02 b1 bd 36 c6 e4 bd f8 5b d4 3d a5 2d 0a 3d
       -0.086430885 -0.11170618 0.10369104 0.033734936
000300 dd 84 90 3d cd e4 cd 3c f6 b3 b3 3d 84 30 9d bd
       0.07056592 0.025133515 0.08774559 -0.07675269
000310 96 4c a0 3d 29 39 24 3d 7c 85 dd 3c 9c 26 16 3c
       0.078271076 0.040093575 0.02704119 0.009164479
000320 64 11 48 bd b2 72 4d 3d 42 0e 6d 3d 4f 75 6d bc
       -0.04884471 0.05015821 0.057874925 -0.014493301
000330 49 26 ec bd 21 7c 07 3e 87 4e bc bd b8 ca 56 bd
       -0.1153074 0.13230945 -0.091946654 -0.05243942
000340 de b7 9d bb df 30 a9 bd f5 64 00 be 48 22 8a bd
       -0.0048131784 -0.082612745 -0.12538512 -0.0674482
000350 2e 70 a8 3d be b6 13 3d ab cf a5 3d bb 1d 02 3e
       0.082245216 0.03606295 0.0809625 0.12706654
000360 c0 2c f1 bc 4b b3 af bd 28 3f f7 3b ff 0b 42 3e
       -0.029440284 -0.08579119 0.0075453706 0.18949889
000370 7c f7 ab bc 88 10 9b bc 12 41 07 3e 1a c6 1d 3d
       -0.020992033 -0.018928781 0.13208416 0.038519002
000380 49 83 d7 3d 68 00 09 3b b3 b9 3b be cd e4 0d be
       0.105230875 0.0020904783 -0.18332557 -0.13856812
000390 fe ff fe bd 78 23 0a bd 65 2c 13 3e fa cb a1 bd
       -0.124511704 -0.033725232 0.14372404 -0.079002336
0003a0 cd d5 2e bd 0e b3 3d 3d 0f 7b f0 3d e4 54 23 bd
       -0.042684365 0.046313338 0.117422216 -0.03987588
0003b0 9f 90 cb 3d 64 f4 b1 bd 60 a2 c0 bc f4 3e c8 3d
       0.09939694 -0.08689192 -0.023514926 0.09777632
0003c0 c8 c6 46 be 1f da 05 be de 36 5a bd 22 15 e1 bd
       -0.19411767 -0.13071488 -0.05327498 -0.10990359
0003d0 6f d2 ec bc 2d 9e 00 bd 82 2a 82 3d 70 3e ac bd
       -0.028908936 -0.03140085 0.06355764 -0.084103465
0003e0 e2 02 55 3d e1 77 ca bd 54 e6 39 bd f3 29 71 bd
       0.052004702 -0.09886146 -0.045385674 -0.058877897
0003f0 1d ed af 3c 28 5f 0b 3d 7b d0 8b bd 39 1c e8 3d
       0.02147537 0.034026295 -0.06826874 0.11333508

residual_block.layer1.bias f4 [10]
000000 87 49 22 3e b4 da bf 3d 9f 63 10 be 95 11 07 bd
       0.15848361 0.09367886 -0.14100502 -0.032975752
000010 a1 a0 d1 bc 52 cf a1 3d 84 ed 8d 3d c3 4e e9 3d
       -0.02558929 0.07900871 0.06930068 0.11391976
000020 de 50 4a 3d 18 98 ef bd
       0.049393527 -0.116989315

residual_block.batch_norm_layer1.weight f4 [10]
000000 a0 07 80 3f c5 41 82 3f 66 33 81 3f a8 b9 86 3f
       1.0002327 1.0176321 1.009381 1.0525408
000010 3a 85 80 3f 22 8b 80 3f 8a 04 7f 3f 09 94 73 3f
       1.0040658 1.004246 0.996163 0.9514776
000020 6b 0f 7f 3f aa 89 79 3f
       0.996329 0.97475684

residual_block.batch_norm_layer1.bias f4 [10]
000000 1a c2 9b bb e5 1f 5a 3d 52 08 e4 bc d0 5c c4 3c
       -0.0047533633 0.053253073 -0.027835999 0.023970038
000010 ef dd b9 bd ad 0b 20 3d fd 7b 71 bd ea 44 bb bc
       -0.090755336 0.039073635 -0.058956135 -0.02286001
000020 e6 89 87 bd 8a 74 1f bd
       -0.06618099 -0.0389295

residual_block.batch_norm_layer1.running_mean f4 [10]
000000 16 b3 7e be 31 85 c8 bd d2 a8 d9 3d 66 36 4c bd
       -0.24873003 -0.09791029 0.10627903 -0.049856566
000010 b9 5c 81 be 0f 66 9c bd b8 49 cd bb 6a 6e e4 3e
       -0.25266054 -0.07636654 -0.0062648915 0.4461549
000020 37 38 b9 3c 72 52 b5 be
       0.022609813 -0.35414463

residual_block.batch_norm_layer1.running_var f4 [10]
000000 a0 fd 0a 3e ec 90 5c 3e f3 e1 3b 3e ad bc 2d 3e
       0.13573313 0.21539658 0.18347912 0.16966505
000010 4a ee 36 3e 32 c9 0d 3e 08 07 8b 3d 38 2d 17 3e
       0.17864338 0.13846281 0.067884505 0.14763343
000020 3e d0 1a 3e fd 64 80 3e
       0.151185 0.25077048

residual_block.layer2.weight f4 [10, 10, 5]
000000 95 b9 99 3d b4 5a fa bd 64 87 7d 3c 6e 25 9d bd
       0.075061 -0.122243315 0.015474174 -0.07673155
000010 25 93 9d 3d 3f 3b 00 3d 16 7a f0 bc f5 39 ec bd
       0.07694081 0.0313065 -0.02935509 -0.11534492
000020 d1 f5 ca bd e8 e7 bc bd b0 7f a1 3c 16 25 0f 3d
       -0.09910167 -0.0922392 0.019714206 0.034947477
000030 e9 3c ab bb dd d6 ba 3c 05 c6 27 be fc 04 c5 3d
       -0.005225767 0.022807533 -0.16384132 0.09620091
000040 f4 c8 13 3e 25 96 65 bc 19 c9 9d 3d 78 98 fe 3c
       0.14432126 -0.014012848 0.07704372 0.031078562
000050 87 21 dd 3d 46 65 2b 3d ee ef 98 bd f6 06 9f bc
       0.107974105 0.04184463 -0.07467638 -0.019412499
000060 0f 4a 93 bd bf f3 13 be c1 da 06 be 66 2d 86 bc
       -0.0719186 -0.1444845 -0.13169385 -0.01637907
000070 5d 61 da 3d d5 ce 10 bd ab 00 f4 bd 2f cd 16 be
       0.10663102 -0.0353535 -0.1191419 -0.14726709
000080 d8 ad 7d 3c 01 2b ad bd ed d0 8f bd 01 ee 82 bd
       0.015483342 -0.08455468 -0.07022271 -0.06393052
000090 49 93 ac bd 27 a2 a7 bd 2e 9a 1c 3b 0b 04 95 3d
       -0.0842653 -0.08185225 0.002389561 0.07276162
0000a0 89 99 77 bc 8a 3e 7e 3c d8 5c 68 3b 96 28 bf 3c
       -0.015112289 0.01551784 0.003545573 0.023334783
0000b0 a0 08 62 3d 36 72 3c bd a4 be 42 bd a4 74 44 bd
       0.055184007 -0.046007358 -0.04754509 -0.0479628
0000c0 ac fd 01 bb 98 f4 f6 3d 28 6a 1b 3e 83 8e 22 bd
       -0.0019835038 0.12058371 0.15177214 -0.03968669
0000d0 53 97 99 3d b8 2e 4c 3d 95 42 ad 3c 30 6b ef bb
       0.07499566 0.049849242 0.021149913 -0.007306479
0000e0 74 95 8c 3d ff 0b 47 3d 5b 8c 54 3b 67 35 80 bd
       0.068644434 0.048595425 0.0032432291 -0.06260186
0000f0 f5 37 07 be 34 28 a3 3d 45 49 49 3d 86 3a 27 bc
       -0.1320494 0.079666525 0.04914214 -0.010206824
000100 9b f8 a7 3c 9c bf 65 3d b0 4d 54 bd bd a9 d6 3d
       0.020504287 0.056090936 -0.0518319 0.10481594
000110 70 d3 69 3c 2e 1f 7a 3d 21 f5 91 3d 9d 76 03 be
       0.014271602 0.06106489 0.07126833 -0.12838216
000120 16 75 ae bd bc 48 80 3d cb f9 a1 b9 a5 6f 61 3d
       -0.08518426 0.06263873 -0.00030894423 0.055038113
000130 c9 8a 0b be 2d a4 6c bd 43 ca 0c be e0 74 88 3d
       -0.13627161 -0.057773758 -0.13749032 0.06662917
000140 46 88 e2 bc 29 fa a0 3d c9 b7 eb 3d 51 13 13 bd
       -0.02765287 0.07860214 0.115096636 -0.035907093
000150 18 80 eb bd a8 c4 06 3e 74 b7 98 bc b6 1e 00 3e
       -0.11499041 0.13160956 -0.018642165 0.12511715
000160 9c 78 d3 bd 91 1b 2b 3d cf 2b 15 be 74 d5 f9 bd
       -0.10325739 0.041774336 -0.14567493 -0.12198916
000170 87 61 7a 3d ca 2e 3c bd 4e 32 96 3d 04 2d 0a bd
       0.061128166 -0.04594306 0.073338136 -0.033734336
000180 18 1a 13 be 73 36 d7 3c a6 49 18 be 82 37 01 be
       -0.14365423 0.02627108 -0.14871845 -0.12618831
000190 cf 82 67 bd 09 f7 e5 3b 31 68 cf bd 58 35 25 3e
       -0.056521233 0.0070179743 -0.10127295 0.1613363
0001a0 d3 48 08 3c 22 fa a5 bd d0 39 8f bd 61 96 aa 3b
       0.008318144 -0.0810435 -0.06993449 0.005205915
0001b0 e1 58 78 bd 0f 5a 3d be 60 17 93 3d 19 b3 d0 3d
       -0.060631637 -0.18491386 0.07182193 0.1019041
0001c0 11 1e d6 3d 89 8f 75 bd 08 78 ff 3d 74 23 a7 3b
       0.104549535 -0.05995134 0.12474066 0.005100662
0001d0 86 1a 85 bd ee 02 11 bd 42 4b 0f be df bd fe bc
       -0.064991996 -0.035403185 -0.13993552 -0.031096397
0001e0 e7 4a 72 bd 6b 69 f0 3d 17 dd dd bc 0f 0a 4f 3d
       -0.059153464 0.11738857 -0.027082963 0.050546702
0001f0 5d dd 06 3e eb de 8c bc c8 93 cc 3d 28 7c f2 3d
       0.13170381 -0.01719614 0.099891245 0.11840087
000200 bf 89 c4 bd a9 b6 11 bc 37 88 8f 3d 63 9b dc ba
       -0.095965855 -0.008893647 0.07008403 -0.0016830977
000210 a9 04 0e bd e6 ec 09 3e 24 e0 92 bd e7 34 cc 3d
       -0.034672413 0.13469276 -0.07171658 0.09971028
000220 6c d7 b9 3c 1a 35 9f bc f0 f1 af 3d 21 de b5 3d
       0.022685729 -0.0194345 0.08591068 0.08880258
000230 f6 e9 7f bd 45 6f be bd aa c6 03 be 06 36 f0 bd
       -0.062478982 -0.09298567 -0.12868753 -0.11729054
000240 85 e3 b5 bc 56 c3 81 bd a9 db 2a bc 49 03 97 bd
       -0.022203216 -0.063360855 -0.010428348 -0.073736735
000250 b8 49 f1 3d 27 2b c8 3d dd b0 14 be d9 c6 43 3d
       0.11781639 0.09773856 -0.14520593 0.047797058
000260 2f 9f dd bd b4 09 4d 3d f3 9b 25 be f5 6b a2 bd
       -0.108213775 0.05005808 -0.16172771 -0.079307474
000270 8f e0 f8 bd 87 c0 cc 3d e8 e5 c9 bd 44 aa 6f 3d
       -0.12152206 0.09997659 -0.09858304 0.058511987
000280 4d 02 d7 bc 29 e3 64 bc f5 6b f0 bd ef ba d7 bd
       -0.026246214 -0.013970175 -0.11739341 -0.10533702
000290 07 ee 55 3c e4 40 22 3c 41 db af bc c2 c8 30 3e
       0.013057238 0.009903166 -0.021466853 0.17264083
0002a0 f5 68 39 3e 08 3b ec 3c 02 2b df 3d d0 e0 e4 3d
       0.18106444 0.028836742 0.10896875 0.11175692
0002b0 1b 34 12 be 6e ce 63 3c c3 fd 18 bd d8 09 9f 3d
       -0.14277689 0.013904197 -0.03735138 0.077655494
0002c0 f4 6c da bc 9e 0a c6 bd 98 cf 94 3b c8 3c 3f 3d
       -0.026663281 -0.09669994 0.0045413487 0.046688825
0002d0 90 a7 81 3d 2c 43 b4 bd 23 0b 3e 3c a2 d8 ad bd
       0.06330788 -0.088018745 0.011599335 -0.08488585
0002e0 91 e1 02 be bd ca 31 bd bb 92 a9 bd 14 53 db 3d
       -0.1278136 -0.043406237 -0.0827994 0.10709205
0002f0 b6 2f 67 3d c8 19 a1 3d 99 e8 c1 3d 25 0b c2 3c
       0.056441985 0.078662455 0.094681926 0.023686955
000300 d5 01 e4 3d 66 e2 b1 bd 57 ab dc bd a8 79 14 3e
       0.11133162 -0.0868576 -0.10774868 0.14499533
000310 b0 0f 2d 3d 5f 63 08 bc 42 b4 e5 bc 51 4b de bd
       0.04225129 -0.008324473 -0.028040055 -0.10854209
000320 47 e2 90 3d cd 97 49 bc c3 26 0f bd 56 3a bd 3d
       0.07074409 -0.0123042585 -0.034949075 0.09239642
000330 73 e5 92 bd 16 5a ea 3d 98 7e d3 bd 79 a5 76 bd
       -0.0717267 0.11442964 -0.1032688 -0.0602164
000340 fc 07 ca 3d 80 f8 e6 3b 68 88 a2 3c 16 80 69 3d
       0.09864804 0.0070486665 0.019840434 0.057006918
000350 a7 61 c5 3d d2 20 2d 3e 61 84 a6 bb a0 41 aa 3d
       0.09637766 0.16907051 -0.0050816988 0.08313298
000360 75 1b 2b be ee 0b 1a 3d 65 94 d6 bd 19 c5 c8 bd
       -0.16709693 0.037609033 -0.10477523 -0.098032184
000370 30 97 75 bd 6c 20 19 be 79 2e 90 3d 25 7a f7 bd
       -0.059958637 -0.14953774 0.07040114 -0.12083844
000380 ff f3 50 bd 04 1e 67 bb b0 74 1f 3d d1 05 21 bd
       -0.051013943 -0.0035265693 0.03892964 -0.039312188
000390 ee f5 91 3d 2d 47 a6 bd 83 58 fc 3c cf 5c b1 3d
       0.071269855 -0.081190445 0.030803924 0.0866028
0003a0 f9 dd 3f bd 98 be 1c 3d de 98 1d 3d 70 78 a2 3d
       -0.04684255 0.038267702 0.038475864 0.07933128
0003b0 d1 00 f4 bb c6 88 4c 3c cc a5 21 bd 19 aa aa bd
       -0.0074463864 0.012483781 -0.039464757 -0.08333225
0003c0 20 ba e7 bd 95 71 8f bd 30 4d fa bd ae 51 f2 bc
       -0.113147974 -0.07004086 -0.122217536 -0.029579964
0003d0 ea d2 59 3d 3c 57 27 3c 3a 47 cb bd e0 1a 4a 3d
       0.05317966 0.010213669 -0.09925695 0.049342036
0003e0 26 58 e9 bd fd c9 89 3d 93 44 cb 3b 96 fc 84 bc
       -0.11393766 0.06727979 0.006203243 -0.016233724
0003f0 02 c6 80 bd a3 8d 4f bd f8 51 17 3d d3 cf 59 3d
       -0.06287767 -0.050672185 0.036943406 0.053176712

residual_block.layer2.bias f4 [10]
000000 fb 5f 98 bc 51 da ba bd f5 a8 f0 bd f5 11 f9 3d
       -0.018600455 -0.09123672 -0.11750976 0.12161628
000010 a7 58 cd bd dd 52 e5 bd 1e 5d 00 be d1 96 0e bd
       -0.10026675 -0.111974455 -0.12535521 -0.0348118
000020 1f 38 cc 3d e0 ff 99 3d
       0.09971642 0.075195074

residual_block.batch_norm_layer2.weight f4 [10]
000000 22 4b 82 3f 70 c3 89 3f 97 79 80 3f df 0b 7b 3f
       1.0179179 1.0762768 1.0037106 0.9806499
000010 32 2f 79 3f 79 91 81 3f d8 74 83 3f 14 00 81 3f
       0.9733764 1.012252 1.0270033 1.0078149
000020 24 e9 78 3f 4f 24 80 3f
       0.97230744 1.001108

residual_block.batch_norm_layer2.bias f4 [10]
000000 1b b3 0f 3c ac 60 c7 3c 03 ef da 3b 0c cf f7 bc
       0.008770729 0.024338089 0.0066813244 -0.030250095
000010 7b 6a 83 bd 07 68 b6 3c cc 37 fd bc 84 2a 92 bc
       -0.06416794 0.022266401 -0.030910395 -0.017842539
000020 35 c9 e2 bc b4 da 4c ba
       -0.027683834 -0.0007814572

residual_block.batch_norm_layer2.running_mean f4 [10]
000000 ba 3e 9f be 28 9c 0a be 9c 42 fe bd ed da 84 3c
       -0.31102544 -0.13536131 -0.124150485 0.016217673
000010 7e 87 63 be f0 e7 e1 be cc f3 01 be 17 4a 90 bd
       -0.22219655 -0.44122267 -0.12690657 -0.070453815
000020 87 2d 7b 3e 01 aa 83 be
       0.24529086 -0.2571564

residual_block.batch_norm_layer2.running_var f4 [10]
000000 d4 c9 18 3e 3a f3 77 3d 2a bd 2f 3e 54 2c 3c 3e
       0.14920741 0.060534693 0.17162004 0.18376285
000010 76 35 6a 3d 7e c0 1a 3e 87 b5 2d 3e d1 24 c1 3d
       0.05717989 0.15112492 0.16963778 0.0943085
000020 a0 c3 51 3e 30 90 58 3e
       0.20484781 0.21148753

layer2.weight f4 [10, 10, 5]
000000 ca b6 93 3d 0d 7b 44 bd eb 6c 63 bd 65 aa 1c bd
       0.072125986 -0.047968913 -0.055523794 -0.03824844
000010 68 9f 8e bc 37 4a 84 3d 70 83 fd bd d6 29 03 3e
       -0.017409995 0.06459468 -0.12378585 0.12808928
000020 98 b3 14 3e c9 1a e0 3d 49 88 16 bd 97 17 ca bd
       0.14521635 0.10942609 -0.036751065 -0.09867781
000030 9c 6b a2 bc e9 9d 4c bd 73 4b b1 3b cc ed 67 3d
       -0.019826703 -0.049955282 0.0054106056 0.056623265
000040 8f a4 08 3d 98 03 07 3c 04 50 12 bd 61 ab 32 3d
       0.03336006 0.008240603 -0.03572084 0.04362047
000050 7c d0 a5 bd d6 b4 c3 3c 40 aa d9 bc 5d bc 04 3e
       -0.08096406 0.02388994 -0.02657044 0.1296248
000060 7a aa 73 3d d4 dd a5 3d 85 5b f6 bd 07 2f a8 3d
       0.05948875 0.08098951 -0.12029175 0.08212095
000070 87 90 18 3d 99 cd dd 3d 53 7a 8e bd d9 d5 d3 3d
       0.037247207 0.1083023 -0.06956925 0.103435226
000080 ba e1 7a bd 26 ca 6e bd fb 49 0c 3e 39 2e 0f 3d
       -0.061250426 -0.058298253 0.13700096 0.03495619
000090 74 35 0e 3d 32 9e 05 be fc 9c 6c 3d ef b4 93 3c
       0.034718946 -0.13048628 0.0577669 0.018030612
0000a0 12 cc 38 3d 7a 5d f1 3d e9 fc d1 3d 3c 52 d5 bd
       0.04511649 0.11785407 0.10253317 -0.104160756
0000b0 b7 17 50 bd b4 6a ca bc 0a 29 98 3b c0 3f 85 bb
       -0.050803866 -0.024709083 0.004643564 -0.0040664375
0000c0 1f b9 fe bd 2f cf c0 3d 84 1a c6 3d c6 9c 8f 3d
       -0.12437653 0.09414517 0.09673026 0.07012324
0000d0 d2 11 23 bc 64 43 80 39 03 2f 05 be a7 6d a1 3d
       -0.009952979 0.00024464272 -0.13006215 0.07882243
0000e0 a7 60 a3 bc 92 95 a4 3d 27 9d cd bd 16 73 cc 3d
       -0.019943548 0.08036341 -0.1003974 0.099828884
0000f0 fc 7b 9d 3d e0 bf 82 3c 60 38 f3 3d c9 18 42 3c
       0.07689664 0.015960634 0.11875987 0.01184673
000100 3f 40 cd 3d 06 e0 b8 bd 74 36 d1 bd f3 03 d4 3d
       0.100220196 -0.09027104 -0.10215464 0.10352316
000110 a0 46 e3 bd 8e e0 c4 3d b3 3b 5d 3d 24 28 e5 bd
       -0.11097455 0.09613143 0.05401201 -0.11189297
000120 0a 19 2a bd 5e 80 13 3e 04 41 78 bd 20 03 c9 bd
       -0.041527785 0.14404437 -0.06060888 -0.09815049
000130 0b 64 e2 bc 33 4a 5c bd 3c c7 e8 bd aa dd a9 bd
       -0.027635595 -0.0537817 -0.11366126 -0.08294232
000140 2b f7 50 bd 6a 1d cf 3d 55 f5 9a 3d 0a 41 11 3e
       -0.051016968 0.10113032 0.075663246 0.14184967
000150 5d 87 a2 3d 49 29 56 3d 24 2c 0e 3c 5c 73 f6 bd
       0.07935975 0.052285466 0.008677516 -0.12033722
000160 fc 36 5d bd fd 9e 92 bd 2b 30 46 bc fc 91 99 bd
       -0.054007515 -0.07159231 -0.012096445 -0.074985474
000170 3e 80 ed 3d 6f 78 48 bd 07 1b 11 3d 87 c0 f2 bd
       0.11596726 -0.04894298 0.035426166 -0.11853128
000180 91 9d db 3d a1 32 f1 bd 93 c2 19 3d 97 45 d0 3d
       0.10723413 -0.11777235 0.037539076 0.10169523
000190 7a e1 86 bb ae b9 23 bc 4f d6 14 bd 83 fd 85 3d
       -0.0041162344 -0.009993 -0.036337193 0.06542494
0001a0 70 f9 ec bd b7 47 05 bd 7d e7 bb 3d bc 11 16 3e
       -0.11571014 -0.032539096 0.09175012 0.14655203
0001b0 82 37 8c 3d cf 92 39 3e 25 2b f4 3d 9a 13 f1 bd
       0.06846525 0.1812241 0.11922292 -0.11771317
0001c0 c2 38 7f 3d 20 7a f3 3d 8a 36 0d be 31 6f 03 bd
       0.062309988 0.11888528 -0.13790336 -0.032088462
0001d0 79 e1 19 bd fe 08 85 bd 1c c4 0b 3c e0 6b 65 3d
       -0.037568543 -0.06495856 0.008530643 0.05601108
0001e0 5c 55 50 bd 16 87 e7 bd 97 52 b1 bd 9f ae e8 3c
       -0.050862655 -0.113050625 -0.08658331 0.028403578
0001f0 7a 7d c1 bd 74 4b 1b be bf d6 02 be 17 c1 fa 3d
       -0.09447761 -0.15165502 -0.12777232 0.1224386
000200 48 5b 9e bd 72 d8 e0 3d a4 2a 93 bd ea 14 c7 3c
       -0.07732254 0.10978784 -0.071858674 0.024301965
000210 26 af 40 3c bf 67 77 3d 00 9a f2 3d 54 69 f6 bc
       0.011760509 0.060401674 0.118457794 -0.030079521
000220 c2 71 68 3d 31 c1 ee bd d6 e3 58 3c 6d 37 93 bd
       0.056749113 -0.11657942 0.013237914 -0.07188306
000230 98 89 7e bd c1 d7 ef 3d 16 7a 6f bc 90 45 f0 3d
       -0.06214294 0.11711074 -0.01461651 0.11732018
000240 5c 1b 02 3d c1 88 0c 3e c6 a9 a2 3d e5 63 b9 bc
       0.031764373 0.13724042 0.07942538 -0.022630641
000250 5c b1 07 3e b0 83 ed bd 91 00 18 be 65 2c d5 bd
       0.13251251 -0.11597383 -0.14843966 -0.10408858
000260 0a 64 8b 3d bc de 56 3c 00 3d de bd 08 5e 0a be
       0.0680619 0.013114627 -0.108514786 -0.13512433
000270 d6 87 9f bd 1e e7 89 bd 35 b0 dc 3d 0f 42 8b bd
       -0.077895805 -0.06733535 0.10775796 -0.06799709
000280 31 b3 1e 3d 46 1f 06 be fb 72 b8 bd b7 cf ac 3d
       0.03874511 -0.13097867 -0.09006306 0.08438056
000290 54 bd 5c 3d 42 e8 94 3d 0d dd a4 3d 01 d1 e2 3d
       0.053891495 0.07270862 0.080499746 0.110750206
0002a0 40 5a c3 3c 03 be c9 bc 20 e1 04 bd c6 8a 94 3d
       0.023846745 -0.024626737 -0.03244126 0.072530314
0002b0 1a ff a2 bd a6 d8 0f 3d b3 f5 0c 3e 0f a0 83 bd
       -0.07958813 0.03511872 0.13765602 -0.06427013
0002c0 c1 f0 7a bc fd c7 71 3d 6c 38 18 3e 8d 8c 07 3e
       -0.015316189 0.059028614 0.14865273 0.1323721
0002d0 55 c0 1a bd 18 5e a7 3d ed ce d3 bd 8f 7c 5c bc
       -0.03778108 0.08172244 -0.10342202 -0.013457431
0002e0 8c 43 07 3e 52 f1 7d bd a0 7a 73 bd 82 92 05 be
       0.13209361 -0.06199772 -0.059443116 -0.1304417
0002f0 52 9a 87 3d 13 79 c9 bd c4 e5 1a 3d 63 83 40 3b
       0.06621231 -0.09837546 0.037816778 0.0029375188
000300 af 3b 2c bd c0 cd 03 be a4 23 11 3d a3 d6 bc 3d
       -0.042049106 -0.12871456 0.03543438 0.09220626
000310 ef cc 7d bd 5a 00 e6 bd 3c da ec 3b 03 e8 3c 3d
       -0.061963018 -0.11230536 0.007228164 0.0461197
000320 d2 91 f3 3d 40 e1 30 3e 0d 9e 21 3e e9 ab da 3d
       0.118930474 0.17273426 0.15782948 0.106773205
000330 04 1c c6 bc 89 e6 05 be 2b 5c d2 bd a4 3d d3 3d
       -0.02418328 -0.13076223 -0.10271486 0.103144914
000340 f8 c9 13 3d 22 3d a7 bd 18 17 a3 ba b4 55 f1 3d
       0.036081284 -0.08165957 -0.0012442796 0.11783925
000350 41 9f 3d 3d 9b 91 01 be 7c c0 c4 bc 9a 99 ff 3a
       0.046294454 -0.126532 -0.024017565 0.0019500733
000360 1f e8 8a 3b a6 6d d3 bd 88 83 06 bd 05 01 8a bc
       0.004239097 -0.10323648 -0.03284028 -0.01684619
000370 da 69 d9 bd e5 fd 36 bd 86 c0 a4 3d a4 d2 ce 3d
       -0.10615893 -0.044675726 0.080445334 0.1009877
000380 33 a3 d3 bc ec 03 5b bd e0 f5 bd bc 9b 0d de 3d
       -0.025834655 -0.053470537 -0.023188531 0.10842439
000390 15 88 bd bd 51 36 be bd 64 4d b9 3d 8d 07 68 3d
       -0.09254471 -0.09287704 0.09047964 0.056647826
0003a0 86 c3 ce 3d 04 e7 b7 3c 2e 5c 06 3e b0 14 a5 3c
       0.10095887 0.022449024 0.13121101 0.020151466
0003b0 37 a7 01 be d1 ba 5e 3d e4 d8 9f 3d 73 9e 92 3d
       -0.12661444 0.05437738 0.078050405 0.07159128
0003c0 68 f0 20 bd c3 c2 1a 3e 39 5e 6b 3d 8d 08 a0 3c
       -0.03929177 0.15113358 0.057462905 0.019535327
0003d0 30 29 0e bd 7a e7 3f 3e fb 31 17 bd 5f be d0 3d
       -0.03470725 0.18740645 -0.0369129 0.101925604
0003e0 35 0c bf 3c 03 de c9 3d c9 c3 ee 3d 88 00 d8 3d
       0.02332125 0.098567985 0.11658437 0.10546976
0003f0 47 73 3c bc 6c 18 24 3e ba 5e 0d 3d 20 b1 f1 bd
       -0.011502094 0.16024941 0.034514166 -0.11801362

layer2.bias f4 [10]
000000 09 9c 05 be 52 32 aa bc 97 40 06 3e 9d d0 6d 3d
       -0.13047804 -0.020775948 0.13110577 0.058060277
000010 d6 30 0f 3e ec af ad bc 9f a5 e3 bd 7d 4e c5 3d
       0.13983473 -0.02120205 -0.11115574 0.09634111
000020 eb cd 84 bc 0f 6d d1 bd
       -0.01621147 -0.102258794

batch_norm_layer2.weight f4 [10]
000000 85 87 85 3f 9a cf 8c 3f 99 ad 8c 3f 3a 7c 80 3f
       1.0431982 1.1000855 1.0990478 1.0037911
000010 5d 54 89 3f 41 21 80 3f 43 c9 8d 3f 1e 06 82 3f
       1.0728871 1.0010148 1.1077045 1.0158117
000020 5d f1 80 3f 9a e2 88 3f
       1.0073658 1.0694153

batch_norm_layer2.bias f4 [10]
000000 c1 27 c4 3c 9a 16 55 3d eb fa 6f 3d 89 56 35 bc
       0.023944737 0.052023508 0.058588903 -0.011067995
000010 1e e4 02 bd 80 10 cc bc 14 9b af 3d 43 56 4b bc
       -0.03195583 -0.024910212 0.08574501 -0.012410703
000020 b0 5b bd bc af 21 09 bc
       -0.02311501 -0.008369847

batch_norm_layer2.running_mean f4 [10]
000000 c5 24 89 3e 21 6b ef 3d 01 5b c7 3e da f4 20 be
       0.26785865 0.11690355 0.38936618 -0.15718403
000010 c5 25 6e 3f 4a c7 56 be 24 ce 87 bf ac 6d 98 3d
       0.9302638 -0.2097446 -1.0609784 0.07442793
000020 19 a0 33 3d 11 13 c5 bc
       0.043853853 -0.024056943

batch_norm_layer2.running_var f4 [10]
000000 c0 bb 51 3e 86 26 c1 3e c8 37 62 3e c7 4d 36 3e
       0.20481777 0.37724704 0.22091591 0.17803107
000010 bc 44 df 3e c6 4a 61 3e fb 2d 10 3f 93 43 5c 3e
       0.43607128 0.2200118 0.5632016 0.21510153
000020 ed b4 ab 3e ef 15 0c 3e
       0.33536473 0.13680242

mlp.weight f4 [6, 1200]
000000 38 23 87 3c d0 83 e7 bb 31 7c 8d 3b bf 7c e3 3c
       0.016496286 -0.007065274 0.0043177833 0.027769445
000010 de b0 4d bc 0d 9e a0 ba c7 5c 61 bb 8d 43 8b 3c
       -0.012554375 -0.0012254134 -0.0034387575 0.016999984
000020 d2 86 d8 3c ff 5f f2 3b 27 93 d0 3c e3 ad cb 3b
       0.026431475 0.0073966975 0.025460793 0.0062157973
000030 9d 33 91 bb 20 69 bc ba 21 68 aa 3b 4b 1b a0 3c
       -0.0044312016 -0.0014374591 0.0052004014 0.019544264
000040 0a 8a 96 bb d3 5b 0c 3b b6 49 81 3c 6d 1c f5 3a
       -0.0045940923 0.0021417036 0.015782218 0.0018700488
000050 eb 65 a5 bc 08 64 a7 3c c4 f8 96 3c d9 d6 15 3d
       -0.0201902 0.02043344 0.018429168 0.036581848
000060 23 b2 0a 3d 2b 1d 8e bc cc 96 02 bc 7c 2c 1e 3d
       0.03386129 -0.017347893 -0.007970523 0.038616642
000070 c0 fa 43 3d 72 9e f6 3a 47 b3 4b 3d 89 b5 87 3c
       0.047846556 0.0018815531 0.04973152 0.016566055
000080 11 ec 39 3c c1 fb 8e bc 66 95 90 3c 76 0e a2 3c
       0.0113477865 -0.01745403 0.017649364 0.019782286
000090 df 8d ef bb 26 55 7d bb 17 ea 1a bc c7 6a 1c 3d
       -0.0073106135 -0.0038655489 -0.009455225 0.03818777
0000a0 43 8b 14 3d fa dd 33 3d e9 a6 0f 3d 79 aa 26 3d
       0.036265623 0.043912865 0.035071287 0.04068992
0000b0 5d f8 e0 3c 5d c6 3f bb 37 ea 5e 3b e8 e6 f0 3c
       0.027462179 -0.002926252 0.0034014115 0.02940698
0000c0 15 b1 12 3d a7 fd 36 3d e0 02 d5 3c f3 b7 04 3c
       0.03581341 0.044675495 0.026002347 0.008100498
0000d0 d1 54 81 bc 8b bb 08 bc 7d f1 c4 3c 69 8c 4d 3d
       -0.015787514 -0.008345495 0.024040932 0.050182734
0000e0 15 58 0c 3d 47 a6 2f 3d 65 b9 30 3b ef ae 94 3c
       0.03426369 0.042883184 0.0026965973 0.018149821
0000f0 55 6e 0a 3d 33 8d d0 3c 12 84 32 3c 16 0b 2f 3c
       0.033796627 0.025457954 0.010895746 0.010683795
000100 b7 b3 8e 3c c8 97 9b 3c c0 89 7a 3c cb b2 80 3c
       0.01741968 0.018993273 0.015291631 0.015710255
000110 1f 88 c2 3c 37 db 21 3d 56 31 1d 3d a7 0a f0 3b
       0.023746548 0.0395157 0.03837713 0.0073254886
000120 d5 c4 46 3c be fd 09 3d 67 40 29 3c 92 c9 26 3d
       0.012131889 0.033689253 0.010330296 0.040719576
000130 78 89 c3 3b 89 03 f1 3c 3f 51 16 bc 5a 23 27 3d
       0.0059673153 0.029420631 -0.009174644 0.0408052
000140 b7 15 dc 3b af 90 cc bb f3 f7 b6 3c b3 c6 2b 3d
       0.006716456 -0.0062428336 0.022335028 0.04193754
000150 35 0f 72 3c 97 22 d5 3b 68 34 a1 3c b1 52 0d 3c
       0.014774133 0.0065043676 0.01967831 0.008625672
000160 f3 71 f0 3b 6c 61 a9 3b 5c 50 c4 3c 83 86 b3 3c
       0.0073378026 0.0051690843 0.0239641 0.021914726
000170 e5 e0 e5 3c 68 ef 46 3d cb 58 4e 3d 6b d9 6f 3b
       0.02806134 0.04856816 0.05037765 0.0036598097
000180 71 37 c2 3c 3f 18 c9 3c 0f 60 46 3d 88 25 03 3d
       0.023708077 0.024547694 0.048431452 0.032018214
000190 9f b8 cd bb 5d b7 c4 3c 7a 4c 5b 3c d2 e0 48 3d
       -0.006278112 0.024013216 0.013384933 0.04904253
0001a0 58 0e be 3c 3b a6 53 3d 07 a4 50 3d b1 9e 20 bb
       0.023200199 0.0516722 0.05093768 -0.002450865
0001b0 4c 8d eb 3c 9c 21 a3 3b 05 6d 2b 3d 1a 92 37 3c
       0.028753899 0.004978372 0.041852016 0.011204267
0001c0 23 06 49 3d d1 9c 2f 3c af 15 63 3c f3 d8 b4 3c
       0.049078118 0.01071854 0.01386015 0.022076106
0001d0 85 20 11 3d 04 18 e4 3c 34 bd 1a 3d ab d4 a0 bb
       0.035431404 0.027843483 0.037778094 -0.0049081645
0001e0 b0 9b 87 bd 11 5a 0c bd 7e 8a 77 bd 93 89 a4 bd
       -0.06621492 -0.03426558 -0.06043481 -0.08034053
0001f0 17 f8 77 bd 11 cc 24 bd 62 db 81 bd e9 6e 03 bd
       -0.06053933 -0.040233675 -0.06340672 -0.032088194
000200 c2 e1 39 bc 57 8e 4f bd f8 17 e5 3a 8f 49 28 bd
       -0.011345329 -0.050672855 0.0017478457 -0.041085776
000210 cb a6 7d bd 4f 76 62 bd 0a cf 08 bc de ed b2 bc
       -0.061926644 -0.05528861 -0.008350143 -0.02184194
000220 99 44 0a bd 68 37 63 bd 3b 3e 03 bd 5a 34 96 bd
       -0.033756826 -0.05547276 -0.03204177 -0.07334204
000230 42 66 32 bd 40 ce 9d bd f3 89 93 bd 26 75 4b bd
       -0.043554552 -0.07705355 -0.07204046 -0.04967227
000240 cd 35 83 bd 12 40 9b bd da 83 2d bd 14 16 77 bd
       -0.06406746 -0.0758058 -0.04236207 -0.06032379
000250 11 e2 5d bd d4 6e 15 bd 0c 31 9a bd 75 47 98 bd
       -0.05417067 -0.036482647 -0.07528886 -0.07435504
000260 ab 3a b8 bd 69 a1 aa bd f4 73 e8 bc 7c 83 3d bd
       -0.08995565 -0.08331568 -0.028375603 -0.04626797
000270 c9 18 4c bc a0 c2 31 bd b8 93 58 bc 6e d8 80 bd
       -0.012457081 -0.0433985 -0.013218813 -0.06291281
000280 e6 e7 e2 bc 49 0f c1 bd 91 b1 f0 bc 09 3f 75 bd
       -0.027698468 -0.094267435 -0.029381545 -0.059874568
000290 2c f0 86 bd fe 4e 80 bd 0c 4b 44 bd cd a3 af bd
       -0.06588778 -0.062650666 -0.047923133 -0.085761644
0002a0 fe 7b 6f bd 9b 41 a1 bd d4 80 b3 bd 98 b6 96 bd
       -0.058467858 -0.078738414 -0.087648064 -0.07359046
0002b0 2b 54 04 bd e8 c4 8b bd ed 73 94 bd 92 03 aa bd
       -0.03230683 -0.06824666 -0.072486736 -0.08301462
0002c0 1d ee 39 bd 7c 93 54 bd 7b a4 b0 bd 7f c4 c4 bd
       -0.0453931 -0.051898465 -0.08625122 -0.09607791
0002d0 0e 76 4a bd 40 1a 60 bd eb 46 43 bd 8f 63 0d bd
       -0.049428992 -0.054712534 -0.047675055 -0.034518775
0002e0 73 26 85 bd 61 5d 80 bd e4 e5 1f bd 59 48 60 bd
       -0.06501474 -0.062678106 -0.0390376 -0.054756496
0002f0 0b c4 8e bd 91 1c b8 bd b4 86 5e bd 52 a4 86 bd
       -0.06970986 -0.089898236 -0.05432768 -0.0657431
000300 61 21 2d bd bd 48 6a bd f9 74 64 bd eb d8 8a bd
       -0.04226816 -0.057198275 -0.055775616 -0.06779655
000310 76 f4 9d bd 1f 5a 25 bd 40 af 56 bd f6 00 2f bd
       -0.07712643 -0.04036915 -0.052413225 -0.042725526
000320 0e 95 5c bd cd af 0c bd 66 32 73 bd bc c8 46 bd
       -0.053853087 -0.034347344 -0.059374236 -0.04853128
000330 98 d5 5c bd 81 5c a8 bd b7 89 ee bc f4 8e b2 bd
       -0.053914636 -0.08220769 -0.029118402 -0.087186724
000340 3b 1c b5 bd 02 6c 35 bd f2 1e 77 bd 58 6b 42 bd
       -0.08843275 -0.044292457 -0.060332246 -0.047465652
000350 bb 11 b6 bd ee c5 96 bd aa 0e a6 bd 11 76 93 bd
       -0.088901006 -0.07361971 -0.08108266 -0.07200254
000360 e7 65 a1 bd bb 6b 33 bd 6d 0d fd bc 57 51 ef bc
       -0.078807645 -0.04380391 -0.030890191 -0.02921359
000370 61 3d 64 bd 0b 75 60 bd 7f ea 70 bc cc ac 7e bc
       -0.055722598 -0.05479912 -0.014704346 -0.015544128
000380 e8 74 5b bd d3 3d 32 bd f5 c3 18 bd 9a a1 82 bd
       -0.053578287 -0.04351599 -0.037296254 -0.06378479
000390 ae b4 82 bd 27 6d 8c bd 41 bc 8b bd cc c9 e4 bc
       -0.06382118 -0.06856757 -0.06823016 -0.027928255
0003a0 12 e0 51 bd 61 c9 6b bd cb 88 86 bd 93 42 91 bc
       -0.05123908 -0.057565097 -0.0656906 -0.01773194
0003b0 8c 4f 10 bd 0e ef 08 bd 0a bc 4b bc ac 1a 22 bd
       -0.03523211 -0.033431105 -0.012434969 -0.039576218
0003c0 ba fd 16 bc c8 1c 60 bd 8a d5 73 bb 79 ef 5a bc
       -0.009215767 -0.054714948 -0.0037206137 -0.013362759
0003d0 2a 0d 2a bc 79 79 4c bc c7 f4 c9 bc 07 f0 a4 bc
       -0.010379115 -0.012480133 -0.024652852 -0.020133985
0003e0 d9 53 07 bd 87 2a 64 bd 9a 16 bf bb 32 43 1b bb
       -0.033038948 -0.05570462 -0.0058315517 -0.0023691175
0003f0 27 90 ca bc 9a 34 81 bb 72 2c f9 bb 90 67 d1 bc
       -0.02472694 -0.003943038 -0.0076041752 -0.025562078

mlp.bias f4 [6]
000000 d5 a1 00 bc 7a 9e b0 3b f4 d1 09 bc b4 08 6e ba
       -0.007851084 0.0053899856 -0.008411873 -0.00090802764
000010 9a 31 ce bb d2 ed d4 3c
       -0.006292534 0.025992308
