models/UCIHAR_1D_Residual_Model.pt (torch, 47293 bytes, 26 tensors)

layer1.weight f4 [10, 9, 5]
00000000: f574 e9bd f410 263d d4aa 2fbd 7eb2 99bd
00000010: fea8 ac3c 9940 9d3d 61dd 853d a21c c4bd
00000020: 59ff 543c 14be 383d b748 323d f46b 6ebc
00000030: 93ee 0a3d 4c12 a4bc e7e3 fa3d 4b95 afbd
00000040: 12b5 b93d 2185 343e f9b9 9e3d 1c95 a9bd
00000050: b642 d8bd eed9 f4bb e02c 453d 1b6d c4bd
00000060: 71e1 193e eb95 6b3d e329 eb3d a90e d5bb
00000070: 1129 e33d 4c8c dabd 07a4 d93d 8991 08be
00000080: bfcb b3bd 7b12 f73d cb44 4f3d 61cf a1bd
00000090: 8c5a b43d 1cdd 863d 9120 193c d1ea c43d
000000a0: f575 25be 7f67 ecbd 9679 d8bc f8cc bbbd
000000b0: 5c34 0ebe 3adf 9fbd d678 dbbd 3471 d7bd
000000c0: 8cde c8bd 0ff3 03be 925a 223d 3399 0c3c
000000d0: 1b17 8ebd 226b b53d dff6 c9bd de09 fd3c
000000e0: a28d 1a3e 4d99 7a3d 14e4 bebd 0931 2ebe
000000f0: e3f1 babc b613 b9bc 71c5 e73c 4a6d f73b
00000100: d0a6 03bd c2cf b73d ce07 903d 983f debd
00000110: f24c bf3c 7666 b8bd 3d2c 173e 957a c13d
00000120: 645c 04bc 82fc ecbd d476 da3c 6a16 e83d
00000130: 508e b83b ba5f a2bd 6bf1 a7bd 932a d33d
00000140: db9e 673c 9e69 843d edaf 7abc ce91 b63d
00000150: b709 80bd 780e ab3c 7f47 89bc b010 bb3d
00000160: dfbb edbd 525c d13d a2ba f1bc 71b1 25bd
00000170: 9778 7fbc a574 1d3e b808 9bbb f8c6 a0bc
00000180: 78e2 5bbc 252a 3f3e 3cef 2f3e 6ece 833b
00000190: 16f7 5e3d ee7a 0c3e 04c4 083e 3aaf c3bd
000001a0: d8f1 83bb 9e1b 67bc c8a1 353d 6254 41bd
000001b0: 7b1b 2abd c43b fc3d cf8d a8bd 3be9 893d
000001c0: 13d1 59bc d7f8 0ebd bc1f ef3c 338a 813d
000001d0: d0db a93d 7bab b93c 9886 66bd 0d84 eabd
000001e0: 785b 11bd 624c c8bd 16b1 0ebe 1b9c 1bbe
000001f0: 0f31 21be 0b0c c03d 6bcb a7bd 3247 b7ba
00000200: 1481 b0bd bf8e cc3d 3f70 593d 19a3 44bd
00000210: abd6 d53d a1f5 5bbd e41d f93d d1c4 13be
00000220: 27e7 0abe e55a 573d cd74 8dbc ecf5 95bd
00000230: a041 06be e191 cabd 9970 d03c 85b3 a13d
00000240: 3b2c dcbd 66ca babd db2f e0bd 79da fb3d
00000250: b104 c43c 60c7 0e3e 4afc c23c 3c4e 24bd
00000260: 93ab a93d 4b3d 47bd 8850 013e 9f1a 6b3d
00000270: 5908 5abd 67b5 1cbc fa7a 90bc 280b c63d
00000280: 0d2e 1e3c 677f b73c ba44 0ebe ac28 23bc
00000290: 911e 013e f487 e9bd 2d53 a83d 932d dd3c
000002a0: 151e 153e 0f13 aebc fa20 d1bd b405 6e3d
000002b0: 671d 0bbe 497a 9c3c b351 27bd 9ac0 a6bc
000002c0: 2601 d1bd 7d9e 0dbd b0c5 453b 8b4c bf3d
000002d0: 6d18 3d3d aaca 4fbc 324b 3d3c 44d4 09bb
000002e0: 3e97 9cbd 28e5 343e 8314 2b3d 9e5a 29bc
000002f0: 739d c43c 1ae9 a73b c480 5abd 19c3 7e3c
00000300: 2ca6 7dbd 5f49 95bd 831e efbd e88f 35be
00000310: 2346 c1bd 759b cbbb 3fc3 8cbd 13c5 02bd
00000320: fdbc b8bd 1596 9dbd 01bc 553d f7d5 0cbd
00000330: efb3 c4bd 8284 96bd 9d52 bbbc 3488 a7bd
00000340: 2b1d 313e 39ef f9bd c7d9 ad3c a0ac 24be
00000350: 0927 053e 274a 08be fafb d83d 2c00 c7bd
00000360: ffc9 993c 65e9 383e 9239 c0bb f085 973c
00000370: 7203 c33d 47be be3d b5cf df3d 908f c53d
00000380: 0e63 ad3d d455 e93b 0e22 4f3d ccef 47bd
00000390: 4d38 ee3d 5fec b13c 61cd 413d d687 a73d
000003a0: b74d bc3d de0b 3f3d f64e c0bd a36a 133e
000003b0: 0179 dcbd bcbf e3bd 73c4 d93c 2c5a 353e
000003c0: e394 983d e5c3 373d 2add f33c 62be 103e
000003d0: de15 ad3d e34c d2bd 20d5 833d 2ab6 c7bc
000003e0: bd3c dcbc 2d93 a9bd 2e68 11bd 240c ac3c
000003f0: 4eb6 5b3c 4479 003d 7db6 1e3e 955c febd
-0.11399261 0.04054351 -0.042887524 -0.07504748 0.021076676 0.07678337 0.06536365 -0.09575774
0.013000333 0.045103148 0.043526378 -0.014552105 0.03391893 -0.020028256 0.122505 -0.08573397
0.090677395 0.1762891 0.07750315 -0.082803935 -0.10559599 -0.0074722683 0.0481385 -0.09591123
0.15027405 0.05751602 0.11482599 -0.006501992 0.11091817 -0.10671291 0.10626989 -0.13336767
-0.08779096 0.12064072 0.050602715 -0.079008825 0.08806333 0.06585142 0.009346143 0.096151
-0.16158278 -0.11543178 -0.026425164 -0.09169954 -0.13887161 -0.07806249 -0.10716407 -0.10519639
-0.098080724 -0.12885688 0.039637156 0.008581447 -0.06938001 0.088583246 -0.0986154 0.030888494
0.15093091 0.061181355 -0.09320846 -0.17010893 -0.022820419 -0.022592407 0.02829239 0.00755087
-0.032141507 0.089751735 0.070327386 -0.10851973 0.02335212 -0.09003918 0.1476297 0.09447209
-0.008078668 -0.115715995 0.02666799 0.113324 0.0056321993 -0.07928415 -0.08200344 0.10310855
0.014136995 0.064654574 -0.015300733 0.08914529 -0.06251853 0.020880923 -0.016757725 0.09134042
-0.11608099 0.10222687 -0.029507939 -0.040452424 -0.015592716 0.15376528 -0.004731264 -0.019626126
-0.013420694 0.1866842 0.17181104 0.004022411 0.05443486 0.13718769 0.13356024 -0.09554906
-0.0040266328 -0.014105706 0.04434374 -0.047199614 -0.041530114 0.12316087 -0.08230173 0.06733938
-0.013294476 -0.03490528 0.029189937 0.063251875 0.08293879 0.022664776 -0.056280702 -0.11450968
-0.035487622 -0.09780194 -0.1393474 -0.15196268 -0.1574137 0.09377297 -0.08193096 -0.001398301
-0.0861837 0.09988164 0.05308556 -0.048007105 0.10441335 -0.053701047 0.12163904 -0.14430548
-0.1356474 0.05257692 -0.017267609 -0.073222965 -0.13110971 -0.098911054 0.025444316 0.07895569
-0.10750624 -0.09120636 -0.10946628 0.1229753 0.023928018 0.13943243 0.023801941 -0.040113673
0.08284678 -0.048642438 0.12628376 0.057398435 -0.053230617 -0.009564734 -0.017636765 0.09670097
0.009654534 0.022399617 -0.13893405 -0.009958427 0.12609316 -0.11402884 0.082189895 0.02699927
0.14562257 -0.021249322 -0.10211368 0.058110908 -0.13585435 0.019101279 -0.0408494 -0.020355511
-0.10205297 -0.034574974 0.0030177645 0.09340771 0.046165872 -0.012682596 0.0115535725 -0.0021031061
-0.07646035 0.17665541 0.04176761 -0.010336546 0.024000859 0.0051242234 -0.053345457 0.015549445
-0.061926052 -0.07289385 -0.116757415 -0.17730677 -0.09437206 -0.0062136003 -0.06873178 -0.031926226
-0.09020422 -0.076946415 0.052181248 -0.03438374 -0.09604632 -0.073494926 -0.022866542 -0.081802756
0.17296283 -0.12203831 0.021222008 -0.16081476 0.13003172 -0.13309537 0.10594936 -0.0971683
0.018773077 0.18057783 -0.005866238 0.018496484 0.095221415 0.09313636 0.10928289 0.09646523
0.08466159 0.007120827 0.050569586 -0.048812672 0.11631832 0.021719156 0.047315005 0.081802055
0.091945104 0.046642177 -0.093900606 0.14396147 -0.10765267 -0.11120555 0.026582932 0.17710179
0.07450273 0.044864554 0.029768545 0.14135125 0.084514365 -0.10268571 0.06437135 -0.024378855
-0.026884431 -0.08280025 -0.035499744 0.021001883 0.013410164 0.031365648 0.15499301 -0.12420002

layer1.bias f4 [10]
00000000: af6c 80ba a2b9 fcbd fccb 16be 891d a4bd
00000010: a040 8c3d 42e2 2bbc f7b0 0e3e 1a23 15be
00000020: d720 0cbe 7207 143e
-0.0009798015 -0.12340094 -0.14726251 -0.08013446 0.06848264 -0.010490956 0.13934694 -0.14564171
-0.13684402 0.14455965

batch_norm_layer1.weight f4 [10]
00000000: 658f 7a3f da3b 7e3f 64e2 813f 28f8 843f
00000010: 2773 743f 47c8 773f 09fb 743f 8ce0 863f
00000020: 0b82 7f3f 82ef 6f3f
0.9787505 0.99310076 1.0147214 1.0388231 0.9548821 0.96789974 0.9569555 1.0537276
0.99807805 0.93724835

batch_norm_layer1.bias f4 [10]
00000000: f379 febc 80e0 c63c cffc 013c c3db 8f3c
00000010: d399 733b 7d23 f2bb c80a 99bc 9e00 433d
00000020: 8bd1 71bb 75e2 293c
-0.03106401 0.024276972 0.007933809 0.017560845 0.0037170544 -0.0073894844 -0.018681899 0.04760801
-0.003689858 0.010368933

batch_norm_layer1.running_mean f4 [10]
00000000: ce9a 5c3c 330b 88bd b4ca 1cbf 9212 353c
00000010: 020e 913d 4276 81be 0907 53bc d6c5 9c3c
00000020: 61e8 cb3d fdf4 253e
0.013464643 -0.06642761 -0.612468 0.011051791 0.0708275 -0.25285536 -0.012880095 0.019137304
0.09956432 0.16206737

batch_norm_layer1.running_var f4 [10]
00000000: d217 193d 404a 8d3c 46b6 9f3d 3062 b93c
00000010: 2512 7e3d a09a 023d ee25 663c 2416 4f3d
00000020: 949c 0d3c 90aa 093d
0.037376232 0.01724732 0.07798438 0.022629827 0.062029023 0.031885743 0.014047129 0.050558224
0.008643288 0.033609927

residual_block.layer1.weight f4 [10, 10, 5]
00000000: 75a3 063e 0b1e dcbd c817 71bd bf9f 3bba
00000010: 49bf 98bd da25 ad3d a2f7 e0bd 46ff f0bd
00000020: 3429 743d 096c c7bd 8d5a c33c 33fd a6bd
00000030: 9406 173a 4429 443b 61a4 2b3d f1ef 0c3d
00000040: 3e9b 38bd 9fee 0a3d 45eb cc3d 7ae7 27be
00000050: 3d33 cdbd 9297 a03c 2f16 46bd 963f bc3b
00000060: f838 0e3e 7051 1fbd 04ec df3d b273 3abd
00000070: 7ebc 24bd 3c83 ba3d 1e38 7abd 47f2 83bd
00000080: 3eb1 45bd 215d 213d 5f4a 333d 2f11 d33d
00000090: 00b2 1c3e a412 cc3d bdc5 1e3d 1acc debd
000000a0: 1f04 6f3d 3e88 88bd 3684 e23d 2afa f63c
000000b0: ecc7 bbbd b21b dabd f57c 70bd 2f0a 13be
000000c0: b519 a13c 4ec5 50bd 3cbe cbbd 6cd0 023e
000000d0: 7f9f 5f3d cf17 0ebe 4c8e 9cbd a191 9b3d
000000e0: 7656 f5bd b198 3e3d 5d3c 88bd 44ed b6bd
000000f0: 35c0 093e 7846 37bd 1894 bdbd ba2b bb3c
00000100: 7079 1cbd e73c f6bd 27b2 a93d 135d 8abd
00000110: ce45 863c 9bd6 8c3c 0712 973c 3979 fe3c
00000120: 0f19 a93d cd90 05bc 83da 8abd d740 023d
00000130: ffd4 afbd 1917 83bd 84b1 c13c 44fa babb
00000140: 1d95 88bd 94f7 07be a30c e5bd c1c0 333d
00000150: ff65 053e 7748 5b3c 7f05 ddbb 88f3 97bc
00000160: cfc4 eebb c84a a5bc 45fa 73bc 5cff 123e
00000170: 5a57 8c3d 2575 afba a230 2b3e c626 883d
00000180: e619 de3c 6297 d4bd c6a8 67ba 9f9a 9fbc
00000190: 2a47 b3bd c315 9a3d e535 383d b3a0 3b3d
000001a0: 7531 943d 15f3 a7bd 51aa ecbd f072 8b3d
000001b0: 8b39 173c cc4c 9c3c cacd 84bc f45d 9d3c
000001c0: 2317 d7bd fc48 7dbc 8762 20be ac48 14bd
000001d0: 696b a03d b88e 813d 61f8 85bd 5a5f fabd
000001e0: c9bf 003d 7669 803d 47c0 f93d 9f66 1bbe
000001f0: 8d24 09be dcf1 b53d 3d49 c73c fc5c ae3d
00000200: 33f6 0bbd 05d7 c1bd 9069 f9bd a260 3cbd
00000210: b0d9 b0bd 55e8 063e 8458 ffbd 1497 45be
00000220: f4d5 6dbd bf47 3cbe a683 08be d58a 20be
00000230: 6b6a a13d 3458 0bbd b4c2 003a 35b5 b1bd
00000240: baed 10be 2c14 9dbd a5b6 9f3d b7c1 b63d
00000250: d214 f13d e4e0 a3bd 94c2 17be 5a3f dabd
00000260: 02c4 393d c54a 9fbd d989 a1bd 327e 1bbd
00000270: 8aae 373c 028c a9bd 2878 ec3d 251b 6dbd
00000280: 799b 80bd 24e1 91bc 0b34 f53d 48de 4dbd
00000290: 16c8 e7bb d809 a43d 9e10 a6bd 4cf7 923d
000002a0: 96c4 9a3d bb85 d03d a5e6 b93d 0991 d2bd
000002b0: 5ba8 df3b c165 93bb d0b2 203d 8453 5ebd
000002c0: ddb4 a53d 15da 933c 5686 e3bd 425d f23c
000002d0: 98fc e93d 82bc 04be 5ad3 8c3b 0e1b 053c
000002e0: df9a d4bd 3a40 abbc f386 f2bd e5b9 503c
000002f0: d193 06be da69 58bc d9ee 0a3d d405 d03d
00000300: 680b 053e 1061 82bd 9219 a73c 892b 93bd
00000310: 2d28 64bd 7a56 d73d bd0d e5bc e7bc 0e3e
00000320: 0cf0 c43c 524a b4bd 3fe9 ab3d 399a 01be
00000330: f152 54bd a52d da3d afe9 12be 94e3 b93d
00000340: ef55 96bd c6e3 67bd 9ba9 b1bd b568 c4bd
00000350: 5f26 36bb f30e ccbd 28c0 06bd 481f 7d3c
00000360: 4dc3 a2bd 6733 d43d 6976 01be 222f 02be
00000370: 3ded 62bd 71ca 30bd 7213 373d 7ad3 bebd
00000380: 26c2 063e c7df 853d 7199 b2bd f62a e53d
00000390: dbd8 9d3d 857a b2bd 7888 f93d 5c24 943c
000003a0: 5354 df3d 166b b1bd e2d4 8e3d f334 c4bc
000003b0: efa2 133d 32b7 d3bd 26cf 773d d00a 343e
000003c0: 1a7c 75bd 4065 153d 1e24 d33d f6ec 103d
000003d0: bb6f 6bbd c11e 66bd 5bb9 82bc e9fb dd3d
000003e0: b881 cebd 96e2 91bd b1c5 ca3d 11db 8dbd
000003f0: d728 9dbd 65e1 5d3d 5dce 31bd 179a 4e3d
0.13148291 -0.10747918 -0.05886057 -0.0007157288 -0.0745836 0.08454485 -0.10984732 -0.117674395
0.059609607 -0.09737403 0.023846889 -0.08153763 0.0005761173 0.0029931823 0.04190481 0.034408513
-0.045069925 0.033918973 0.100058116 -0.16396895 -0.100195386 0.019603524 -0.048361 0.0057448847
0.1388892 -0.038896024 0.10933688 -0.045520492 -0.040218823 0.09107062 -0.061088674 -0.06442695
-0.048264734 0.039395455 0.043772098 0.10306012 0.15302277 0.09964493 0.038762797 -0.10878773
0.05835354 -0.06666611 0.110603735 0.030148584 -0.091689914 -0.10649814 -0.05871292 -0.14359353
0.019665578 -0.050969414 -0.09948394 0.12774819 0.054595467 -0.1387627 -0.076443285 0.07596136
-0.11979382 0.046532337 -0.066521384 -0.089319736 0.13452227 -0.04474494 -0.09256762 0.022847999
-0.03820175 -0.12023335 0.08285933 -0.06756034 0.016390707 0.017192176 0.018441213 0.031063663
0.08256733 -0.008152199 -0.06779959 0.031800117 -0.08585548 -0.0640089 0.023644216 -0.0057061035
-0.06669066 -0.13278037 -0.11184051 0.043884996 0.1302719 0.013383976 -0.00674504 -0.018548742
-0.007286645 -0.02017726 -0.014891212 0.14355224 0.068525985 -0.0013386352 0.1671777 0.066480204
0.027111959 -0.103804365 -0.00088371 -0.019482909 -0.08753808 0.07523682 0.044973273 0.04580755
0.07235996 -0.08200661 -0.11555923 0.06809032 0.009230028 0.019079588 -0.01621141 0.01920984
-0.1050246 -0.015459295 -0.15662585 -0.036202118 0.07832987 0.063260496 -0.06541515 -0.12225218
0.0314329 0.06270115 0.12194877 -0.15175866 -0.1339285 0.08884022 0.024326915 0.08513829
-0.03417034 -0.0946484 -0.121783376 -0.045990594 -0.086352706 0.13174565 -0.12468055 -0.19295913
-0.05806537 -0.18386744 -0.1333147 -0.1567796 0.07881626 -0.034019664 0.00049118255 -0.086771406
-0.14153185 -0.07669863 0.077985086 0.08923667 0.11771549 -0.08001879 -0.1482032 -0.106566146
0.045352943 -0.07777933 -0.078876205 -0.037962146 0.011211047 -0.082786575 0.115463555 -0.057887215
-0.06279654 -0.01780755 0.11972817 -0.050260812 -0.0070734126 0.0800969 -0.08108638 0.071760744
0.07557027 0.10181757 0.09077195 -0.102815695 0.0068254895 -0.004498214 0.03923303 -0.054278865
0.080911376 0.018048326 -0.11109607 0.029585484 0.114251316 -0.12962535 0.004297656 0.008124126
-0.10381102 -0.020904649 -0.11842146 0.012739633 -0.13142325 -0.013208831 0.03391919 0.101573616
0.12992632 -0.063661695 0.020397935 -0.07186038 -0.055702377 0.10514541 -0.027960652 0.13939248
0.024040245 -0.08803238 0.083940975 -0.12656488 -0.05183691 0.10653237 -0.14346956 0.0907661
-0.07340609 -0.056613706 -0.08674928 -0.09590284 -0.0027793867 -0.09963789 -0.0328981 0.015449353
-0.07947407 0.10361367 -0.12642826 -0.12713292 -0.05540203 -0.043161813 0.04469628 -0.0931768
0.13159999 0.06536823 -0.08720673 0.11189835 0.077073775 -0.08714775 0.121842325 0.018083744
0.109047554 -0.08663003 0.06974198 -0.02395103 0.036044057 -0.10337676 0.060500287 0.1758225
-0.059932806 0.036473513 0.10309623 0.035382234 -0.0574796 -0.056181673 -0.015957525 0.10839064
-0.10083336 -0.07123296 0.09900988 -0.06926549 -0.07673805 0.05417003 -0.043409694 0.05043992

residual_block.layer1.bias f4 [10]
00000000: 456b 083d 3923 11bd 899b c63c 63b8 3e3d
00000010: c002 febd a060 a63d 7a56 a03d f860 8d3d
00000020: 7862 cbbd 61b9 d33d
0.033305425 -0.03543398 0.024244087 0.046562564 -0.12402868 0.081238985 0.07828994 0.06903261
-0.09930891 0.103380926

residual_block.batch_norm_layer1.weight f4 [10]
00000000: 5517 823f d6b5 803f 9b16 7d3f 74b3 813f
00000010: f265 7e3f 5c15 7e3f 3776 793f e5a6 7e3f
00000020: e03f 7d3f c007 803f
1.016337 1.0055492 0.9886262 1.013289 0.99374306 0.9925134 0.97446007 0.9947341
0.9892559 1.0002365

residual_block.batch_norm_layer1.bias f4 [10]
00000000: 65ed 30bd 5a2f 8dbc 9926 363d 20e9 22bd
00000010: 8d72 24bc 0a74 f5bc df44 27bc e248 87ba
00000020: 47c1 73bc 6362 76bb
-0.043195147 -0.017234493 0.044470403 -0.039773107 -0.010037077 -0.029962558 -0.010209291 -0.0010321403
-0.014877624 -0.0037595264

residual_block.batch_norm_layer1.running_mean f4 [10]
00000000: 1e08 9abd 2ce0 00be 59b5 00bf 7c67 33bd
00000010: bb46 8ebe 2ac5 c5bd cd6a 5abd bbb8 8fbe
00000020: 96f2 373b 289b 00be
-0.075210795 -0.12585515 -0.50276715 -0.043799862 -0.27788338 -0.09656747 -0.05332451 -0.28070626
0.0028068176 -0.12559187

residual_block.batch_norm_layer1.running_var f4 [10]
00000000: 6ca2 aa3d 4153 ce3d 1029 7e3e 04ea 983d
00000010: 54b3 d73d 7267 f83d ff57 d73d 8ab3 e93d
00000020: 951c ce3d 515b 373e
0.08331761 0.10074473 0.24820352 0.0746651 0.10532251 0.12129106 0.10514831 0.114111975
0.10064045 0.17905928

residual_block.layer2.weight f4 [10, 10, 5]
00000000: 286d f83c 52e3 dfbd 5ef7 82bb e941 99bd
00000010: d5ed 6abd 6276 00be 2dc3 a9bd 3066 99bd
00000020: cb94 113c b2ac 07be a3af 99bd 8cae abbd
00000030: 0b41 e33c 4689 973b 647c 883b 34ff c2bd
00000040: 5012 3abd 8220 24bd ddc2 62bd 4a9e 19bb
00000050: 8979 92bd 9743 77bc 5d69 bdbd 04c7 02be
00000060: 6599 c83d 27a4 163e f086 a33d e232 91bd
00000070: 3a12 ad3d 76d3 283d 038d ef3c 09b7 41bd
00000080: f1af ed3d 909d df3d 524a 01be 49a5 bb3d
00000090: 461e 73bc a23c 81bc 002c ec3c 993e 993d
000000a0: efb7 d1bd 0852 953d 3048 c53d 343a 05bc
000000b0: 7897 e53d 6e52 e2bd bd83 823b 2da0 36be
000000c0: f253 e93c 6c31 593c 1192 3d3d 1bd9 e53d
000000d0: 01b5 b33c c2ec 0a3e c2bb f03d 257a 94bd
000000e0: bb4e 9e3d 3cba 933d 1837 9b3d c985 d03d
000000f0: 09a8 dabc b563 77bd a485 4c3d 734d ca3d
00000100: 5ccf 063e 3eac 5a3c 7695 bd3a 023e de3c
00000110: b229 d9bd 49ea 903d 34cc 8dbc 9c74 d5bc
00000120: 1e6b 3cbd cc24 b9bc e237 f6bd 838e 57bd
00000130: 15a8 efbd 7173 babc b2ce b2bd 9362 abbd
00000140: 3f5f 03be cdfa f23d 26eb c5bc 0b5a d3bd
00000150: af6a 5cbd ed10 1a3a f76e 7fbd 9f7e c4bd
00000160: f3b5 ab3d b9fd 043e d984 fb3d db20 0ebe
00000170: 1fcf dc3d 611f 82bd 7df9 1fbe 186e 963d
00000180: 0218 ad3d 0a07 423b f40d 6d3d b68f da3d
00000190: 6582 ae3c e43e b2bd cdd8 d8bc fe90 23bd
000001a0: ba04 08bd 089f 773d a767 b4bd 7b06 75bd
000001b0: 6b6d 053c f59a b5bd 6c3c ddbd 9298 1dbb
000001c0: aa02 223d 698e c9bd 2f6e f7bd bca5 0bbe
000001d0: b673 12be 99d1 e43d 1e52 7cbc 736c 8dbd
000001e0: 12d2 d43c a740 e5bd 900a 523a 82a9 d13d
000001f0: 6ccf ffbc dfec da3b 5efd 26bb b96e cabd
00000200: 4af5 d63b fd14 a63d 2995 9cbd d7dd b53d
00000210: f648 eabd 93b3 e23d 1f3c f33d cb9a 023e
00000220: eee6 ef3d 7288 0f3e fa4a 3f3d d586 883c
00000230: 842c 273e 4b6f 853d 109f f13d 93cb 76bd
00000240: 66e8 16bd 6c7e cbbc 0048 0f3e a963 3fb8
00000250: 77fb cabd 87e4 06bd 0f35 19be cbcd 19be
00000260: c35c dfbb 63a2 72bd c354 533d 2c16 0c3d
00000270: a617 09be c6d6 bd3d 17c6 d13c 629c a33c
00000280: 2adb cfbc 825d f6bd 7402 60bb f039 bfbb
00000290: 3959 6cbd a01f b43d a8dc 713d 291f 4e3b
000002a0: b0ef ecbd 1505 49bd 9d4f bb3c d158 acbd
000002b0: 6ba3 93bd efce 39bd 810a bd3d 5220 5ebd
000002c0: 731f 89bc 2fd1 d8bd 0576 b2bc 4728 e5bd
000002d0: 0b40 2cbc 64e8 963d 960d 333d ec2a 333c
000002e0: 5221 9cbd 2911 12be 912c 15be 0a75 8a3d
000002f0: 70b3 053e d40b be3d cdc0 753d 7666 663d
00000300: 5ac6 463b 0785 b03d aa08 61bd 440b 543d
00000310: 06f0 17be 2841 a9bd f074 13bd c819 12be
00000320: 3c5a f03c b160 623d c847 0f3e 7920 313c
00000330: 354d 0e3e b8c2 91bd 5c47 82bd 01ca b1bc
00000340: 3f8f 11bd 2dd6 04be 0f4d de3d 22a7 0abe
00000350: d988 d8b9 1466 cdbc 6c32 bc3d adc9 e5bc
00000360: 607c c3bd 7cc1 e13d 5b52 fbba 86e0 f23d
00000370: 6698 10bd ff32 b53d 791b 3d3d 14f8 f7bb
00000380: dd07 863d 9b5a 3d3d fe11 a43c 3a46 a1bc
00000390: 96c7 7b3d c2ae 86ba 606a 48bd c1d2 fa3c
000003a0: 3a16 5dbd 2132 843c fde6 f33d d0da 973b
000003b0: 3702 053e d055 abbd e2b4 b03d f169 0a3e
000003c0: 2748 2fbd 3916 8fbd 57aa 79bd d4f6 8a3c
000003d0: 8ed1 2dbb 1478 91bd b995 adbc 9d4a b13d
000003e0: b5d4 b6bd cd5f 763d e27e 57bd a7e9 17be
000003f0: e898 a93d a256 fa3c 3c21 2dbd ce41 adbd
0.030325487 -0.1093203 -0.0039967736 -0.074832745 -0.05735572 -0.1254516 -0.0828918 -0.07490194
0.008885573 -0.13249472 -0.07504203 -0.083829015 0.027740976 0.0046245186 0.004165219 -0.095213324
-0.04542762 -0.040070064 -0.055361617 -0.0023440295 -0.07152087 -0.015091798 -0.09248612 -0.12771231
0.09794883 0.14711057 0.07984722 -0.07089783 0.08450742 0.04121729 0.029242044 -0.047293697
0.11605824 0.109187245 -0.12626007 0.09162385 -0.014838761 -0.015775982 0.028829575 0.07482643
-0.10240161 0.07291037 0.09632909 -0.0081315525 0.11210531 -0.110508785 0.0039829896 -0.1783454
0.028482411 0.013256412 0.046281878 0.1122305 0.021936895 0.13566878 0.11754562 -0.0724986
0.077298604 0.07213256 0.07578868 0.101817675 -0.026691454 -0.060397822 0.049932137 0.098780535
0.13165039 0.01334673 0.0014464098 0.027129177 -0.10603656 0.07075936 -0.017309286 -0.02605658
-0.046000592 -0.022600554 -0.120223776 -0.052626144 -0.11701981 -0.022760125 -0.0873083 -0.08368411
-0.12829302 0.11864243 -0.02415998 -0.10319909 -0.05381268 0.0005877156 -0.062361684 -0.095944636
0.083843134 0.12987413 0.12281198 -0.13879721 0.10781693 -0.06353641 -0.15622516 0.073452175
0.08451845 0.0029606246 0.057874635 0.10671942 0.021302411 -0.08703402 -0.026470566 -0.039933197
-0.033207633 0.0604544 -0.088088326 -0.059820633 0.008143763 -0.08867446 -0.1080254 -0.0024047238
0.039553322 -0.09841616 -0.12081563 -0.13637441 -0.14301953 0.1117279 -0.015400438 -0.06905451
0.025979076 -0.11193972 0.0008012438 0.10237409 -0.031226836 0.0066810693 -0.0025480608 -0.098844
0.0065600025 0.08109472 -0.076456375 0.08880203 -0.114396974 0.11069407 0.118767016 0.12754361
0.11713968 0.14016894 0.046702363 0.016665855 0.16325575 0.06515368 0.11797917 -0.060252737
-0.036842726 -0.024840556 0.1399231 -4.5630764e-05 -0.09911244 -0.032932784 -0.14961646 -0.1501991
-0.006816478 -0.059236895 0.051594507 0.034200832 -0.13387927 0.092694804 0.025607152 0.01997203
-0.02537306 -0.12029554 -0.003418115 -0.005835764 -0.057702277 0.087950945 0.059048325 0.0031451678
-0.11569154 -0.049077112 0.022865111 -0.08415378 -0.07208904 -0.045363363 0.09230519 -0.05423004
-0.016738629 -0.105867736 -0.021784792 -0.11189323 -0.010513316 0.07368544 0.04371413 0.010935526
-0.07623543 -0.14264359 -0.14567782 0.06760605 0.13056731 0.092796 0.059998322 0.056250058
0.003033063 0.08619123 -0.054939903 0.051768556 -0.14837655 -0.08264381 -0.036000192 -0.14267647
0.029339902 0.055267993 0.13992226 0.010810965 0.1389664 -0.07117218 -0.06361267 -0.021702768
-0.035537 -0.12972327 0.108545415 -0.13540319 -0.0004130069 -0.025073089 0.09189305 -0.028050268
-0.09545207 0.11023232 -0.0019174324 0.11859231 -0.03530159 0.08847617 0.046168778 -0.007567415
0.065444686 0.046228986 0.02002811 -0.019686807 0.061469637 -0.001027547 -0.048929572 0.030618073
-0.053976275 0.016137185 0.11909292 0.004634239 0.12989126 -0.08365977 0.08628251 0.13516976
-0.04279342 -0.069866605 -0.060953464 0.0169634 -0.002652261 -0.07102981 -0.021189557 0.086568095
-0.089272894 0.060149956 -0.05261124 -0.14835225 0.08281118 0.030558888 -0.042268023 -0.08459817

residual_block.layer2.bias f4 [10]
00000000: 4036 27be 5ee4 01be fabe 1f3c dfc6 d0bb
00000010: 0805 383d 2210 cfbd 9623 673d 2dac a23d
00000020: 8ed8 e3bd 71b1 523d
-0.16329288 -0.12684771 0.009750122 -0.0063713635 0.044926673 -0.10110499 0.05643042 0.07942996
-0.11125289 0.051438753

residual_block.batch_norm_layer2.weight f4 [10]
00000000: b301 863f 532b 853f e19a 763f 84ae 753f
00000010: 870e 883f 5c9a 813f 7b66 803f 4002 823f
00000020: 1535 863f d9d8 873f
1.0469269 1.0403847 0.96330076 0.95969415 1.0629433 1.0125232 1.0031275 1.0156937
1.0484949 1.0613052

residual_block.batch_norm_layer2.bias f4 [10]
00000000: 46a3 2d3d 1ff1 6dbc 4e89 21bd a643 9abc
00000010: f595 de3b 127c aa3c c0df 503c cea5 be3c
00000020: a860 ec3c 69af d33c
0.042392038 -0.01452282 -0.039437585 -0.018831085 0.0067927786 0.020811114 0.012748659 0.023272421
0.028854683 0.025840478

residual_block.batch_norm_layer2.running_mean f4 [10]
00000000: 8f63 e4be f22d 533a e62f eebc 77bf bfbe
00000010: 7784 773e 696f 42bd 0e7a 723d 56da 943e
00000020: 8a79 a0be 9d4f 153e
-0.44607207 0.00080558576 -0.029075574 -0.37450764 0.24171625 -0.04746953 0.05919843 0.29072827
-0.31342727 0.14581151

residual_block.batch_norm_layer2.running_var f4 [10]
00000000: 9c2a 303e 165f ca3d db6d 843d 5142 bf3d
00000010: 0e93 473d afa1 393d b188 073e 9866 0d3d
00000020: 1b00 6b3d 8dbc ce3d
0.17203754 0.098814175 0.06466266 0.09338821 0.048724227 0.04532021 0.13235737 0.03452167
0.057373147 0.10094557

layer2.weight f4 [10, 10, 5]
00000000: 6e7d 14bd 9433 623c 9fd8 083e 6d61 05be
00000010: 98db 1ebd 4c3b 4a3d 59b4 183e 36eb 423d
00000020: f2ce c43d 87c5 e93d ddae 203a b974 94bd
00000030: f112 eb3c 5444 583d 3604 00be 35a6 30bd
00000040: 00d0 c1bd c035 5fba eab5 ea3d 970d 643d
00000050: b948 7fbd a772 573d 21de 293c d604 2e3e
00000060: 698d 4f3c a439 f33b 0ddf e63c 561c 85bc
00000070: d4b5 4f3d 4828 98bd da36 843c 394d 14bd
00000080: c9f9 dabd 7317 89bd a0dd 5d3d 129a d6bc
00000090: 8b4c dd3d b50d d5bd e339 a43d eb28 a4bd
000000a0: 65d8 013e a90a e3bb 65a6 f63d 7266 aa3d
000000b0: 486f 913d da80 293d a96e 0c3e b866 fabc
000000c0: 7a7c 043e 51f4 b93d 47b4 c13d 5a3f afbd
000000d0: 0e2d 1abe f43b fb3c 11fa bdbd eeca a33d
000000e0: 48c0 2abd 8fb7 9a3d 6b12 b33d 4ac9 89bd
000000f0: 375a bc3d 87bb 13bb bae1 7f3d a57f c53d
00000100: f4f7 45bd cd5e 233e 34b6 53bd d1e1 173e
00000110: 89a2 d1bc 979e 373b e63a febd 7b9a 04be
00000120: f7f3 97bd 704e 2ebe efdb 04be 2de6 c1bd
00000130: 39db babd 063d 033e 4b3c 06be d069 383d
00000140: d54c ad3d ff77 b53d 6f28 7cbc 8a37 0cbd
00000150: daac d33d 789d 8d3c 99dc e03a 7494 063e
00000160: 4dd4 8c3d 6beb 6a3b 6109 83bb bb3c 433d
00000170: 2759 09bd d773 373d c28f 33bb bb25 a7bd
00000180: b87e febd 5790 fbbb 5429 6f3b af87 643d
00000190: 99aa 1abd 469b 1bbe c082 d6bc 55a0 e03d
000001a0: 414b 523d fb6b f4bc 0328 183c a772 09be
000001b0: eeab 3abe c496 85bd e150 a93d 91d9 1abd
000001c0: f00f 803c 57ee 093e 66b0 39bd 5e28 023d
000001d0: 68d4 bf3d 8304 bb3d 2cb2 21bd 3efa a7bd
000001e0: 1860 e3bd 863a a1bc 7128 00be 91bb 3d3d
000001f0: c955 023c 380f 90bd 23a5 be3d 34aa 0abe
00000200: ccc5 95bc eedc 02be c01f 653d 513e 163c
00000210: 8bc3 57bc 6602 ba3d e713 523d 9bf5 63bd
00000220: 09ff 033e 7a18 a8bd ba1a 063c 0f4f cc3d
00000230: f13f 1b3c bd99 fc3b 20e6 cc3d 2856 9e3d
00000240: 679f 1b3e 9609 7c3d 85b8 d8bd 8cdb ca3d
00000250: 5c0b 1abe b092 953d 71f7 d63b ebaa b1bd
00000260: e7f2 033d 1f2b 19be dee7 7abd 66a5 dabd
00000270: cd42 cbbd 8ca9 c23c 171b 9b3d ba09 a4bd
00000280: c4e9 c8bd 20ae 04be c8c8 953c a561 113d
00000290: 3d6f 8f3d 507f b9bc eeb4 c1bd 9bb7 0f3e
000002a0: ddae 9fbd 78e2 b73d fa15 08bd 2c84 9f3d
000002b0: 0171 0fbd 7438 80bd 2497 cfbd 6209 ea3d
000002c0: 2389 d23d f32e d5bd 07e8 d0bd 5347 643d
000002d0: df93 623d 9e5d 2d3c 699f dfbd a9dc 953c
000002e0: 0357 2f3d 101f d43d 7caa b93d b150 15bc
000002f0: 4039 8ebd d810 fa3d 7f5d a3bc 6d39 01be
00000300: befa 503d 0bfa 30bd 59fb ddbd f3dc 8fbd
00000310: 4cf6 c93d 9411 50bb a6dc ddbd 78bf 683d
00000320: 8ff0 663c 0935 5fbd 027c 15bd 085e 62bc
00000330: 43c4 16bb 96c3 5fbd 2e32 293e cdde ba3d
00000340: baec 0a3e 9a13 f73d 11df 063d 72c5 41bd
00000350: 55bb 4d3d 03da c53c 9657 d83c df9f cb3d
00000360: 2195 c73d a09b cf3d ff0c a73d a9e0 8ebd
00000370: 624d f43d cf88 f4bd 924a 043e 4cc9 ebbd
00000380: 9183 e1bd a332 9ebb 1173 00bd b2dd a7bd
00000390: b786 96bb 54eb b0bd 8fde 5c3d 937d a33d
000003a0: b450 83bd e7ff a7bc 14d6 f43d a678 aabd
000003b0: bd11 0b3e 41b5 cc3d 4b2c e3bd eaaf 8dbd
000003c0: 7ef6 993d f611 493d f98b d43b 9210 873c
000003d0: 2bc8 3c3d e3b0 03be 187f 5f3d 12fc f3bd
000003e0: de03 893d 4841 0dbe 3901 613b ba87 933c
000003f0: a992 11be fe70 0dbe c924 103d 36b5 e4bc
-0.03625243 0.0138062425 0.13363884 -0.13025446 -0.03878364 0.049372956 0.14912547 0.047587596
0.09609784 0.114146285 0.0006129572 -0.072488256 0.028695555 0.052799538 -0.12501606 -0.043127257
-0.09463501 -0.0008514784 0.114604786 0.055677023 -0.062325213 0.052599575 0.010367901 0.16994032
0.012667992 0.007422643 0.02818253 -0.016248863 0.050710514 -0.07429558 0.016139437 -0.036206458
-0.10692174 -0.06693926 0.054166436 -0.026196513 0.10805615 -0.10403005 0.080188535 -0.08015617
0.12680204 -0.006928761 0.12043456 0.08320321 0.07101303 0.041382648 0.13714088 -0.030566558
0.12938109 0.09079803 0.09458213 -0.08557005 -0.1505625 0.030668236 -0.09276212 0.0799769
-0.04168728 0.07554542 0.08743747 -0.06727846 0.091968946 -0.0022542195 0.06247113 0.09643487
-0.04833217 0.15954132 -0.051687434 0.14832236 -0.025590198 0.002801811 -0.12413578 -0.12949555
-0.074195795 -0.17022109 -0.12974523 -0.09467731 -0.09123845 0.12816247 -0.13108937 0.045022786
0.0846192 0.08860778 -0.0153904995 -0.034232654 0.10335703 0.017287001 0.0017155587 0.13142568
0.06876431 0.0035845886 -0.003998921 0.04766534 -0.033532288 0.044788208 -0.0027398919 -0.081614934
-0.124265134 -0.0076771188 0.003649314 0.05579346 -0.03776035 -0.15195951 -0.026185393 0.10968081
0.0513413 -0.029836645 0.009286883 -0.13422643 -0.18229648 -0.06522897 0.082673796 -0.037805144
0.0156326 0.13469826 -0.045334242 0.03177678 0.09366685 0.0913172 -0.03947656 -0.08202027
-0.11102313 -0.019681226 -0.12515427 0.046321455 0.007955023 -0.07034153 0.09308841 -0.1354149
-0.018282793 -0.1277959 0.055938482 0.009170131 -0.01316918 0.09082489 0.05128851 -0.05565415
0.12890257 -0.082077935 0.008185083 0.09976017 0.009475694 0.0077087567 0.1000483 0.07731277
0.15197526 0.06153258 -0.10582069 0.099051565 -0.15043396 0.07303369 0.006560259 -0.08675178
0.03221407 -0.14957856 -0.061256282 -0.106760785 -0.099248506 0.023762487 0.07573526 -0.08009668
-0.09810212 -0.12957048 0.018284217 0.03549351 0.07003639 -0.022643715 -0.09458338 0.14034884
-0.077970244 0.08978742 -0.033224083 0.07788882 -0.03501988 -0.062607676 -0.1013625 0.11427571
0.10280063 -0.104093455 -0.10200506 0.055732083 0.055316802 0.010581402 -0.10919077 0.018293696
0.04280759 0.10357487 0.090657204 -0.009113477 -0.06944513 0.12210244 -0.019942043 -0.12619562
0.051020376 -0.04320721 -0.108389564 -0.070245646 0.098614305 -0.0031748759 -0.10833101 0.056823224
0.01409544 -0.054493938 -0.036495216 -0.013816364 -0.0023005165 -0.054629885 0.16523048 0.09124527
0.13566867 0.120642856 0.032927576 -0.04730744 0.050227482 0.024151808 0.026408952 0.09942602
0.09745241 0.10137105 0.08156776 -0.06976444 0.11928822 -0.11940157 0.12919071 -0.11513004
-0.110114224 -0.0048278137 -0.031359736 -0.08196582 -0.004593696 -0.08638635 0.053923186 0.07982936
-0.06411877 -0.020507766 0.11954895 -0.08323793 0.13580985 0.09995509 -0.110924326 -0.069183186
0.07517718 0.049089395 0.0064864126 0.016487394 0.046089333 -0.12860446 0.054564565 -0.11913313
0.06690191 -0.13794434 0.0034333004 0.018009055 -0.14216103 -0.13812634 0.03519133 -0.02791844

layer2.bias f4 [10]
00000000: 70f0 503d 919d 323d 275f b33d 835d 70bd
00000010: aa38 1e3e 404f b53d 0d17 3d3d d43e ea3d
00000020: 75f1 b1bc 37b3 f73d
0.05101055 0.0436073 0.08758383 -0.05868293 0.15451303 0.08853006 0.04616456 0.11437765
-0.021721581 0.120947294

batch_norm_layer2.weight f4 [10]
00000000: 5cf9 8a3f 777c 883f bf3f 873f d0d4 873f
00000010: d6f5 873f 095b 863f 41f9 8c3f a207 853f
00000020: 6e13 8b3f a08e 8a3f
1.0857348 1.0662984 1.0566329 1.061182 1.0621898 1.0496532 1.1013566 1.0392954
1.0865304 1.0824776

batch_norm_layer2.bias f4 [10]
00000000: 4b66 903d ca3d 823c 68a2 00bb fe99 ea3c
00000010: c7d6 0d3d d49a b63c 8db1 953d f2ea 483c
00000020: 1849 553d febd 863d
0.07050761 0.015898604 -0.0019628052 0.028637882 0.034628656 0.022290625 0.07309256 0.012263047
0.05207166 0.06579207

batch_norm_layer2.running_mean f4 [10]
00000000: ad5f 5b3f 52fe 4f3c c6b4 a43d 64d6 05bf
00000010: 4cfc 0c3f f041 72bf 9481 f23e 466a 1dbf
00000020: 615b 81bf 6c07 e23e
0.85692865 0.012694912 0.08042292 -0.5228026 0.55072474 -0.9463186 0.47364485 -0.61490285
-1.0106012 0.44146287

batch_norm_layer2.running_var f4 [10]
00000000: 17c6 b53e 4416 843e 9a37 273e c864 433e
00000010: 0aa0 833e aeae f43e 44e1 2f3e b10e 993e
00000020: b8bd 043f ed71 e43e
0.35502693 0.25798237 0.16329804 0.19081414 0.25708038 0.4778952 0.17175776 0.2989402
0.5185199 0.44618168

mlp.weight f4 [6, 1200]
00000000: 6468 543c ed90 00bd 2c12 16bd 329c d1bc
00000010: a726 debc a905 86bc 6628 febc 35e4 b13c
00000020: 37f3 7e3c ccd8 20bd f335 4ebc 60e8 a6bb
00000030: 125e 49bb 0aa1 5d3c 4612 adbc 016e 3cbc
00000040: 9527 efbc a545 bbbb aeb3 81bc 7ffb 3c3c
00000050: 5eaf 11bd 633e 1cbc 36c8 bcbc 9283 07bc
00000060: 060e a43b 0241 8b3b 85c9 00bd f802 07bd
00000070: ec5f 4c3c 228c e4bc 2d48 5abc 8fb7 a1bc
00000080: a096 163c b99d 1ebd 6556 b1bc 6bc0 0e3a
00000090: e74d 0dbc 1bb8 8aba 1c9c 553b 0dd2 7ebc
000000a0: 17fc 8dbb e97a 1bbd cf6d a5bc 5921 403c
000000b0: 39da f2bc 215d 053a a346 21bc f58f 94bc
000000c0: 7616 9cbb 1449 eabc 5373 1ebc bcd2 00bd
000000d0: 37d7 cdbc b4ee babc 357e ba3b 4498 c5bc
000000e0: dcec aabb b4fb 873c fd6c c7bc 5a72 a2bb
000000f0: 7762 393c 22e4 9ebc b9a0 04bd 88d2 9cba
00000100: 7902 313a d050 563c 09be 02bc bacb 22bc
00000110: 857a 37bc fcba 053c b78c e03b 25ea e6ba
00000120: 3105 5c3c 7abc 743b 25ee 13bd 2843 b5bc
00000130: 8448 653c 018f 01bd 7401 c1bc 7f99 b63c
00000140: 7328 08bc b6ac 63bc b261 61bb 7490 6b3c
00000150: 6fc3 23bb 13c8 4dbb ca2c 35bc c0ec 16ba
00000160: 2919 cdbc 60b3 b9bc 10c3 9cbc ba4a 8bbc
00000170: 5ece e8bc 576e 54bc c0d9 f937 cef2 05bd
00000180: 2360 febb c5b7 ce3b 8142 9dbc 3bad 883a
00000190: cc67 15bc 751e 75bb 3b3c babb 9051 f93a
000001a0: 2fb4 f3bc fe91 a93c 9e6b a73b 698c 6ab8
000001b0: c012 b1bc c2b1 e4bc c402 a0bc 1134 bc3b
000001c0: 6d3f 5bbc 0793 12bd b9d8 773b 6d91 803b
000001d0: da3a 9abc e220 c6bc 4d9f 423c c832 1abb
000001e0: 7e17 de3a 506e 193d d915 5d3c 6af5 523c
000001f0: 0953 5c3d e087 983c 55d8 0d3d 6af8 293c
00000200: 95ec 103c d8dd e23c 0a73 003c 8b56 d83c
00000210: c18f 123c 1039 8a3c 07ff 6c3c 8d34 863d
00000220: e717 8c3d 3d05 a53c fa69 833d ecae 403d
00000230: 6c2e 3a3d 6dad 993d 290e 7a3d 6a9a ea3c
00000240: 8b59 e53c 3da2 793d 20dd 343d 4a50 373d
00000250: 7e22 173d 5ddf 363d 4dad 8f3c a540 573d
00000260: 4713 053d 583f 5f3d e49a 0a3d 7a76 ee3c
00000270: 5833 d33c cd0e 293d f6ed 373d 5289 833d
00000280: 7ec4 f83c c29e 2f3c 097d 6d3d 1e40 293d
00000290: 01c2 d83c c1f8 993d 1c01 8d3d 4cf2 053d
000002a0: c651 3b3d 9648 c53c ad2d b53c a912 133d
000002b0: d24a 503d 2195 6e3d f740 743d bf13 8e3c
000002c0: 537a 6d3d 2cfb 9a3d f4ef 1e3d 0d1c a43c
000002d0: afa5 463d 4dcf 013d 445b f83c 2068 873d
000002e0: b7bf 813d bf84 983d 7dea 823d a933 9f3d
000002f0: 117d 043d 8fd7 df3c 7967 863d 3512 6d3d
00000300: 7485 033d f5f4 2c3d c06a 093d a579 f73c
00000310: dff5 863d 868e 063d 59b0 883d 080c 693d
00000320: 6227 3a3d c8e0 493d c2f7 c83c 5461 783d
00000330: 0082 1d3c 4322 fa3c 9f4c 443d 6481 813d
00000340: 40ac 613d ec8e a93c 6747 883c 56d8 ce3c
00000350: 586c 313d abd0 333d 6c3a 4e3d 793c 823d
00000360: 130b 4b3d c319 233d 2882 8d3c c1af 513d
00000370: a148 823d 99c0 813d 1af1 973d c3b4 163d
00000380: 2118 d53c a39b 883c 219b c13c a7ec 613d
00000390: a265 dd3c 49d3 613d 658e a63c 2ac7 4c3d
000003a0: 01eb 663d 9763 e9b9 9352 0f3d f5ea 663c
000003b0: dba4 5c3c a986 4b3d 3ebf fe3c 28d3 523d
000003c0: 7a66 523d 717d 1b3d ee5f 363d 3f13 213d
000003d0: 6a8d eb3b d737 cd3c d244 0f3d de68 233c
000003e0: 2081 893c 729b 683a cb67 253c f127 103d
000003f0: 4b4e d93b 575d ae3c a935 b43c b387 603c
0.012964342 -0.031388212 -0.036638424 -0.025587175 -0.02711804 -0.01636012 -0.031025123 0.021715263
0.015560917 -0.039269254 -0.012586105 -0.005093619 -0.0030726236 0.013527164 -0.021126878 -0.011500836
-0.029193679 -0.0057150894 -0.015832748 0.011534571 -0.035567634 -0.0095363585 -0.023044687 -0.008271115
0.0050065545 0.004249693 -0.031442184 -0.032961816 0.012474041 -0.027898852 -0.013322872 -0.019740848
0.009191185 -0.038724635 -0.021647641 0.00054455426 -0.00862453 -0.0010583432 0.003259427 -0.01555301
-0.00433303 -0.037959013 -0.020193962 0.011726701 -0.029645072 0.00050874247 -0.009843501 -0.01813505
-0.0047634197 -0.0285993 -0.00967105 -0.031450972 -0.025127036 -0.0228189 0.0056913146 -0.024120457
-0.005216224 0.016599514 -0.024343962 -0.0049574794 0.01131498 -0.019395892 -0.03237984 -0.0011964599
0.00067523826 0.013080791 -0.007979878 -0.0099362675 -0.0111986445 0.008162256 0.006852712 -0.0017617388
0.013428972 0.0037343786 -0.036115784 -0.02212675 0.01399434 -0.03163052 -0.023560263 0.02228999
-0.008310425 -0.013896158 -0.0034390506 0.014377702 -0.0024988314 -0.003139977 -0.011058042 -0.00057573244
-0.025036411 -0.02266854 -0.019135982 -0.017003406 -0.028418716 -0.01296576 2.978451e-05 -0.03270226
-0.0077629252 0.006308528 -0.01919675 0.0010427603 -0.009118985 -0.0037402187 -0.0056834496 0.00190215
-0.029749004 0.020699497 0.0051092645 -5.5920715e-05 -0.021615386 -0.027916793 -0.019532569 0.0057435115
-0.013381821 -0.035784747 0.0037818386 0.003923586 -0.01882689 -0.024185602 0.011878801 -0.0023528803
0.0016944257 0.037458718 0.013493978 0.012875894 0.053790126 0.018619478 0.03463014 0.010374168
0.008845468 0.027693674 0.007839927 0.026408454 0.008945406 0.016872913 0.0144651 0.06552992
0.068404965 0.0201441 0.06416698 0.04704182 0.045454428 0.075037815 0.06104866 0.028638083
0.027996799 0.060945738 0.044156194 0.044754304 0.03689813 0.04464661 0.017538691 0.052551884
0.032489087 0.05450377 0.03383912 0.029109228 0.025781319 0.04127388 0.04490467 0.06422676
0.030367132 0.010719003 0.05798057 0.041320913 0.026459696 0.07518149 0.06884977 0.032701775
0.045732282 0.024082463 0.022116506 0.035906468 0.050852604 0.05824769 0.059632268 0.0173434
0.057977986 0.075674385 0.038803056 0.020032907 0.048497852 0.031691838 0.030316956 0.06611657
0.06335395 0.07447194 0.06392381 0.07773525 0.032345835 0.027324466 0.065627046 0.05787869
0.032109693 0.042225797 0.03354907 0.030209372 0.06589865 0.032850765 0.06674261 0.05689624
0.045447715 0.049286634 0.024532203 0.060639694 0.009613514 0.030533915 0.047924634 0.063235074
0.05509591 0.020698033 0.01663561 0.025249641 0.043316215 0.043900173 0.050348684 0.063591905
0.049571108 0.03981949 0.017273977 0.051193003 0.06361509 0.06335563 0.07419033 0.03679348
0.026012482 0.016675776 0.023633542 0.05515733 0.027026001 0.055133138 0.02033157 0.049994625
0.05637646 -0.00044515423 0.03499086 0.014094104 0.013467039 0.04968897 0.03109705 0.051470906
0.05136726 0.037961427 0.04452508 0.039324995 0.0071884887 0.02505104 0.03497774 0.009973733
0.016785204 0.0008873261 0.010095547 0.03519434 0.0066316477 0.021284742 0.021998243 0.013704228

mlp.bias f4 [6]
00000000: 4b9c 16bd 9619 1a3d b0ac 23bd bd49 babc
00000010: 0b4f 7ebc aaf9 bf3c
-0.036770146 0.037622057 -0.03995961 -0.02274024 -0.015521775 0.023434479
