models/UCIHAR_1D_Residual_Model_q.pt (torch, 17479 bytes, 5 tensors)

layer1.bias f4 [10]
000000 bc 5c d5 bd 1e 17 d0 be 3e 5f d9 3f b8 ab 1c bf
       -0.10418078 -0.40642637 1.6982191 -0.6119952
000010 4c c4 ac bb e9 2e a7 3f e3 e0 9a 3f 65 7a 39 bf
       -0.005272424 1.3061191 1.209988 -0.72452384
000020 a6 92 22 c0 72 0b a2 bd
       -2.5402007 -0.07912339

residual_block.layer1.bias f4 [10]
000000 6e 80 ad 3e ea d5 89 3e 3e 8d 8b 3f ee 30 97 3e
       0.33887047 0.26921016 1.0902479 0.29529518
000010 1a 0f ec 3e 07 17 f4 3e be 44 c5 3e b5 af 83 3f
       0.46105272 0.47673818 0.3852901 1.0287997
000020 53 a5 aa be 30 97 09 3f
       -0.33329257 0.5374632

residual_block.layer2.bias f4 [10]
000000 d1 91 41 3f 56 bd df be cd 6d dc 3d 01 90 91 3f
       0.75613123 -0.4369914 0.1076313 1.1372072
000010 7a d4 70 bf 24 e2 6f be 64 aa a7 3b a9 d9 90 bf
       -0.94074214 -0.2342611 0.0051167477 -1.1316425
000020 a4 ec 69 3f 52 2a 94 be
       0.9137671 -0.28938538

layer2.bias f4 [10]
000000 da f1 b2 bf da 76 a5 3d dc 4d 89 3c 30 fb 93 3f
       -1.3980057 0.0807931 0.016760759 1.1561031
000010 85 9e 4b bf e9 f9 cb 3f ea 0c 88 bf b3 01 b3 3f
       -0.79538757 1.5935642 -1.0628941 1.3984894
000020 79 a7 c5 3f 22 40 e8 be
       1.5441734 -0.4536143

cpu f4 [6]
000000 4b 9c 16 bd 96 19 1a 3d b0 ac 23 bd bd 49 ba bc
       -0.036770146 0.037622057 -0.03995961 -0.02274024
000010 0b 4f 7e bc aa f9 bf 3c
       -0.015521775 0.023434479
